pinn_ns/conversion/snnmodel64.pth (torch, 90302 bytes, 14 tensors)

model.0.weight f4 [64, 3]
000000 72 2e 30 3f 3c e0 86 be f3 29 80 3e 9e ed 50 3f
       0.6882087 -0.26342952 0.25032005 0.81612575
000010 25 3a 27 3f a5 7b a4 be 9a b8 97 bd e9 3b 00 3d
       0.65323097 -0.32125583 -0.07408257 0.031307135
000020 65 49 9e 3e 14 4e 5f 3e a9 c1 b4 bd d4 ac d0 be
       0.3091537 0.21807128 -0.08826 -0.40756857
000030 8d 42 23 3f ea a6 37 bf b8 a6 e5 bd f4 d1 ee be
       0.63773423 -0.71739066 -0.1121344 -0.46644557
000040 c1 21 d0 be e6 c1 2c 3e 55 bb d8 3e a3 2e c1 3e
       -0.40650752 0.16870841 0.42330423 0.37730893
000050 e4 68 45 be 48 bb 91 3f 28 f9 20 bc 01 8a 91 be
       -0.19278294 1.1385279 -0.0098250285 -0.284256
000060 2c bc 1a bf e4 36 0b 3f 37 64 70 3e 27 ef 16 bf
       -0.6044338 0.5438063 0.23475729 -0.5895867
000070 cc 0a 80 3e 6b d6 0c 3e de 93 bc bd 03 f7 5b bf
       0.25008237 0.13753669 -0.09207891 -0.85923785
000080 18 cc df 3e 25 75 4b bc 37 46 cd 3c 3d 5b b7 be
       0.437104 -0.012418066 0.025057895 -0.35811797
000090 1f fc 19 3f c8 bc cd 3e 36 5a 4d bf 46 ce 40 3f
       0.6015033 0.4018309 -0.80215776 0.7531475
0000a0 41 41 20 bf 25 ba 3d bf 4a 35 29 3d 91 32 50 bf
       -0.6259957 -0.7411216 0.041310586 -0.8132716
0000b0 90 ae 36 bf df 4d f3 bd 8c 6e 6c 3e 73 db a3 be
       -0.7136011 -0.11880087 0.23089045 -0.32003364
0000c0 0c d2 11 bf 4b 88 22 3e 01 c1 98 3e 59 c2 11 3e
       -0.5696113 0.15872304 0.2983475 0.14234294
0000d0 10 6d 0c 3e 1e 34 ed be e3 e1 40 3f b2 e8 e0 3d
       0.13713479 -0.46328825 0.75344676 0.10981883
0000e0 1f e3 25 3e 32 77 af be 8b 94 c4 3d 0f b3 ef be
       0.16199921 -0.34270626 0.09598645 -0.46816298
0000f0 31 5f dc bd 78 e6 e6 be a2 ba dd 3e 69 cb 24 be
       -0.10760344 -0.4509771 0.43306452 -0.1609322
000100 1d 2f b5 bb f2 4c e6 3d dd 9a 53 3c f4 de 0c bf
       -0.005529298 0.11245145 0.01291534 -0.550277
000110 98 4b d3 be 43 3b 56 3f ee c7 ea be e4 3e 9d 3d
       -0.4126861 0.83684176 -0.4585566 0.07678011
000120 d7 5f b9 3e d0 63 c6 be 39 5c c2 be 0d 1a 2c 3f
       0.36205932 -0.38748026 -0.37960985 0.6722725
000130 ee a8 b7 bd 42 22 8b bd 7d 2c 19 be 11 40 ab be
       -0.08967768 -0.067936435 -0.14958377 -0.33447316
000140 18 b3 b9 3e b0 75 17 3f f4 89 29 be b0 0d a0 3e
       0.3626945 0.5916395 -0.16556531 0.31260443
000150 2a ef 2a 3f 91 00 92 be 0a 18 3e 3e 4e 4e 39 3f
       0.66771185 -0.28516057 0.18563858 0.7238511
000160 f1 e1 0b be 79 84 7a be fb d4 2d 3e 05 03 87 be
       -0.13660409 -0.24464597 0.16975777 -0.2636949
000170 0b 73 14 bf de 24 48 3f 6b a6 ca bd 1e 7e 31 3f
       -0.5798804 0.78181255 -0.09895023 0.69333065
000180 2e 9b ed 3e ff ea 45 3f 89 c1 36 3e 9b b0 27 bf
       0.46407455 0.773117 0.17847265 -0.65503854
000190 8d ec 02 bf be 48 00 bf 83 fe f9 be 77 92 37 3d
       -0.511422 -0.50110996 -0.4882699 0.044817414
0001a0 d8 ee 06 bf 7d 07 ff be 24 9e 19 bf 80 ec ed be
       -0.52708197 -0.498104 -0.6000693 -0.46469498
0001b0 9c eb b6 be 97 04 d2 be 14 c1 d5 bc 57 be 02 3e
       -0.3572663 -0.41019127 -0.026093043 0.12767921
0001c0 91 43 a4 3d 62 0b 67 3f f1 12 eb be 06 4d c2 be
       0.080207 0.90251744 -0.4591289 -0.3794939
0001d0 00 5f 26 3f bb a6 b5 be ca 23 9c be 9e db b8 be
       0.6498871 -0.35478768 -0.30496055 -0.36105055
0001e0 4b 4b 0e 3e fb d6 9b 3d a8 42 37 3f f8 2e d8 3c
       0.1389591 0.07609364 0.71586084 0.026389584
0001f0 6e 5e 40 bf bb 0d 6e be c3 a2 2b 3e b4 32 98 be
       -0.7514409 -0.23247425 0.16761307 -0.29726183
000200 0e cf 51 3f 6a 2b fd be 0e d5 9a be fd b0 84 3d
       0.81956565 -0.49447185 -0.30240673 0.0647907
000210 16 03 85 be c6 10 e1 3e e6 70 81 3e 8d fb 8b 3e
       -0.25978917 0.4395811 0.25281447 0.27340356
000220 f9 91 10 bd 64 46 85 3e 62 ab 28 bf 65 82 4f be
       -0.03529546 0.26030266 -0.6588651 -0.20264585
000230 15 ed 5c 3e 96 c4 53 3f fc 47 91 bd c7 61 69 bd
       0.21574815 0.8272184 -0.07093808 -0.056978013
000240 2a 39 b0 bb f3 7d ce 3c 3c fb 88 3f 1c 91 d1 bd
       -0.0053779082 0.025206542 1.0701671 -0.102327555
000250 b7 d3 0e be 93 7e 61 3f ce 41 5e 3d f3 17 01 3c
       -0.1394795 0.8808376 0.054261975 0.007879245
000260 93 79 c9 3e b8 61 0f 3f c0 51 39 bd ce 2d 25 be
       0.39350566 0.5600848 -0.04524398 -0.16130754
000270 89 c4 18 bf e1 a3 d8 3e 09 d6 ab be 48 aa 18 be
       -0.5967489 0.4231253 -0.33561733 -0.14908707
000280 b2 97 c0 be 8f 73 67 3e 42 e4 57 3f 28 52 04 3e
       -0.37615734 0.22602676 0.8433267 0.12921965
000290 44 72 1c bf a5 5e 18 bf 2e c3 2d be 3e fb ca 3e
       -0.61111856 -0.59519416 -0.16968986 0.39644808
0002a0 3e 2b 4f bf 65 7e 51 bd 36 22 f8 bc 19 f0 88 be
       -0.8092536 -0.05114593 -0.03028975 -0.2674568
0002b0 84 07 92 3e 03 55 2a bf 54 1f a6 bd 10 29 1d be
       0.2852136 -0.6653597 -0.08111444 -0.15347695
0002c0 08 62 0d bf c6 86 b6 3d c9 94 06 bf bb 46 2b 3f
       -0.5522771 0.08912425 -0.5257078 0.669048
0002d0 56 e9 e6 be 59 4c ff 3d 6c bf c3 be b0 f4 11 3f
       -0.45099896 0.12465734 -0.3823198 0.5701399
0002e0 e4 aa c3 be 93 03 4d 3e 6f 4f 3b bf 0d 70 23 3d
       -0.38216317 0.20020895 -0.7316808 0.03990178
0002f0 0a a3 bc 3d 91 f2 a1 be 89 4a c9 3d 6b 4e d5 3e
       0.09210785 -0.31630376 0.098286696 0.4166139

model.0.bias f4 [64]
000000 b3 9e 72 be b7 93 fa 3b 4a 5c 95 be 3c d8 f0 bd
       -0.23693351 0.0076470035 -0.29171973 -0.117599934
000010 29 b6 03 bf 4f 6e 6e be d0 e4 b4 3e 9f a2 df 3d
       -0.5144983 -0.23284267 0.3533082 0.109196894
000020 62 2f 84 3e 04 5a 2b 3d 9b 9c 4b 3e aa d1 78 be
       0.258174 0.041833892 0.19883959 -0.2429873
000030 70 66 a3 3d 62 0c 51 be 63 b1 d7 be 1b c5 0d bf
       0.07978523 -0.2041488 -0.42127523 -0.55378884
000040 f2 ee e2 3e e6 12 84 3e 2f 8a a2 be 53 61 75 3c
       0.44322926 0.25795668 -0.3174605 0.014976817
000050 03 dc 4e be e0 4c 93 be aa 82 b1 be fd 11 aa 3e
       -0.20201115 -0.28769588 -0.3467 0.3321685
000060 e1 cf 8c bd 05 a2 fd 3e a6 7c eb bd 07 a7 4f 3e
       -0.06875587 0.49537674 -0.11498384 0.2027856
000070 d4 62 34 3c 94 1a 42 3e 65 9d 8b 3c 04 f1 0d 3f
       0.011009891 0.18955451 0.017042825 0.55445886
000080 8d 28 0d bf 0d c9 18 be f9 00 d9 3e e4 78 f1 3e
       -0.5514 -0.14920445 0.42383555 0.47162545
000090 16 1e 7e be fb 9b 4c bd d2 22 02 3f 94 87 cd be
       -0.24816164 -0.049953442 0.5083438 -0.401425
0000a0 43 b9 6f be b4 94 11 bf a2 53 b6 be 7e 8e ac be
       -0.23410515 -0.5686753 -0.35610682 -0.33702463
0000b0 58 7b a4 3e 38 1a 15 be 71 cc 53 3e 1b e2 88 3e
       0.32125354 -0.14560783 0.20683457 0.26735005
0000c0 ce d3 a0 be 14 cc 48 3e 9b 6d 2f be 67 32 04 bd
       -0.31411594 0.196091 -0.17131655 -0.03227463
0000d0 d9 53 7d be 48 c9 90 be cf 49 98 be e0 25 7b 3d
       -0.24739017 -0.28278565 -0.2974381 0.061315417
0000e0 08 4d ab 3c 20 09 f0 be 61 b6 85 bd c2 dc 84 3e
       0.020910755 -0.46881962 -0.06528927 0.25949675
0000f0 03 4a 0d 3f f3 22 da bd 97 b0 1c be 6f c3 fe bd
       0.5519106 -0.10651197 -0.15301739 -0.1243962

model.2.weight f4 [64, 64]
000000 40 91 4c bd e4 95 c8 3c 8c 5d 47 bc b9 1e 72 3d
       -0.04994321 0.024485536 -0.012168299 0.05911133
000010 bf de b3 bd 3d b7 0f bd a9 5e 76 3d 94 34 91 bc
       -0.0878272 -0.03508686 0.06014887 -0.017725267
000020 59 b4 39 3d d5 ad 70 3d 4e 66 13 3b 38 28 d9 bd
       0.04533801 0.05875953 0.0022491398 -0.10603374
000030 d2 86 83 3c 4a 50 a8 bd c5 c1 f3 3d a8 1f 9d bd
       0.016055498 -0.08218439 0.11902193 -0.076720536
000040 fa 76 ce 3d 4a 5d 57 3d ea af c3 3d 5c 2c cb bc
       0.10081287 0.0525792 0.09555037 -0.024801426
000050 04 29 e6 3d 1a 7f 40 bd 65 16 54 3c 6a 05 09 be
       0.11238292 -0.046996213 0.012944792 -0.13380972
000060 8e 68 ce bd 78 37 68 bc 89 07 42 bd 52 af b6 3d
       -0.10078536 -0.014173381 -0.047370467 0.089201584
000070 39 4f 47 3d 2e 21 b6 bc da 95 4c bd 38 8f fd bc
       0.048659537 -0.022232618 -0.049947597 -0.030952081
000080 34 7d 0f bd 6d 23 59 3d d3 cb 5e ba 90 46 07 be
       -0.035031512 0.0530123 -0.0008499 -0.13210511
000090 5a a6 f9 bd 51 aa 18 3e 25 17 a8 bd 19 c9 b7 3d
       -0.12189932 0.1490872 -0.082075395 0.08973903
0000a0 4e 52 bb 3b dc 92 90 bd b9 7e 1c 3e ae 14 6c bd
       0.0057165986 -0.07059261 0.15282716 -0.05763691
0000b0 72 a7 4d bc 97 1e ec bd 04 6b 87 bd 8f 1f be 3c
       -0.012552129 -0.11529272 -0.066122085 0.023208408
0000c0 75 7d a2 3d c9 19 84 bd aa 8f 38 3d 03 e3 23 3d
       0.07934085 -0.06450231 0.045058884 0.040011417
0000d0 23 c7 87 3d 31 ad db bd 34 b5 a0 3d a8 d8 e4 39
       0.06629779 -0.10726393 0.07847062 0.0004364897
0000e0 a9 6f b0 3d 68 6c 3e 3d ee 62 8a bd a5 2b ce bd
       0.086150475 0.046490103 -0.067571506 -0.10066918
0000f0 c4 c9 83 3d ae 1e db 3d 9a 6a cb 3c f9 1d 11 3e
       0.06434968 0.10699211 0.024831105 0.1417159
000100 9b a7 4a 3d 19 68 bc 3d e6 25 cb 3d d4 26 ea bd
       0.049476247 0.091995426 0.09919338 -0.11433187
000110 67 ed 50 bd d0 cd 13 3e df 94 fd 3c 76 d3 64 bc
       -0.051007655 0.1443398 0.030954776 -0.013966432
000120 8d 98 d9 bc bf 2f 96 bd 7c b0 74 3d 22 97 b2 bd
       -0.026562 -0.073333256 0.05973862 -0.087202325
000130 d9 94 db 3d 09 89 b6 3d 9e 72 83 3d 07 29 e9 3c
       0.1072175 0.08912856 0.06418346 0.028461946
000140 78 d9 74 3d b3 c1 f2 bc 4f 7f 4c bd 80 3a 8e bd
       0.059777707 -0.029633379 -0.0499261 -0.06944752
000150 14 b9 b3 bc 82 7d 78 bd 55 50 e2 3c 51 17 a4 bc
       -0.021938838 -0.06066657 0.027626196 -0.02003065
000160 5a 31 79 bd 84 58 11 3d c0 c7 ef 3d 5a 6a eb 3b
       -0.06083808 0.035484806 0.11708021 0.007184309
000170 5a f3 9e bd e2 d5 02 be 74 df 84 3d a9 93 81 bd
       -0.077612594 -0.12776902 0.06487933 -0.06326992
000180 3a a4 17 be 34 37 56 bd 7e cb 63 3e 64 8e 07 3e
       -0.14808741 -0.05229874 0.22245595 0.13237911
000190 bf ec 00 3e 6c fe 15 3d 44 0c 54 bd 33 0f 0a 3c
       0.12590311 0.03661959 -0.05176951 0.008426475
0001a0 c1 2d b1 3d 3c 77 37 3d 4e b2 cd 3d 90 65 36 3e
       0.08651305 0.044791445 0.100437745 0.1781218
0001b0 be 2c 11 bc 48 e1 9d bd a9 cd 3e bd 1f 16 3b 3c
       -0.008860765 -0.077089846 -0.04658285 0.011418848
0001c0 5c 4a c6 3d 02 89 b2 3d cb 06 d5 3d 32 88 05 be
       0.09682152 0.087175384 0.10401686 -0.13040236
0001d0 ce 4a 0f 3d 42 4b 28 3e fc 0e ab bc 6e 26 3f bd
       0.03498345 0.16434959 -0.020881169 -0.04666751
0001e0 27 86 4d bc 2c da 52 bd e6 72 83 3d 15 ea b3 bd
       -0.012544191 -0.051477596 0.064183995 -0.08784882
0001f0 ee f4 01 3e ac 19 d0 bd e0 75 23 3e 58 c2 d3 3d
       0.1269109 -0.101611465 0.15962934 0.103398025
000200 34 be f6 3d ca 60 3b bd 95 f7 76 3d 24 c4 5d 3d
       0.12047997 -0.045746602 0.060294706 0.054142132
000210 69 bc fa 3d d8 ea 06 be 3f 12 bf 37 33 7a ad 3d
       0.12242968 -0.13175523 2.277747e-05 0.08470573
000220 20 fa be bd 99 b8 ea bc 02 c8 81 bd 45 d5 af 3b
       -0.09325051 -0.028652476 -0.063369766 0.005366
000230 f9 83 1b 3d 20 24 8d bd 55 97 48 bd 0d 13 82 3c
       0.037967656 -0.06891656 -0.048972446 0.015878225
000240 39 44 0a be 98 a6 9f 3c 07 d9 29 3e 2e 3c 01 bd
       -0.13502587 0.019488618 0.16586696 -0.031551532
000250 8f 05 2f bb f4 b6 68 bd 9e 43 d9 bd a1 41 f8 3d
       -0.0026706194 -0.056815103 -0.106086 0.12121893
000260 9e bc f6 3d 9c 54 1e 3d 50 f3 ad 3d d2 93 bb bd
       0.120476946 0.03865491 0.08493674 -0.09159054
000270 39 9b 11 3e 13 cc 16 3e 75 21 0c 3e 01 ad e4 bd
       0.14219369 0.14726286 0.13684638 -0.111658104
000280 03 16 e7 3d 30 81 a1 3d ce b1 97 bd 20 5d 7c bd
       0.11283495 0.07885969 -0.074069604 -0.06161225
000290 57 9d 7c bd 9d 28 bf bc 67 62 6c bc 2f 36 bd bd
       -0.06167349 -0.023334796 -0.014427758 -0.0923885
0002a0 a2 17 f2 bc b3 d5 b6 3d 57 9b 0e 3c de 1b 14 3d
       -0.029552285 0.08927479 0.008704028 0.03615939
0002b0 97 db d1 bd b8 8a 88 bd 4c a7 b9 bb ed 52 17 3e
       -0.102469616 -0.066670835 -0.0056656953 0.14777727
0002c0 76 b8 4c be fb 8f 15 be c8 cd 0a be 17 ec 10 3c
       -0.19992241 -0.14605705 -0.13555062 0.008845351
0002d0 df 22 e3 3a f8 cf 12 be b7 61 89 bd c9 3a 25 3d
       0.0017329118 -0.14337146 -0.06708091 0.040339265
0002e0 e6 ce 1a 3d 8d ae 14 3d f7 d2 ac bd 69 d0 b4 bd
       0.03779497 0.036299277 -0.08438676 -0.088288136
0002f0 b0 c2 80 bd ff 9f a8 bd ab 13 b9 bc d9 e9 4a bc
       -0.06287134 -0.08233642 -0.022592386 -0.012384855
000300 b8 fb 0c be d6 0f 8d bd c3 b9 33 bc b5 0e 96 bd
       -0.13767898 -0.06887786 -0.010969582 -0.07327024
000310 24 66 bd bb 97 19 88 bc 0a c4 ba 3c 5b f6 9f bd
       -0.0057799984 -0.016613765 0.022798557 -0.078106605
000320 37 85 a6 bd ad d8 51 bd 11 f8 45 3e 2a af 4b bd
       -0.081308775 -0.05123203 0.19332911 -0.049727596
000330 2d 8c 82 3c 5d 7c c5 bc 56 2f 1a be 33 5d 17 bd
       0.015935982 -0.024107153 -0.1505712 -0.036954116
000340 36 8d a1 bd d0 d2 db bb 6d e8 fb bd e7 b6 54 bd
       -0.07888262 -0.0067084804 -0.12300191 -0.05193224
000350 f5 35 c0 3d a4 2e 96 bd cd 35 17 3d 3d 7c 9f bd
       0.093852915 -0.07333115 0.036916543 -0.077873684
000360 72 a3 88 3d ec 45 21 3d f6 fa 2c bd ec ea 57 3d
       0.066718 0.039373323 -0.042231523 0.052714273
000370 6c 36 c4 3d a4 92 16 3e ff f8 0b be f6 f7 24 3e
       0.09580693 0.14704376 -0.13669203 0.16110215
000380 30 d8 0e be 64 a8 52 3d 2e 50 0f be aa 9a f0 3d
       -0.13949656 0.05143012 -0.1399543 0.1174825
000390 56 c0 27 3c 29 f5 51 3d a6 06 83 3c 30 01 4f bd
       0.010238728 0.051259194 0.015994381 -0.050538242
0003a0 42 94 41 3e 24 ca 24 be 10 5c 0f 3d bb 12 28 3d
       0.18904212 -0.16092736 0.034999907 0.041033488
0003b0 38 63 fb bc 43 3d 06 3e 43 d2 a4 3d ef aa 9b 3d
       -0.03068696 0.13109307 0.08047917 0.07600962
0003c0 e3 3e b1 3e 4f 25 0a 3e 8c 6d 11 3e 6f 97 38 3d
       0.3461829 0.13490795 0.14201945 0.045066293
0003d0 8b ea 60 3d 62 3b 46 bd 78 47 08 be 75 a0 88 3d
       0.054911178 -0.048396476 -0.13308513 0.0667123
0003e0 58 eb 51 3d 2f 62 25 be ad ee df bd 05 8d 15 3d
       0.051249832 -0.16150735 -0.10934196 0.03651144
0003f0 ee 80 bf bd 26 0e d7 3c 42 03 8b bd db 38 8d bd
       -0.09350763 0.026251864 -0.06787731 -0.0689561

model.2.bias f4 [64]
000000 ef 28 b7 3d 63 ce bb bc 13 21 f1 bc 92 df 3a bd
       0.08943354 -0.022925561 -0.029434716 -0.04562337
000010 f0 1c 74 3d 4c 87 fd 3d 42 60 98 bd 98 66 08 be
       0.05959791 0.123793215 -0.07440235 -0.13320386
000020 57 a5 55 bd 67 f7 c3 bc 2a e8 cb bd ea d1 e9 3d
       -0.052159633 -0.023921682 -0.09956391 0.11416991
000030 7b 7d 71 bd ff 02 ab 3d 44 e6 29 bd ef d8 13 3c
       -0.058957558 0.08350181 -0.041479364 0.009023889
000040 db 98 73 bb 5f 35 f1 3d d2 7e 05 3d 09 c8 cc 3b
       -0.0037169966 0.11777758 0.03259165 0.006249432
000050 98 38 7c 3d e9 b5 b3 bc 03 6b 5e bd 90 49 e9 bc
       0.06157741 -0.021937327 -0.054301273 -0.02847746
000060 b9 9a 02 be 1b 44 b4 3c f1 99 5c bd 7c 1c 0f be
       -0.12754335 0.022005131 -0.053857747 -0.1397571
000070 b2 72 08 3d 8c 13 9c 3c 8e 98 08 3e 23 32 c9 bd
       0.033312507 0.01905229 0.13339445 -0.09824016
000080 20 bd 5b bd e0 ec ac 3d 4f 3c c7 bd cc 07 9a bd
       -0.05364716 0.08443618 -0.097283 -0.075210184
000090 d7 ef 05 be 76 fd 47 bd c1 2a 83 bd e5 51 a4 3d
       -0.13079773 -0.048825704 -0.06404639 0.08023433
0000a0 85 77 22 bd a8 37 66 3c 78 a3 a8 bc 22 42 03 3d
       -0.039664764 0.014051355 -0.02058576 0.03204549
0000b0 e6 9a 74 3d b1 06 19 bd b6 c7 be bc e8 d0 11 3e
       0.059718035 -0.037359897 -0.023288589 0.14239848
0000c0 9f 24 41 3e 5b 18 e8 3c 50 64 96 3b b7 34 4f be
       0.18861626 0.028331926 0.004589595 -0.20234953
0000d0 84 bc e1 3c ba 81 50 bc ca 07 a3 3d cc f8 0a 3d
       0.027555712 -0.012726242 0.0796047 0.033928677
0000e0 e5 1e b9 3c 46 59 f0 3d 93 bf 31 bd bc 67 8e bd
       0.02259774 0.117357776 -0.04339559 -0.069533795
0000f0 d8 01 a0 3d df 7b ba 3c 66 44 95 3c 69 ee 14 3e
       0.07812852 0.022764144 0.018221091 0.14544071

model.4.weight f4 [64, 64]
000000 7d 06 19 be 2d 34 cd 3d c8 87 85 3c 8c 9a a1 bd
       -0.14943881 0.10019717 0.016300097 -0.078908056
000010 fc 49 6d 3d e2 ad d8 bd 2d 4a 2a 3a 04 b6 34 bd
       0.057931885 -0.105800405 0.00064960384 -0.044118896
000020 02 55 1a bd 22 ec 4e be 8e 47 7e 3d d0 cc 0b be
       -0.037678726 -0.20207265 0.06207996 -0.13652349
000030 3c b2 ec bd e6 b3 a0 3d 60 61 ac bd aa 6e d2 bd
       -0.11557433 0.07846813 -0.0841701 -0.10275014
000040 26 74 87 bd b4 5a e2 bc b3 d3 8d 3d 3c d6 b6 3d
       -0.066139504 -0.027631141 0.06925144 0.08927581
000050 d6 3b a9 bd d9 cc 81 3d 7c ac 48 3d 15 bd cb b9
       -0.08263366 0.063379 0.04899262 -0.00038860054
000060 c5 7e 7e bd bc 0e 83 bc f8 37 2f bd 3e 00 c6 3d
       -0.062132616 -0.015998237 -0.042777985 0.09668015
000070 6e 8d 2b 3d 5f 15 12 3e 2e 20 d5 bd 3f 12 34 3b
       0.041882925 0.14265965 -0.104065284 0.0027476696
000080 b0 de 7c 3e 72 be 0c be e9 b9 00 be f4 49 50 bd
       0.24694324 -0.13744524 -0.12570919 -0.050851777
000090 89 ae 03 3b 48 7f 98 3d 6b 89 6a 3c 6e 73 8e 3c
       0.0020093045 0.07446152 0.01431499 0.017389026
0000a0 d2 7f 5f bc fa f0 81 3d 98 95 0d 3d 73 37 93 38
       -0.013641315 0.06344791 0.03456649 7.0198344e-05
0000b0 1c 50 c6 bd e2 4e 9f bd 03 c7 69 be 4a 27 b8 3d
       -0.096832484 -0.077787176 -0.22829823 0.08991869
0000c0 99 95 84 bd 79 e9 1e be 83 77 1f 3e c6 6d b1 bd
       -0.06473846 -0.1551875 0.15572934 -0.08663516
0000d0 09 86 bc bc ae a3 97 3c 51 32 48 3d 59 16 4c bd
       -0.023013132 0.018510666 0.04887611 -0.049826
0000e0 ce e8 f4 bc e7 89 e2 3d 93 ce 72 3c 4e d1 85 3d
       -0.029896166 0.11061459 0.014819759 0.06534062
0000f0 b4 ee 4f 3e ad f8 3f 3d 2d 15 16 3d 97 62 73 3d
       0.20305902 0.046868015 0.03664129 0.059420194
000100 f4 ad 97 3d 00 44 3c bd 37 e4 88 bd af cc d3 3d
       0.07406226 -0.045963287 -0.066841535 0.10341775
000110 f0 3a 26 ba bc 1f 02 3e b9 72 0b be e5 7c 22 be
       -0.000634118 0.12707418 -0.13617982 -0.15867956
000120 ac 7d fa bd b2 81 df 3e c3 d5 5f 3c be 02 83 bd
       -0.12231001 0.43653637 0.013661805 -0.063970074
000130 08 42 13 3c 41 8a 26 be 9b 0e 3d 3e 36 44 ee 3d
       0.008987911 -0.16263677 0.18462603 0.11634104
000140 6d 3f 5e bd 08 68 48 3d 52 6e 3f 3e 4e f8 2f bd
       -0.054259706 0.048927337 0.18694428 -0.04296141
000150 89 6b 0f 3e 65 a4 d6 bd 96 10 f2 3d ef 37 40 be
       0.14005865 -0.104805745 0.1181957 -0.18771337
000160 d8 24 52 bc 1d 15 c3 bb c6 d2 6b bd 96 4f 8e bd
       -0.012826167 -0.0059534446 -0.057574056 -0.069487736
000170 40 0a 05 bd fa 96 52 3e 4c ac 63 3e e3 d2 b0 be
       -0.03248048 0.20565405 0.22233695 -0.34535894
000180 41 a9 05 be 01 b9 25 3e 52 71 f2 3d 55 c8 89 be
       -0.13052846 0.16183855 0.118380204 -0.26910654
000190 64 16 c6 bd f3 da 32 3e 35 92 a5 3d c6 c0 f4 bd
       -0.096722394 0.17466335 0.080845274 -0.11950831
0001a0 4e ad 8f 3c 20 de 5f bc 98 ab 06 be 98 da ec bc
       0.017538693 -0.013663799 -0.13151395 -0.028912827
0001b0 46 92 2d be 02 6f 89 bd 2a da 19 bd 7c 70 19 3e
       -0.1695033 -0.06710626 -0.037561573 0.14984316
0001c0 3d 9e dc bd d1 a3 5a 3e fe 37 2b be 20 49 cd bc
       -0.10772369 0.21351553 -0.16720578 -0.025059283
0001d0 47 a1 0e be b6 f5 5b 3b e8 57 43 3d 48 4b 1b 3e
       -0.1392871 0.0033563203 0.047691256 0.15165436
0001e0 13 62 d4 3d 2e b7 ed bd 9e d1 ee bc 4b 39 cd 3d
       0.10370269 -0.116072044 -0.029152688 0.100206934
0001f0 37 ab c6 be f9 20 82 be c7 a2 7c 3e 49 5e 6b 3e
       -0.38802502 -0.2541578 0.2467147 0.22985186
000200 79 93 9c bd eb eb 98 3d 83 25 0c 3e 95 97 0e 3e
       -0.07645316 0.07466873 0.13686185 0.13925011
000210 5e 8a 9f 3d d7 71 1d be 52 04 1a be 78 85 ae 3d
       0.07790063 -0.15375458 -0.1504071 0.08521551
000220 60 c8 66 3d f4 71 01 be 53 ac 8d 3d 27 43 ed bd
       0.056343436 -0.12641126 0.06917634 -0.11585074
000230 4a 69 21 be 95 c5 0f bd 07 08 db 3c db 6b f1 3c
       -0.15762821 -0.03510054 0.026737226 0.029470375
000240 40 be 5b bd 72 76 95 3d 1e e7 90 3d a0 7c e2 3c
       -0.053648233 0.07297982 0.07075332 0.027647316
000250 42 42 14 3d 1c c6 b8 3d 0e bc d5 bd f0 ad e7 3d
       0.036196 0.09022161 -0.10436259 0.11312473
000260 90 78 20 3e 5d ce e1 3a 1d 54 5e bc d7 b6 c1 3d
       0.15670991 0.0017227639 -0.013569859 0.09458702
000270 b9 30 50 3d 54 4b 93 be 76 d5 89 bd 05 0a 0d 3d
       0.050827716 -0.28768408 -0.067301676 0.034433383
000280 4f 85 3a 3a c0 2e af bd bb c4 13 bd f6 e7 0c 3e
       0.00071152014 -0.08553839 -0.03607629 0.13760361
000290 96 b7 cf 3d f7 08 6f bd 6e 4b f5 bc 4c a0 aa 3d
       0.10142438 -0.05835816 -0.029943194 0.083313555
0002a0 73 d7 eb bd de ee 28 3d 41 5a 33 bd dd e3 a4 bd
       -0.11515703 0.041243427 -0.043787245 -0.08051274
0002b0 ee a6 ac bd d2 36 75 3c f7 d1 37 be cb 15 05 3d
       -0.08430277 0.014966683 -0.17951189 0.032491487
0002c0 ea 4e a1 bc 9f 37 43 3d a9 7b 8f 3d 56 93 6a bd
       -0.01969095 0.047660466 0.07006008 -0.057269417
0002d0 3e 0c 84 bd db 24 fb bb bb 21 86 bd ee 74 06 be
       -0.064476475 -0.0076643056 -0.06549402 -0.13130543
0002e0 83 97 a5 bc ae e2 b7 3d 39 3a c7 3c 98 3e bd bd
       -0.020213848 0.089787826 0.024319755 -0.092404544
0002f0 94 06 27 3e e7 a9 c6 3c 27 bb 3c bd 30 dc a8 bd
       0.16311103 0.024250938 -0.04607692 -0.082451224
000300 ba ee 59 3d 9d 5e a3 3d 28 da d0 3d 5a 3e 1b be
       0.053206183 0.079770304 0.1019786 -0.15160504
000310 b8 b2 78 bd f6 d8 21 bd 30 1b 3a 3d 46 d1 9f 3d
       -0.060717314 -0.03951355 0.045436084 0.078035876
000320 82 76 40 bd 0f 50 01 3d 6a 97 01 3e 49 9d cf bd
       -0.046988018 0.03157049 0.12655416 -0.10137422
000330 56 b3 22 be a6 3f 56 bd b7 a3 d4 3b c3 06 85 bc
       -0.15888724 -0.052306794 0.006489243 -0.016238576
000340 da cb e2 3d cd 6c 3f bd 46 1b 7b bd 14 bb ca 3d
       0.11074038 -0.04673462 -0.061305307 0.098989636
000350 a5 d9 9d 3d 58 4f 87 3a ca a1 c3 3d 8a 57 33 3d
       0.07707528 0.0010323329 0.09552343 0.043784656
000360 04 53 e5 3d f3 8d cc 3c 1a 71 95 bd e0 c0 a7 3d
       0.111974746 0.02497003 -0.07296963 0.08191085
000370 3b 6f 91 3c 9a f6 8b be a6 27 b1 bc 09 ee 88 bd
       0.017753234 -0.2733658 -0.021625351 -0.066860266
000380 45 5a 28 bd 58 51 05 bd 5b 3e 6e bc 26 c0 8b 3c
       -0.041101713 -0.03254828 -0.014541234 0.017059397
000390 97 19 89 bd de 89 bc 3d eb 1d a7 3d 47 0e 34 3d
       -0.06694334 0.092059836 0.08160003 0.04395893
0003a0 f6 f4 96 3d 6b cc 8d bd 4f 05 c4 3d 63 4f 7c bd
       0.07370941 -0.06923755 0.09571325 -0.061599147
0003b0 58 8d 66 3c 3b 04 e4 bd 66 c6 16 3e b6 7e 30 bd
       0.014071785 -0.111336194 0.1472412 -0.04308959
0003c0 76 45 8c 3c 88 77 ae 3d bf d0 d8 bc e5 6e 96 bc
       0.017122965 0.085188925 -0.026466725 -0.018363426
0003d0 12 44 c6 3d e2 12 0f 3d a8 5f a6 bb f0 54 75 bc
       0.09680952 0.034930117 -0.005077321 -0.014973864
0003e0 e2 cf 8c bb 2e c4 96 bc 42 09 e4 bc f2 2a 0b 3e
       -0.0042972425 -0.018404093 -0.027836446 0.13590601
0003f0 da 18 89 3d d9 8a ca bd 6f 62 b9 bd 98 61 f7 bd
       0.06694193 -0.09889764 -0.09051978 -0.120791614

model.4.bias f4 [64]
000000 8a d6 b7 3c dd d2 f6 bc 70 5f dc 3a e3 e0 07 3d
       0.022441167 -0.030129844 0.001681311 0.033173453
000010 a3 51 9f bd 88 7a ca 3d f1 d8 8b 3d 20 e1 aa bd
       -0.07779243 0.09886652 0.06828488 -0.083437204
000020 41 32 ef 3d 77 35 a4 bd a6 d2 2c 3d 03 cb b4 3c
       0.11679507 -0.0801801 0.042193078 0.02206946
000030 68 55 07 3e 4a 7f e9 bd 40 e2 92 bd 76 e6 88 3d
       0.13216174 -0.114012316 -0.0717206 0.06684582
000040 1f e6 80 bc 0e 1a 2e 3c 56 f0 c8 bd 61 42 49 bd
       -0.01573473 0.010626329 -0.098114654 -0.04913557
000050 76 0b 65 3d 43 e3 77 3c 32 dc 28 3d 01 cb 1b 3c
       0.055919133 0.015129867 0.04122562 0.009508849
000060 b7 aa 43 bd 98 85 c6 bd 0c ff c5 3d 42 b6 0c be
       -0.04777023 -0.0969345 0.09667787 -0.13741401
000070 6e 53 d7 3c cf 1e 39 3d 65 a2 71 3d c8 01 4e 3c
       0.0262849 0.045195397 0.058992762 0.012573667
000080 71 57 63 3d 32 44 9b bc cd 5d a6 bd 30 fe 63 bd
       0.055503312 -0.018953416 -0.0812336 -0.055662334
000090 69 49 e1 ba a0 0a b6 3c 28 fd 84 3d e4 ff 80 bc
       -0.0017188016 0.022221863 0.06493598 -0.015747018
0000a0 83 29 6a 3c 7e 0d a6 bd 9c f2 b0 3d 7a 6b 85 3c
       0.014292124 -0.08108042 0.08640024 0.0162866
0000b0 78 59 1e be f1 1e 92 bd bb 75 9c bd 54 5f e3 bd
       -0.15463817 -0.07134808 -0.07639643 -0.11102167
0000c0 6b b5 8d 3d 7a b6 0b 3d 19 c8 59 bd 87 7a 4a 3d
       0.06919368 0.03410957 -0.053169344 0.049433257
0000d0 23 a5 43 3e a2 70 d7 3d 38 73 a1 3d 46 92 58 bd
       0.19105963 0.1051953 0.07883304 -0.052873872
0000e0 86 91 69 bd 9e 09 a4 bd 09 2e 96 bc b1 47 fc 3d
       -0.057023548 -0.08009647 -0.018332498 0.123183616
0000f0 5b f4 12 be 40 5b 05 bd 95 59 ff bd 56 da bb bd
       -0.14351027 -0.032557726 -0.12468258 -0.09172504

model.6.weight f4 [64, 64]
000000 99 2d 12 be 83 4b e3 3d 06 eb 19 3e 28 aa af 3c
       -0.14275207 0.11098387 0.1503106 0.021443442
000010 22 3d 40 bd 96 4f 38 3e 31 c1 22 be 32 3f 57 bd
       -0.0469333 0.1799911 -0.15894009 -0.052550502
000020 76 2a 6e 3d c4 96 d8 bd e1 e1 c1 3c cd d8 0a 3e
       0.058145963 -0.10575631 0.023667278 0.13559265
000030 a5 29 c4 3c 66 fa 3f 3d d8 71 ae 3d 4e 1f 80 3d
       0.023945639 0.046869658 0.08517808 0.06255971
000040 e7 01 36 3d 37 a0 02 bd 87 34 26 be 3a b9 f6 bd
       0.044435408 -0.031891074 -0.16230975 -0.12047048
000050 04 ab 1d 3e 51 5d 4f bd ed 64 3e 3e 53 3a 88 3d
       0.15397269 -0.050626103 0.18593188 0.066517495
000060 64 e5 35 bc 6a 3a 41 be 0a 13 2a 3d ae fa 5e bd
       -0.011102054 -0.1886994 0.041522063 -0.054438286
000070 4b 8b 18 be 5b 0b af bd d7 cf 14 3e e1 8b 87 bd
       -0.14896886 -0.08547088 0.1453241 -0.06618477
000080 1e 7f 14 be 57 17 62 bd 10 fb 2d bd 92 19 08 bc
       -0.14501616 -0.05519804 -0.04247576 -0.008306878
000090 30 21 3a bd 58 16 10 bc 83 03 8f 3d 47 91 48 bd
       -0.045441806 -0.00879439 0.06983092 -0.048966672
0000a0 96 f4 99 3d a9 c3 96 bd 4e fd b4 3d e0 a1 40 bc
       0.07517354 -0.07361538 0.088373765 -0.011757344
0000b0 7f 14 02 be f9 31 d7 bd 13 8f 81 bd 44 61 73 3e
       -0.12703131 -0.105075784 -0.06326117 0.23767573
0000c0 e4 c7 aa 3d 47 b8 a7 3d b3 01 94 bc c4 f2 bb bd
       0.08338907 0.08189445 -0.018067217 -0.09177163
0000d0 86 b6 0e 3e fb e9 29 3e 47 7d 3c 3d 05 87 28 bb
       0.13936815 0.16593163 0.04601791 -0.0025715244
0000e0 4f b4 c1 3d 6b 4f cb 3d 64 a1 25 3e 57 fa 53 3d
       0.09458219 0.09927257 0.16174847 0.051752415
0000f0 ce f5 3f 3d 82 89 cc bc 96 63 10 be ed 4f 6f 3e
       0.046865277 -0.024967913 -0.14100489 0.23370333
000100 07 4f 6d 3d 71 eb 8a bd 32 3b e8 3d 0a d8 14 3e
       0.057936694 -0.06783188 0.113394156 0.14535537
000110 aa 00 df 3d a3 71 ed bb 44 f9 e5 3d f2 a0 0e bd
       0.108887985 -0.0072462126 0.11229184 -0.03482146
000120 d6 69 15 bd ca 68 a5 3d 43 78 db bd 25 f1 d5 bd
       -0.036477886 0.080766276 -0.107162975 -0.10446385
000130 00 57 a9 bd 1c 33 27 3c 9a 41 b1 3d 22 5e 53 bd
       -0.08268547 0.0102050565 0.08655091 -0.051603444
000140 24 e2 3d bd b9 84 e1 bc 0e f4 bd 3d e0 17 62 3e
       -0.046358243 -0.027529107 0.09275065 0.2207942
000150 7e a5 ed bd 82 86 ca 3d ab 6c 1b be 1d a0 27 bd
       -0.11603831 0.098889366 -0.15178172 -0.04092418
000160 2f 12 c3 3d 91 ae 5c bd 02 49 b6 3d 53 c2 b0 3d
       0.095249526 -0.053877417 0.08900644 0.086308144
000170 2d d3 83 3d 86 e3 33 3e 04 d7 d0 3d 03 ff 2e 3e
       0.06436763 0.17567262 0.10197261 0.17089467
000180 e7 07 20 3e a0 93 40 3c e7 7e 8a bd 77 48 ef bd
       0.15628015 0.011753947 -0.06762486 -0.116837434
000190 f5 7d 9a 3d 97 aa 0c be 0b 58 f6 bd b5 1a 89 3d
       0.07543556 -0.1373695 -0.120285116 0.06694547
0001a0 7f c3 03 bb a0 31 98 3d 17 ba 17 3c 80 f8 ba 3d
       -0.0020105538 0.0743134 0.009260676 0.09129429
0001b0 ea d6 04 3d 5e 91 37 bc 84 21 ba 3b 71 32 e6 3d
       0.03243152 -0.011204092 0.005680265 0.1124009
0001c0 e6 d1 c9 bd 23 49 91 3c 2d db d2 bd 51 e9 e9 3c
       -0.09854488 0.01773507 -0.10295711 0.028553637
0001d0 dd 40 da bd e3 2e 55 3d f0 e9 8c bd 3e ad d3 3d
       -0.10656903 0.052046668 -0.068805575 0.10335778
0001e0 26 86 92 bd 50 8d 1d be fb f4 bc 3d 2f 46 98 3d
       -0.07154493 -0.15385938 0.09226414 0.074352615
0001f0 86 cc a8 3d f2 c6 c5 3d 30 e9 0a 3e 83 eb 2e bd
       0.08242135 0.096570864 0.13565516 -0.04270507
000200 ee f2 8c 3d d0 31 1b 3d 63 e4 37 bd 84 bc 5c bd
       0.06882273 0.0378893 -0.04489554 -0.05389072
000210 3f 4d 2a 3e c8 9c 1e 3e 0f 1c 12 bc e2 65 29 bc
       0.1663103 0.15489495 -0.0089178225 -0.010339232
000220 91 e7 c0 bd 17 b4 df 3d 38 90 e2 bb d8 c4 9f 3d
       -0.09419168 0.10923021 -0.006914165 0.07801217
000230 d5 90 6f 3d e5 40 c0 3b 75 e6 78 bd f4 2e 0b be
       0.058487732 0.005867111 -0.060766656 -0.1359213
000240 6e 3d 3c 3d 93 c4 a3 3d 4b eb 0a 3e 7c 01 8a 3c
       0.04595702 0.07996478 0.1356632 0.01684641
000250 d6 72 19 bd 21 5d 83 3c f6 de 28 be 95 68 f8 3d
       -0.03746303 0.016035618 -0.16491303 0.121293224
000260 0a 5c b0 3d 84 15 05 3d 21 c4 d9 bb 25 17 e8 3c
       0.08611305 0.032491222 -0.006645695 0.028331349
000270 62 4e 09 3d ae 8b 2e 3c c5 bc d3 bd a5 d0 72 3a
       0.033522017 0.010653419 -0.10338739 0.0009262658
000280 d1 ab 9f bd aa d0 2f 3e 6b 00 3d be e3 b0 ac bd
       -0.07796443 0.17169443 -0.1845719 -0.08432176
000290 04 99 e3 3d 0a 07 3e 3b 79 94 b4 bd f7 43 21 be
       0.1111317 0.0028995895 -0.088173814 -0.15748583
0002a0 e3 2a 32 bd a2 b5 e4 3c 0c 4b 16 3e 9c 47 19 3e
       -0.04349793 0.02791864 0.14677066 0.14968723
0002b0 4c 0a d7 3d 8f 9f f6 bc ad e3 6d bd 89 86 1b bd
       0.10500011 -0.03010538 -0.058078457 -0.0379701
0002c0 90 23 b6 3d db 3f 65 3e 5f 35 37 3e 5a b8 fd bc
       0.08893502 0.2238764 0.17891453 -0.030971695
0002d0 8f 98 01 3d 61 9b ba bd a1 ba 52 bd 74 d8 e6 3b
       0.03163963 -0.091116674 -0.051447514 0.007044846
0002e0 97 ae e2 3d 00 be c0 bd d6 e8 07 be ef 59 10 bd
       0.110684566 -0.094112396 -0.13272414 -0.035242017
0002f0 44 53 7f bd 69 f7 fa 3c 98 81 c2 3d c2 30 90 be
       -0.062335268 0.030635552 0.09497374 -0.281622
000300 f5 00 3c 3d b6 4d d2 bd 21 ef 4c 3c 11 bb ce 3d
       0.04589935 -0.102687284 0.012508185 0.10094274
000310 8f a2 bb 3c 97 a8 ba bd b7 65 ec 3d 1e 61 80 bd
       0.022904662 -0.09114187 0.11542838 -0.06268524
000320 3f 3a e8 bc c8 bc 15 3e cb 9b 05 3e a8 8f 35 bd
       -0.028348086 0.14622796 0.13047712 -0.044326454
000330 04 51 01 be 61 44 29 3c 35 de bb bd db c5 01 bd
       -0.12628561 0.010331244 -0.09173242 -0.03168283
000340 b9 2e a3 3d 46 34 4b 3a 74 95 ec 3d 63 98 35 3e
       0.07967896 0.0007751625 0.115519434 0.17733912
000350 56 e9 da 3d 90 4f 83 3c 9d 77 4a 3c dc 55 4a bd
       0.106890365 0.01602915 0.01235762 -0.049398288
000360 ac 1b 0f 3e 4b 87 e0 3d dd 9e 92 3d e5 b0 e4 3d
       0.139754 0.10963305 0.07159207 0.111665525
000370 c8 a2 27 3e 6e 5c d9 3d e0 fe e2 bd c4 1f 96 3d
       0.1637069 0.10613333 -0.1108377 0.073302776
000380 a4 3a ff bb 98 ad e1 39 b0 ee 74 3c 44 cf fd 39
       -0.007788973 0.00043044682 0.014949486 0.00048410345
000390 f4 91 bb bb 93 42 e9 3b a2 ca f6 bd 0a 1d 34 bc
       -0.005724186 0.007118532 -0.12050368 -0.010993252
0003a0 87 09 54 bd fb 7b 3b 3d fd c4 a6 bd ad 83 9d 3d
       -0.0517669 0.045772534 -0.08143041 0.07691131
0003b0 2a f3 8e bd 49 d1 10 bd d1 6c a1 bc 69 dd 73 be
       -0.069799736 -0.03535584 -0.019705208 -0.2381493
0003c0 5e a3 d6 bd ea d9 e4 bc 4b 18 cb 3d c6 93 26 bd
       -0.104803786 -0.02793594 0.09916743 -0.04066827
0003d0 1f b4 c7 bc 2c 7f fd bd cb 60 93 bc ed fe 7f 3b
       -0.02437788 -0.12377772 -0.01799049 0.003906186
0003e0 49 05 ad 3d be e9 bf 3d c6 cb 96 3d 0d 30 0d 3d
       0.08448274 0.09370755 0.073630854 0.034469653
0003f0 3b c3 17 be 4a 81 06 3e ee 14 92 bc 60 77 5e be
       -0.14820568 0.13135257 -0.017832246 -0.21725225

model.6.bias f4 [64]
000000 6e 8f 3d bd db 70 73 3d 9b 91 41 3c ac 12 d3 bc
       -0.046279363 0.0594338 0.0118145 -0.02576574
000010 b1 57 65 3d d9 62 73 3d d7 f0 1f 3d 0a f2 68 bd
       0.055991832 0.05942044 0.039048042 -0.05687145
000020 11 51 26 3c a2 d3 3b bb fd fc 9a bd a8 f0 df 3b
       0.010151164 -0.0028660079 -0.07567785 0.0068341084
000030 4b dd 0a bd b3 8a 0a be 6a 64 5d bd 8f 60 09 3c
       -0.033902448 -0.13529472 -0.05405084 0.008384838
000040 ce 3c 24 bd c6 07 dc 3c aa 7e bc bd 33 fd 0b be
       -0.04009705 0.026859175 -0.09203847 -0.13670807
000050 32 e2 65 3a 3c 59 96 bd e9 d4 b1 bd 04 a4 0d be
       0.00087693625 -0.07341239 -0.086831875 -0.13832098
000060 27 9f d5 3d 72 5d 50 3d 54 4f 20 be ef fe e9 3c
       0.104307465 0.050870366 -0.15655261 0.028563945
000070 3f 9b 61 bd a6 cf ae 3d 4c cd 71 bd 5a 70 bf 3d
       -0.055079695 0.085356995 -0.059033677 0.09347601
000080 b4 5e 25 be 73 08 b3 3d d4 30 26 3e 5a 54 88 3d
       -0.16149408 0.08741846 0.16229564 0.06656714
000090 54 2e 48 3c 6f 65 6e 3c e9 b5 c2 3c 0f 32 a0 3d
       0.012218077 0.014550551 0.023768382 0.07822048
0000a0 90 e0 8f 3d 56 cf de 3c b2 55 e2 bb e0 d9 27 bd
       0.07025254 0.027198475 -0.0069071883 -0.040979266
0000b0 bb 5d 6c bc e5 e1 be bd e3 99 5d bc d4 b8 80 3d
       -0.014426644 -0.0932043 -0.013525459 0.06285253
0000c0 fc c0 b8 bd 1a 23 05 be 93 7a af 3d 04 23 0d 3c
       -0.09021184 -0.13001671 0.08568301 0.008614305
0000d0 8c b2 f0 bc ad a7 bb bb 7a 42 35 be 5f 0b e2 bb
       -0.029382013 -0.0057267756 -0.1770114 -0.006898328
0000e0 1d cb 8a bd 06 fc 20 be 12 80 81 3c d1 ec 2e 3d
       -0.06777022 -0.1572114 0.015808139 0.042706314
0000f0 05 a8 51 3d 7b 87 07 3e 3c 1a 16 3d 42 46 01 bd
       0.051185627 0.13235275 0.036646113 -0.031561144

model.8.weight f4 [64, 64]
000000 ed bf 4c 3e 92 d6 83 be 3b 26 b9 bd d8 fe 0c be
       0.19995089 -0.25749642 -0.09040495 -0.1376909
000010 9d 28 02 3f bf 1a 6c 3e 43 26 9e 3e 76 d7 18 be
       0.5084322 0.23057078 0.30888566 -0.14925942
000020 d6 36 95 be 57 aa 03 3e 77 08 65 be a3 43 98 be
       -0.291434 0.12857948 -0.2236651 -0.29739103
000030 25 43 5a bd 75 33 1a be 0f 91 76 be d3 8b 8f 3d
       -0.05328669 -0.15058692 -0.24078773 0.07009091
000040 2b 69 4c 3e 7a 20 3b bd 65 55 fa bd 3f 68 a2 be
       0.19961993 -0.04568527 -0.12223319 -0.31720158
000050 6a d6 2e 3e 8f f3 6b be d1 6d a4 be 24 78 f6 3d
       0.1707398 -0.23042129 -0.32115033 0.12034634
000060 13 ec 52 3e ef d3 c1 3e 26 f4 cc bd 81 f3 75 be
       0.20597868 0.37857005 -0.10007505 -0.2401867
000070 fb 5d 75 be 2b ae 2e be 9a 6e 50 3d 86 4f 56 be
       -0.23961632 -0.17058627 0.050886728 -0.20928773
000080 d7 45 c4 be 0a e3 af 3e 69 f3 c2 3e 2d 4c e4 bc
       -0.38334534 0.34352905 0.38076332 -0.027868355
000090 42 df 61 be df a3 1e 3c 88 93 bd 3e c4 48 1a 3e
       -0.22057822 0.009682625 0.3702662 0.1506682
0000a0 f9 22 9f be 58 cf 96 bc 1a 77 f4 3d ce f0 92 3e
       -0.3108137 -0.018409416 0.11936779 0.28699344
0000b0 54 27 a1 be 84 72 38 bd 71 2a 7d 3e 69 9d 0a 3e
       -0.31475317 -0.045031086 0.24723221 0.1353661
0000c0 dc b4 16 3e 69 86 12 be 10 33 4f be a7 2a 78 3e
       0.1471743 -0.14309086 -0.20234323 0.2423502
0000d0 ed f8 34 be a5 0d 10 3e 82 b2 57 be 86 f1 55 3e
       -0.17673083 0.14067705 -0.21064189 0.20892915
0000e0 60 ed 72 3e 40 a3 d6 3d 43 07 86 be b3 68 b4 be
       0.23723364 0.10480356 -0.26177415 -0.3523613
0000f0 34 92 d2 3e 8e 1c 11 3d da f5 2e be 6a f5 7b bc
       0.4112717 0.035427622 -0.17085972 -0.0153783355
000100 c9 56 b9 3c 95 28 de 3d b0 25 75 3d ba da 66 bc
       0.02262439 0.10847584 0.059850395 -0.014090234
000110 a7 80 6e 3d a3 dc a9 bc f3 2f ce bd 6c 2a 75 3c
       0.05822816 -0.02073509 -0.10067739 0.014963727
000120 9b 2a 82 bd 61 0a 5a bd e0 f1 b7 3d 47 61 de 3c
       -0.063557826 -0.053232554 0.08981681 0.027145995
000130 27 11 f2 3c 3d fa 11 3e 18 23 fb 3c 40 9b 1f bd
       0.029549194 0.14255615 0.030656382 -0.038966417
000140 6e f4 04 be 77 93 b6 3d 99 6d 33 3e 05 30 cf 39
       -0.12983868 0.089148454 0.17522277 0.00039517894
000150 83 ea 94 3d 50 cc fe 3b 85 72 e2 bb 4c 3e fc b8
       0.07271292 0.007775821 -0.0069106244 -0.000120279
000160 12 a9 2a bd ce ee 60 bd 0b da 05 3e 87 0b 6f bb
       -0.041665144 -0.054915242 0.13071458 -0.0036475377
000170 55 3c b2 3d c9 f9 ac 3d 76 93 07 be 0c e8 03 bd
       0.08702914 0.0844608 -0.13239846 -0.03220372
000180 26 df 06 3e 63 da b4 bc f1 a8 7f 3c a5 d2 38 bd
       0.13171062 -0.022076791 0.015604244 -0.04512276
000190 bb 64 5c 3d 64 1a 8b 3d 44 02 5a 3b 24 df 83 bc
       0.053807 0.06792143 0.003326551 -0.016097613
0001a0 12 46 f1 3a cd f7 f5 bd e6 67 16 3d b8 c5 02 3d
       0.0018407723 -0.12010155 0.03672018 0.03192684
0001b0 e0 72 f1 3d 1c 5c c9 3d 21 b5 22 be ba 4c c2 3d
       0.11789489 0.098320216 -0.15889408 0.09487291
0001c0 76 c2 77 3d bd 06 9e bc 0d d0 fa 3d a0 f5 a9 bd
       0.060488187 -0.019290322 0.12246714 -0.082988024
0001d0 63 17 55 3e 02 cc 51 be a7 a8 84 3c 0d e4 ae 3c
       0.20809703 -0.20487979 0.016193701 0.021348977
0001e0 a6 51 be 3d 6a 08 fe bc 2e 37 34 3d 87 83 5a 3d
       0.09292917 -0.031009872 0.043997936 0.05334809
0001f0 0d 15 91 bd ef 54 b2 bc 48 ba a6 3d 91 38 1a 3d
       -0.07084093 -0.021769015 0.08140999 0.037651602
000200 88 54 a9 bd 4d c1 84 bd 6f 0f 54 3d 99 41 df 3d
       -0.08268076 -0.06482182 0.05177253 0.10901184
000210 b5 0e 45 be c1 52 34 be be ed 33 3d 92 0b b0 3d
       -0.19243892 -0.17609693 0.0439279 0.08595957
000220 80 2a fb 3d 43 1e c9 bc 32 ef 59 3d 43 d7 32 3d
       0.122639656 -0.024550563 0.05320663 0.04366232
000230 d3 f3 fa 3b 8e d8 1a 3d 3b 22 b8 3d 61 70 3e 3c
       0.0076584606 0.03780418 0.08990904 0.011623473
000240 fa 09 70 bd ba e6 92 3c 85 03 a1 3d 9b 3d c0 3d
       -0.058603264 0.017932285 0.078619994 0.0938675
000250 70 98 d8 bd a5 52 5c 3d c5 d7 f9 3d 85 6f a2 bd
       -0.1057595 0.053789753 0.12199358 -0.07931427
000260 4d 12 a1 3d 27 59 a2 bd d4 fd b9 3d a6 36 98 3d
       0.07864819 -0.07927161 0.09081617 0.07432298
000270 7d 55 92 3d 66 66 c0 3d f0 91 5f 3c 76 a5 4c 3e
       0.07145212 0.09394531 0.013645634 0.19984993
000280 51 e1 18 3e 23 8f 7c 3d cf 71 38 be c6 57 d3 3d
       0.14929701 0.061659943 -0.18012165 0.10319476
000290 27 9a 25 3e be 15 4b 3d 5d f3 e7 3d a8 e5 2f 3d
       0.16172086 0.04958128 0.11325715 0.042943627
0002a0 24 5a e3 3c ab 0b 2a 3d 30 93 0f 3d 46 94 0c be
       0.027752943 0.041515034 0.03505248 -0.13728437
0002b0 fd fb 81 bd 9d e8 94 bd 34 46 f3 bd 9c 47 b4 3d
       -0.06346891 -0.0727093 -0.118786246 0.08802721
0002c0 f3 98 1f be f8 c0 86 3c 25 22 af 3d 73 21 07 be
       -0.15585689 0.016449437 0.085514344 -0.13196354
0002d0 65 54 48 3d ed 5e c8 bb 46 3c 41 3c 48 9c 32 be
       0.04890861 -0.0061148317 0.011794155 -0.17442429
0002e0 6e ed 5b 3d 5a 65 e5 bc 68 67 a4 bd 15 ae a9 3a
       0.053693227 -0.02800243 -0.08027536 0.0012945557
0002f0 e6 ab 34 be f0 3d 94 bc 16 67 31 3d bc f4 fb 3d
       -0.17643699 -0.01809594 0.0433112 0.12302539
000300 8e 53 80 bd 39 d8 87 bd b2 1d 59 3c 5e fc bc 3d
       -0.06265937 -0.06633038 0.013251709 0.09227823
000310 0b e0 b9 bb 70 76 06 be e0 63 94 3d 2c 96 55 bd
       -0.00567246 -0.13131118 0.07245612 -0.05214517
000320 2f bc d6 ba 8d 32 f2 bc 12 cd 17 3e 0a eb db 3d
       -0.0016382987 -0.02956512 0.14824322 0.107381895
000330 70 f0 ac bd 5b 71 f1 3d d5 09 07 3e c3 1c bb bc
       -0.08444297 0.11789199 0.13187344 -0.022840863
000340 f6 3e 97 3d 40 8a 6e 3d 7e d0 13 3d 73 76 95 3c
       0.07385056 0.058237314 0.036087506 0.018244958
000350 6b 4f e7 bd a4 ba aa 3d 68 3a 01 bd ed 86 63 bd
       -0.11294445 0.0833638 -0.03154984 -0.055548597
000360 b7 49 f0 3d 15 b6 b9 bd c8 fb d0 bc 71 dc c3 3b
       0.1173281 -0.090679325 -0.025510684 0.0059772064
000370 10 81 0d 3e a0 e5 48 bc 51 1b c7 3c f7 cf 3c bc
       0.13818765 -0.012261778 0.024305018 -0.011524192
000380 01 9b f8 3d c1 c0 f6 bd 11 82 91 bd eb 54 1e bd
       0.1213894 -0.12048484 -0.07104886 -0.038655203
000390 67 57 2b 3e c2 10 ce 3b 50 b0 46 bd 96 01 80 bc
       0.1673256 0.006288619 -0.04850799 -0.015625756
0003a0 3c 86 57 3c a6 31 a9 bd 54 6a c7 bd 1b c8 59 bd
       0.013154563 -0.08261423 -0.09737077 -0.05316935
0003b0 57 e9 f2 3d a5 ba 72 bd 8f 04 f9 bb 2e 3b 4e 3d
       0.11860912 -0.05926003 -0.0075994204 0.050349407
0003c0 d3 5f c4 3d cc 3b e4 bd 31 c3 da 3d a9 1a ab 3d
       0.095885895 -0.11144218 0.10681761 0.083546944
0003d0 ed 03 9b bc 27 25 2e bc 9b 6d db bd c3 65 fa bd
       -0.01892277 -0.010628975 -0.10714265 -0.12226441
0003e0 99 54 44 3d bb e6 60 3c f5 5b 28 3c 3e df 21 3e
       0.04793224 0.013726885 0.0102758305 0.15807816
0003f0 5d f7 07 be 4b 77 54 bd e0 d5 47 3d 62 65 40 ba
       -0.13277955 -0.05187158 0.04878795 -0.0007339326

model.8.bias f4 [64]
000000 9e c9 d8 3c 69 7f 5f 3d 45 cb 0d be 2d 34 79 3d
       0.026463326 0.054564867 -0.13847072 0.060840774
000010 f3 75 84 bc 87 10 29 bc 00 43 98 3b 79 33 3f 3d
       -0.016169524 -0.010318882 0.004646659 0.046679948
000020 c1 d4 0c 3e 40 3c d5 3d 50 cb ad 3d c8 8e 26 3d
       0.13753034 0.104118824 0.084860444 0.04066351
000030 87 b9 3a bd b3 82 d8 3d f7 ca b6 3d de 34 9a 3c
       -0.04558709 0.10571804 0.08925431 0.018824037
000040 07 4b e0 bb ca 0d c6 3d 32 b6 dd 3d bd 91 81 bc
       -0.0068448815 0.09670599 0.108257666 -0.015816564
000050 0b 20 b7 bd 5d 6d 15 3c 07 be 09 3e 18 1e 8c bc
       -0.089416586 0.0091203125 0.13451396 -0.017104194
000060 10 f1 22 be 05 b0 ac 3c c0 16 77 bd 76 1a d6 bd
       -0.1591227 0.021080026 -0.06032443 -0.10454266
000070 2b 19 59 bd 79 e2 4c 3e 5d a3 81 3d ca 9c b2 3d
       -0.053002518 0.20008267 0.06329987 0.087213114
000080 ac 23 50 3c 16 f9 72 3d 3d 7b 1b be 40 cf 03 3e
       0.012703817 0.059319578 -0.1518373 0.12872028
000090 bf 21 db 3c b3 fe ac 3d 1c e2 b5 3c 7c 51 a6 3b
       0.02674949 0.084470175 0.022202544 0.0050756317
0000a0 a1 53 56 3d cf c8 0b bd 5d 47 97 3c 60 da c0 3c
       0.05232585 -0.034127053 0.018466646 0.02354163
0000b0 73 44 cd 3d 1b 30 40 bd ad f3 93 bc ad 03 0e 3c
       0.10022821 -0.046920877 -0.01806053 0.008667869
0000c0 c8 5a 21 be 63 f4 2f 3d cd 48 f4 bc f9 bd 8c 3d
       -0.15757287 0.042957675 -0.02981987 0.06872172
0000d0 38 b5 c2 3d 78 05 0b 3e ac 7e 88 3d 2d 4c d6 3d
       0.09507221 0.13576305 0.06664786 0.10463748
0000e0 28 39 96 bd 78 7a 06 bd c7 f0 4a bc 50 93 f7 3a
       -0.073351204 -0.03283164 -0.012386507 0.0018888507
0000f0 04 24 95 bd 5f 30 4a 3d 3a b4 f0 3d 98 35 69 bd
       -0.0728226 0.049362537 0.117531255 -0.056935877

model.10.weight f4 [64, 64]
000000 51 2b 24 bb 1c e2 c3 bd ac e9 c8 bd d4 f5 ca 3d
       -0.0025050233 -0.09564611 -0.098101944 0.09910169
000010 c2 4c f1 3c 20 84 d3 3d d8 01 89 3d a1 a0 9d 3d
       0.029455546 0.10327935 0.06689805 0.07696653
000020 f5 17 15 bd 4b da 56 3c bd 0f 99 3d a1 7f 9c bd
       -0.0363998 0.013113569 0.07473705 -0.07641531
000030 79 4d fe 3d 58 df b4 3d 70 8e 66 bc 82 13 49 3d
       0.124171205 0.08831662 -0.014072046 0.04909087
000040 f9 e4 1d 3c e0 06 9b 3d 67 cc 34 3d dc 54 e6 3c
       0.009637111 0.07569671 0.044140246 0.028116636
000050 c7 5f 8f 3c 4e 34 8c bd b5 ed d6 3d 15 b9 bc 3d
       0.017501725 -0.06845914 0.10494558 0.09214989
000060 3e 17 1b 3d 58 66 d3 bd 4a 54 79 bd cb 98 d3 3d
       0.037863962 -0.10322255 -0.0608714 0.10331877
000070 65 b7 4f bd 58 56 6c bd 3c 4d 93 bc 91 25 f5 bd
       -0.050712008 -0.05769953 -0.017981164 -0.11970056
000080 70 9d 2b 3d 5f a4 2f bb 88 ca 69 3c 76 d2 d0 3d
       0.04189819 -0.0026800854 0.014269479 0.10196392
000090 1f 6f 67 bd 09 70 88 3d db 20 f3 3c 1e 4b b0 3b
       -0.056502458 0.06661994 0.029678753 0.0053800484
0000a0 87 db 9a b9 50 3d dc bd a1 73 82 3d b8 50 bd 3d
       -0.0002953673 -0.10753882 0.06369711 0.092439115
0000b0 4e 8f 93 bd ba d2 7b 3d 72 70 a5 bd 90 24 0d 3d
       -0.072050676 0.06148026 -0.08078088 0.034458697
0000c0 35 03 f1 bd db 54 b1 bd b6 fc 59 bc fb fe 91 3d
       -0.1176819 -0.08658763 -0.01330488 0.07128712
0000d0 bc 90 f5 3d 34 41 fd bc c8 69 2c 3d cb f3 c9 bd
       0.119904965 -0.03091488 0.04209307 -0.09860953
0000e0 e2 a7 ac 3d bf 81 3c bd 60 8f 87 3d f3 cc 2a bc
       0.084304586 -0.046022173 0.066191435 -0.01042484
0000f0 d9 cc 99 3d e2 d6 d6 3d 78 be 0c bb a2 30 c6 bd
       0.07509775 0.104902044 -0.0021475833 -0.09677245
000100 d1 df aa bd 6c b4 7e bd 31 47 7a 3c 91 df 18 bd
       -0.08343471 -0.062183782 0.015275762 -0.037322585
000110 2a a3 09 3e c6 1f d4 bd 69 47 2c bd 5d a2 80 3d
       0.13441148 -0.10357623 -0.04206029 0.06280968
000120 cc 2a e8 bd 6a 76 55 bd 49 27 e8 3d f0 44 7b 3d
       -0.11336288 -0.05211488 0.11335618 0.06134504
000130 63 fc 99 3c 4f 4f 5e 3d 2f ed 8f 3d 36 d9 9d bd
       0.018797105 0.054274853 0.07027661 -0.07707445
000140 d1 2f 80 3b 01 08 60 3d e9 f6 83 bd 6f a3 be 3d
       0.00391195 0.054695133 -0.06443579 0.09308516
000150 f5 bf 10 bd 8c 72 cf 3d db e2 ce bd dd 26 e2 3d
       -0.035339314 0.1012927 -0.10101863 0.11042569
000160 15 c4 5d bc 57 52 82 bd 80 41 00 bd f3 a8 dd 3d
       -0.013535519 -0.06363361 -0.031312466 0.1082324
000170 e3 24 a6 3d a2 d7 03 39 a5 c7 d5 bd f8 5e af bd
       0.08112504 0.00012573463 -0.1043847 -0.08563036
000180 c5 1e 41 bd 50 37 9b bc 1c 97 47 3b 0d d2 ab 3d
       -0.047148485 -0.018947273 0.0030455058 0.083896734
000190 27 80 83 bd 74 ea 03 3e f9 72 5c bd 3d 2c 96 bd
       -0.064209275 0.12882406 -0.053820584 -0.073326565
0001a0 3f 88 d3 3d fc 6f 17 38 1d be 04 be 72 47 06 3e
       0.10328721 3.61055e-05 -0.12963147 0.13113192
0001b0 8e 53 9c 3d f5 ff 6b 3d cf e4 83 3d ae 6e 7e bd
       0.07633124 0.057617147 0.06440126 -0.06211727
0001c0 a4 7a 53 bd a4 c4 6a bb 95 9d b3 3d c2 50 52 3d
       -0.05163063 -0.0035822773 0.08770291 0.051346548
0001d0 a2 23 8e 3d 77 6f 6f 3c 10 3f b2 3d a1 81 78 3d
       0.0694039 0.014613978 0.087034345 0.0606705
0001e0 9b 31 c7 3d 67 ee 6c bd d5 6d aa bd 6c ad 02 3e
       0.09726258 -0.057844546 -0.0832173 0.12761468
0001f0 f4 1a 24 ba 69 67 d3 bd 59 c2 a0 bd 85 e0 ee bc
       -0.000626012 -0.10322458 -0.07849569 -0.029159794
000200 3a b3 c5 bc 5b 0d 51 bd 50 9a 06 3e 77 b7 58 bd
       -0.024133313 -0.051038127 0.13144803 -0.05290934
000210 4a 80 dc bd a4 69 e4 bc f9 20 9b 3d fc 06 fd bd
       -0.10766657 -0.027882405 0.075746484 -0.12354848
000220 9c f5 73 bd f3 72 07 bd ef 53 0b 3e 7d 00 a6 3d
       -0.059560403 -0.03306861 0.13606237 0.08105562
000230 e8 82 34 3d 57 5c 36 3d c3 27 fc bc a7 98 20 3e
       0.044070154 0.044521656 -0.030780679 0.15683232
000240 aa c2 b9 bd 7a 13 9f 3c 86 a6 c3 3a aa 62 49 be
       -0.09070332 0.019418467 0.0014926947 -0.19666544
000250 f3 af 80 bc 2a ca 3c 3e f4 b5 77 3d f2 7b aa bd
       -0.0157089 0.18436494 0.06047626 -0.08324422
000260 ba 43 e3 3d f3 50 f7 bd 4a 06 b3 3d bf c6 be 3d
       0.11096902 -0.12075987 0.08741434 0.093152516
000270 55 57 0f bd 7d 8e 9a 3d 9f b6 21 bd a4 2a ac 3c
       -0.034995396 0.07546709 -0.0394808 0.021016426
000280 d4 c5 02 be 68 ea 23 be 2a 00 29 3c 4b cd 72 3c
       -0.12770778 -0.16007388 0.0103149805 0.0148194535
000290 67 1d a6 bd eb b4 95 bc 2a 7e 87 bd 79 8a fc 3c
       -0.08111077 -0.018274745 -0.06615861 0.030827748
0002a0 07 8c 9f bd 51 9b 11 be 98 a1 97 bc b5 52 b9 bd
       -0.0779038 -0.14219405 -0.018509671 -0.09048978
0002b0 d7 2c b2 3d bb 48 3c be 8b 5d a8 bd 14 c0 89 3d
       0.08699959 -0.1838712 -0.08220967 0.06726089
0002c0 d3 98 1f 3d 51 56 da 3d 76 0e 5f bd d4 11 0f be
       0.038964104 0.10660995 -0.05445715 -0.13971645
0002d0 9e 1c 6b 3c 43 49 44 3d 20 27 44 bd 1f ea 82 3d
       0.014350085 0.04792143 -0.047888875 0.06392311
0002e0 3b 84 1b 3d 61 2d 93 bd 3f 85 b3 bd b9 46 55 bc
       0.0379679 -0.0718639 -0.08765649 -0.01301735
0002f0 be 78 c8 3d 07 e2 90 bd 68 06 1a 3e 9f ba ff bc
       0.09788655 -0.07074361 0.15041506 -0.031216918
000300 38 29 fa 3d 02 50 7f bc 17 ba 58 3d 36 70 ac 3d
       0.12214893 -0.01558304 0.052911844 0.0841984
000310 b9 db 6b bd 11 19 a3 3d f3 6d 16 bd 9c 75 49 bd
       -0.05758259 0.079637654 -0.03672595 -0.049184427
000320 0f 5a a3 bd 30 68 87 3d 23 23 25 bd d3 aa 2d bd
       -0.07976162 0.06611669 -0.040316712 -0.04239924
000330 da 94 60 3d 81 c6 a9 bd 97 7b 8a bd 83 73 38 bd
       0.054829456 -0.08289815 -0.06761854 -0.045032036
000340 37 cb 12 3e a0 de e7 3d af c0 ca 3d b4 3e 8a ba
       0.14335333 0.11321759 0.09900033 -0.0010547251
000350 6d 1a 6a bd 4a 08 04 3e f5 1e a6 bd 1d 2c 83 3d
       -0.057154108 0.12893787 -0.08111373 0.06404898
000360 b5 fd 10 3e d3 52 7a 3c 83 aa 5f 3d a0 0e d5 bd
       0.14159282 0.015278536 0.054605972 -0.1040318
000370 c9 14 ee 3c 8c 8b 31 bd 0e c2 47 3d d8 70 a4 3d
       0.029062646 -0.043345973 0.04876905 0.08029336
000380 78 c1 56 bd 75 4b 7b 3d c2 f1 0e 3d d6 f8 4e bc
       -0.0524306 0.06135126 0.034898527 -0.012632569
000390 65 8c d1 3d b3 25 23 3d bb 6c 96 3d 83 9b cf 3d
       0.10231856 0.039830875 0.073449574 0.101370834
0003a0 74 8c cf bd ae 0c c6 3d a0 17 a5 3d a2 8b d1 3d
       -0.10134211 0.09670387 0.08061147 0.10231711
0003b0 59 50 d0 39 38 fc 9c bd 36 09 b1 3c be b4 74 bd
       0.00039732715 -0.076652944 0.021610837 -0.05974268
0003c0 5f e5 92 bd 2b 78 17 bc 10 73 10 be b3 41 40 bd
       -0.07172655 -0.009244959 -0.14106393 -0.046937656
0003d0 6d 41 35 bd ac ec 0a bc d1 0a 67 bd 9a 6e 83 bd
       -0.044251848 -0.008479279 -0.0564068 -0.0641758
0003e0 83 39 50 3d a8 3a b6 bd 8a 4b 7d 3d 68 50 94 3d
       0.050836097 -0.088979065 0.061839618 0.07241899
0003f0 b4 11 18 3d 17 43 56 bd ad 93 45 bd 81 76 5c 3d
       0.037126258 -0.052310076 -0.048236538 0.05382395
