pinn_ns/conversion/snnmodel_cali64.pth (torch, 90392 bytes, 14 tensors)

model.0.weight f4 [64, 3]
000000 e8 f1 20 3f 76 ef 6a be 50 63 8b 3e 3f d0 33 3f
       0.6286912 -0.2294291 0.27224207 0.70239633
000010 49 13 0e 3f 57 23 8d be 6f 95 97 bd f2 ed f8 3c
       0.55498177 -0.27566025 -0.07401549 0.030386899
000020 b0 3f 9a 3e 6d 5b 47 3e e9 77 a5 bd d4 e8 c2 be
       0.30126715 0.1946847 -0.08079512 -0.3806826
000030 c6 44 11 3f 5a 10 21 bf 3b fe b1 3b 86 79 d6 be
       0.56745565 -0.62915576 0.005431918 -0.4188959
000040 cf 17 b6 be 29 ac 3b 3e fc b5 bb 3e 7a 5a a3 3e
       -0.3556504 0.18327393 0.3666228 0.31904966
000050 9c 8f 61 be 59 27 70 3f e5 0f 09 bc 25 ea 77 be
       -0.22027439 0.9381004 -0.008365606 -0.24210413
000060 ad 47 07 bf 59 66 fa 3e 43 b4 1d 3e a3 99 0c bf
       -0.52843744 0.4890621 0.15400796 -0.5492193
000070 bc 6f 67 3e 27 e6 e5 3d ad cc b6 bd b6 b5 3c bf
       0.22601217 0.11225539 -0.089257576 -0.7371477
000080 75 39 a7 3e 0a 36 3d bc ec d2 aa 3c 7d 6a a1 be
       0.32661024 -0.011548528 0.020852529 -0.31526557
000090 53 a6 07 3f 96 b4 b7 3e b9 57 38 bf b8 a9 23 3f
       0.52988166 0.35879964 -0.72008854 0.63930845
0000a0 b4 8c 0b bf 73 8f 15 bf 4b f1 2c 3d 23 95 1c bf
       -0.5451157 -0.5842201 0.042222302 -0.61165065
0000b0 b0 4a e5 be b6 3c 8f bd e5 c8 11 3e 75 26 05 be
       -0.44783545 -0.069940016 0.14236791 -0.13002951
0000c0 8e e5 e0 be 7f 61 09 3e f4 b9 1b 3e 41 1b 13 3e
       -0.43925136 0.13416098 0.15207654 0.14365865
0000d0 3a 68 0d 3e 21 88 ed be 44 30 2d 3f f4 2c cd 3d
       0.1380929 -0.4639292 0.6765177 0.1001834
0000e0 e1 7e 60 3e e4 a5 a5 be 76 ad af 3d 5f 46 e2 be
       0.219234 -0.32353127 0.08578007 -0.44194314
0000f0 d1 fa cc bd 66 bd df be 63 ae d9 3e 22 5d 1b be
       -0.10008777 -0.43699187 0.4251586 -0.15172246
000100 e2 83 b0 bb 33 ad de 3d 55 1e 63 3c e4 6b d1 be
       -0.0053868154 0.10872879 0.013862212 -0.40902627
000110 ae 8f 87 be 31 46 35 3f ed f4 c2 be 42 f2 a5 bc
       -0.26476806 0.7081023 -0.3807749 -0.02025712
000120 3d 98 a5 3e 54 62 b7 be 89 ed ab be 93 f6 05 3f
       0.3234271 -0.35817206 -0.33579662 0.5232937
000130 f5 1b 91 bd 6a 25 35 be 95 e5 14 be c2 6b a9 be
       -0.070854105 -0.17690054 -0.14540704 -0.33090025
000140 44 05 b7 3e 01 8b ff 3e 81 e8 02 be 6b 45 67 3e
       0.35746205 0.4991074 -0.12784006 0.22585075
000150 81 4d 1b 3f e0 10 74 be 3e 97 23 3e 45 f3 27 3f
       0.60665137 -0.23834562 0.15975663 0.65605575
000160 fc 54 e9 bd 67 7f 7c be d0 66 1c 3e 0a 6a 7b be
       -0.113931626 -0.24657975 0.15273595 -0.2455217
000170 2b e4 0b bf 46 c5 0d 3f c1 d7 b4 bd 0b 1f b5 3e
       -0.5464503 0.5537914 -0.08830214 0.35375246
000180 90 69 da 3e 09 17 2f 3f 3a d8 86 3e bb 31 0a bf
       0.42658663 0.68394524 0.26336843 -0.5398213
000190 d7 49 d2 be db b4 c4 be c6 06 ed be 0f 70 26 3d
       -0.4107196 -0.38419232 -0.4629423 0.04063421
0001a0 a6 95 0a bf bf 99 e8 be 5d b3 0b bf ea 88 fc be
       -0.54134595 -0.454298 -0.5457056 -0.49323207
0001b0 d4 30 9f be 30 32 b4 be 53 e6 e2 3b 9d b8 e7 3d
       -0.3109194 -0.3519454 0.0069244294 0.11314509
0001c0 d4 e2 89 3d 0d d8 4f 3f 66 3c aa be 17 ff 8e be
       0.06732717 0.8118904 -0.33249205 -0.27928993
0001d0 18 18 bc 3e c9 d1 7d be c6 f3 52 be f8 5c 59 be
       0.36737132 -0.24787058 -0.20600805 -0.21226871
0001e0 9e 0f 0c 3e 2b e2 97 3d c1 5a 34 3f cb 62 1f 3d
       0.13677832 0.07416185 0.7045098 0.038912576
0001f0 3b 5b 12 bf 18 e7 1b bd 9f ee 23 3e d5 cd 90 be
       -0.57170457 -0.038062185 0.16008995 -0.28282037
000200 b4 00 4e 3f 1b 69 d7 be 70 09 7a be ec 46 de 3d
       0.8046982 -0.42072377 -0.24417663 0.10853371
000210 5d 84 58 be c9 a8 bc 3e 12 a8 2a 3e 97 96 8e 3e
       -0.21144243 0.36847523 0.16665676 0.27849266
000220 5c 02 0e bd e9 8a 85 3e c9 39 16 bf 6e 3e 3f be
       -0.03467022 0.26082543 -0.58681923 -0.18676159
000230 17 b0 15 3e 8c 24 34 3f a3 8a 69 bd 22 e4 f0 bd
       0.14617954 0.70368266 -0.05701698 -0.11762263
000240 f8 fd f6 ba 0f 80 c0 3c c3 2f 83 3f d3 bb 8a bd
       -0.0018843999 0.023498563 1.0248951 -0.06774106
000250 0f e5 ca bd 52 9b 2f 3f 82 0d 61 3d 67 b6 0a 3c
       -0.09906971 0.68596375 0.054944523 0.00846634
000260 68 ac cb 3e 5a b7 08 3f 43 d8 28 bd db 1b 10 be
       0.39779973 0.5340477 -0.04122187 -0.14073126
000270 87 5e fe be 43 39 ac 3e 9d 89 69 be 0b db 0c be
       -0.49681494 0.33637437 -0.22806402 -0.13755433
000280 a2 8b b6 be 7e fb 6d 3e 37 1e 3a 3f 79 9f f9 3d
       -0.35653406 0.23240468 0.72702354 0.1218862
000290 75 56 f0 be 67 c5 09 bf 1e af 1d be 66 92 ad 3e
       -0.4694096 -0.5381684 -0.15398833 0.33900756
0002a0 3a f6 3a bf 34 77 2a bd 30 2c 1b bd 1c e8 24 be
       -0.7303196 -0.041617587 -0.037883937 -0.16104168
0002b0 f9 5b 2a 3e 5e 57 ba be 18 67 98 bd 6f bd 09 be
       0.16636647 -0.3639478 -0.074415386 -0.1345117
0002c0 ed 2c 03 bf f3 cd 8b 3d 8e 88 c7 be 8a 83 fe 3e
       -0.51240426 0.06826391 -0.3897137 0.4970973
0002d0 cd 81 ca be 24 45 e2 3d 4a d3 d9 be 84 97 06 3f
       -0.39552155 0.11048344 -0.42544013 0.52574944
0002e0 8d 86 ad be d1 5d 4b 3e 1b 9c 29 bf c6 8a 07 3d
       -0.33891717 0.19860007 -0.66253823 0.03309133
0002f0 95 d9 dd 3d 08 35 a0 be f5 0a c4 3d 76 8c d2 3e
       0.10832516 -0.3129046 0.095724024 0.41122788

model.0.bias f4 [64]
000000 b3 9e 72 be b7 93 fa 3b 4a 5c 95 be 3c d8 f0 bd
       -0.23693351 0.0076470035 -0.29171973 -0.117599934
000010 29 b6 03 bf 4f 6e 6e be d0 e4 b4 3e 9f a2 df 3d
       -0.5144983 -0.23284267 0.3533082 0.109196894
000020 62 2f 84 3e 04 5a 2b 3d 9b 9c 4b 3e aa d1 78 be
       0.258174 0.041833892 0.19883959 -0.2429873
000030 70 66 a3 3d 62 0c 51 be 63 b1 d7 be 1b c5 0d bf
       0.07978523 -0.2041488 -0.42127523 -0.55378884
000040 f2 ee e2 3e e6 12 84 3e 2f 8a a2 be 53 61 75 3c
       0.44322926 0.25795668 -0.3174605 0.014976817
000050 03 dc 4e be e0 4c 93 be aa 82 b1 be fd 11 aa 3e
       -0.20201115 -0.28769588 -0.3467 0.3321685
000060 e1 cf 8c bd 05 a2 fd 3e a6 7c eb bd 07 a7 4f 3e
       -0.06875587 0.49537674 -0.11498384 0.2027856
000070 d4 62 34 3c 94 1a 42 3e 65 9d 8b 3c 04 f1 0d 3f
       0.011009891 0.18955451 0.017042825 0.55445886
000080 8d 28 0d bf 0d c9 18 be f9 00 d9 3e e4 78 f1 3e
       -0.5514 -0.14920445 0.42383555 0.47162545
000090 16 1e 7e be fb 9b 4c bd d2 22 02 3f 94 87 cd be
       -0.24816164 -0.049953442 0.5083438 -0.401425
0000a0 43 b9 6f be b4 94 11 bf a2 53 b6 be 7e 8e ac be
       -0.23410515 -0.5686753 -0.35610682 -0.33702463
0000b0 58 7b a4 3e 38 1a 15 be 71 cc 53 3e 1b e2 88 3e
       0.32125354 -0.14560783 0.20683457 0.26735005
0000c0 ce d3 a0 be 14 cc 48 3e 9b 6d 2f be 67 32 04 bd
       -0.31411594 0.196091 -0.17131655 -0.03227463
0000d0 d9 53 7d be 48 c9 90 be cf 49 98 be e0 25 7b 3d
       -0.24739017 -0.28278565 -0.2974381 0.061315417
0000e0 08 4d ab 3c 20 09 f0 be 61 b6 85 bd c2 dc 84 3e
       0.020910755 -0.46881962 -0.06528927 0.25949675
0000f0 03 4a 0d 3f f3 22 da bd 97 b0 1c be 6f c3 fe bd
       0.5519106 -0.10651197 -0.15301739 -0.1243962

model.2.weight f4 [64, 64]
000000 99 6a 50 bd 56 19 c2 3c 32 b8 c4 3d 7a 4b bf 3c
       -0.05088291 0.023693722 0.09605445 0.02335142
000010 a6 e1 88 bd 19 de b5 bd aa 9b 5b 3d 9c fb a1 bc
       -0.06683664 -0.088802524 0.05361525 -0.019773297
000020 01 10 65 bd d7 33 a7 3d 7c 56 12 bc b6 39 11 bd
       -0.055923466 0.081641845 -0.008931752 -0.035455428
000030 1e 67 b1 bc e4 0a c1 bd e0 38 07 be 4f 91 56 bc
       -0.021655615 -0.09425905 -0.1320529 -0.013096168
000040 99 14 a3 3d ae 37 dd 3c 97 1f 5c 3d 0b f9 98 bc
       0.07962913 0.02700409 0.053741064 -0.01867344
000050 41 94 12 bc 93 aa 83 3c 96 b1 92 bc 33 16 9e bd
       -0.008946479 0.016072547 -0.017906945 -0.07719078
000060 5b 43 5f 3d 41 7a cc bd 6b ed c7 bd a6 48 49 3d
       0.054507595 -0.099842556 -0.09762081 0.04914155
000070 6f 8e b3 3b fc 12 a7 bc 26 73 e5 3c 84 99 8e bd
       0.005479626 -0.020394795 0.028009009 -0.069628745
000080 c5 50 d0 3d f5 3c 26 bd 1a 8a 27 bc 90 5a e8 3c
       0.101716556 -0.040585477 -0.010225797 0.028363496
000090 5d 28 d0 bd ec 4d cf 3d 38 c2 27 be fe 0a 8e 3d
       -0.10163949 0.10122284 -0.16382682 0.0693569
0000a0 cc 91 b6 3c 84 54 eb 3b 0f 94 7f 3d 8c 07 33 bd
       0.022286318 0.007181706 0.06239706 -0.04370837
0000b0 6f a4 37 bb 2e 19 9f bd b8 4f 4b 3c c9 fa 4d bc
       -0.0028021594 -0.077684745 0.012409143 -0.012571999
0000c0 1e 78 2c 3d 0c e6 75 bd c3 ff 23 bd ee 59 d6 3c
       0.04210674 -0.060033843 -0.040038835 0.026165929
0000d0 8b 0b 0a bd 15 3b dd bc f0 90 a7 3c af c1 9b 3d
       -0.033702414 -0.027005712 0.020454854 0.076053016
0000e0 02 18 1c 3d 1f c0 55 bd 3b 31 2e bd c2 56 82 3d
       0.038108833 -0.052185174 -0.04252742 0.06364204
0000f0 b3 78 65 bd 2d 8b 8a 3c 52 1c 2d 3c e8 5c 87 3d
       -0.05602331 0.016912067 0.010565834 0.06609517
000100 45 46 c7 3c 5f ec 38 be fb 89 6e 3d 9e 74 f7 bd
       0.0243255 -0.18058918 0.058237057 -0.1208279
000110 00 0f 13 be 20 70 2e bd c3 9a 1c 3d af e0 08 bc
       -0.14361191 -0.0425874 0.03823353 -0.00835435
000120 51 0d 59 3d e9 77 0e bd ef e7 b1 bd d1 d1 92 bd
       0.052991215 -0.034782324 -0.08686816 -0.071689256
000130 89 98 3a bd 8a 94 6f 3e 5a 4e b5 bd a4 46 f7 3c
       -0.045555625 0.23396507 -0.08852835 0.030185051
000140 06 d7 1b 3d bd 1b c6 3d c4 98 eb bc f1 ab 2f bc
       0.03804686 0.096732594 -0.028759368 -0.010722146
000150 10 e7 3e bd a1 34 bf bc d2 e8 e9 bb 06 61 bb bd
       -0.046607077 -0.023340525 -0.00713835 -0.09149365
000160 48 da df bd 0e e3 66 bd 91 d9 11 3d 05 4c d9 bc
       -0.10930306 -0.05636888 0.035607878 -0.026525507
000170 1a 32 72 bc 99 fe a1 3c 4b 42 01 bc 13 e1 12 bd
       -0.014782453 0.019774722 -0.007889341 -0.03585918
000180 f4 38 17 bd a6 6e 9c 3e 07 78 a4 3d f0 6b 1e 3e
       -0.03691955 0.30553168 0.08030706 0.15470862
000190 69 b9 95 3d c5 2e 39 3d 37 7a 5d be fa 72 63 3c
       0.07310755 0.04521062 -0.21628653 0.013882393
0001a0 37 80 02 bd ee a9 01 3e 55 4a 0f 3e 1e 28 13 3e
       -0.031860556 0.1266248 0.13993199 0.14370772
0001b0 e2 6e 56 ba f6 ae 1b bb fe c3 e5 3d f9 7a 4c 3d
       -0.0008179975 -0.0023755408 0.11219023 0.049921963
0001c0 dc d7 5e 3d 5f ae c1 3d 51 da c5 bd e4 c3 a9 3c
       0.05440508 0.09457087 -0.09660781 0.02072329
0001d0 1e 90 62 3c 34 e7 a8 3c ba 7b e7 bd f9 04 4d 3d
       0.0138283055 0.020618059 -0.11302896 0.05005357
0001e0 06 92 20 be 91 e0 f9 bd c9 da b8 3c 84 a7 e6 bb
       -0.15680704 -0.12201036 0.022565262 -0.0070390124
0001f0 58 70 6e bc b6 e1 a2 bd d1 5f 9d bc bc 47 19 3e
       -0.014553152 -0.07953207 -0.019210728 0.1496877
000200 ab 2c 82 bc 64 fb 66 3b a6 6c c1 bc 0f 84 4d 3c
       -0.01589044 0.0035245055 -0.023611378 0.012543692
000210 4f dc 24 3d ca 9b 44 be cf 44 5a 3d 00 8b 0d 3d
       0.040249165 -0.19200054 0.053288277 0.03455639
000220 f9 0e cb bc 7b 99 f1 3d 19 2c 01 3c c8 73 6a bc
       -0.024787413 0.11796852 0.007884049 -0.014309831
000230 34 30 03 bd 77 7b 90 3e 25 d4 ab bd 82 4b 89 bb
       -0.032028392 0.28219196 -0.08390073 -0.0041899094
000240 60 01 cc bd 21 34 47 3e 76 a1 a6 bd 4c 48 da bd
       -0.099612 0.1945348 -0.08136265 -0.10658321
000250 90 53 a0 3c 69 5c fc bc ed 29 85 bd 30 2b a7 ba
       0.019571096 -0.030805783 -0.06502137 -0.001275396
000260 28 8a 64 3c 96 43 2b 3e 71 f2 01 3d 32 af cc 3d
       0.013948955 0.16725 0.03172535 0.09994353
000270 53 85 cf 3d 87 97 00 3e 18 b5 c4 3c 0a 08 33 be
       0.101328515 0.12557803 0.024012133 -0.17483535
000280 78 56 7b bd 4a 40 d3 3d 15 a9 b7 3b b0 10 03 3c
       -0.06136176 0.103149965 0.005604873 0.007999584
000290 e2 a6 78 bd 45 fa ed 3c b9 3f 97 be e3 50 8c bd
       -0.060706027 0.029050002 -0.29540804 -0.068513654
0002a0 03 9d 49 3d 1f 05 c3 3c 08 bc ff 3d e7 17 5e bd
       0.049222004 0.023806153 0.12487036 -0.054222014
0002b0 df ef 74 bd 5d f6 7a be 61 9b 28 3e fc 75 66 3e
       -0.05979907 -0.24508043 0.16465522 0.22505945
0002c0 e2 47 a7 3c 33 aa be bd 65 25 a1 bc 93 4d 13 be
       0.020420019 -0.09309807 -0.019671151 -0.14385061
0002d0 d2 22 98 bd 9f 05 d4 bd 15 e9 f7 3e 0d d7 53 3e
       -0.074285164 -0.10352635 0.48420015 0.20687504
0002e0 6f a9 99 3d 7f a0 80 3d 4d 6f 8c bd 3d 34 e6 bd
       0.0750302 0.06280612 -0.068571664 -0.112404324
0002f0 d1 d4 fa bd 47 94 79 bd e3 c2 6e bb a0 76 31 3e
       -0.12247623 -0.060932424 -0.003643208 0.17330408
000300 97 32 26 be 12 98 4a 3e eb 34 4c 3e 74 c9 7c bd
       -0.16230236 0.19784573 0.19942062 -0.06171556
000310 15 91 21 be 7e 37 12 bd 0d 72 1f 3d 5b 32 36 bd
       -0.15778 -0.035697453 0.038927127 -0.044481616
000320 cf 77 5f 3d fe d1 43 3d 7f 23 79 3e ef 42 d5 3a
       0.054557618 0.047807686 0.24329947 0.0016270558
000330 61 b4 24 be a8 b8 0b 3e 17 a2 f3 3d 0a 47 61 3d
       -0.16084434 0.1364466 0.118961506 0.05499939
000340 a3 1a fd bd a8 52 ae be ef 29 9a 3c 54 d4 19 3c
       -0.12358596 -0.34047437 0.018818824 0.009389002
000350 66 c5 1b 3e cf 20 35 bc d8 3a 19 bc 8e c1 90 3d
       0.1521202 -0.011055185 -0.009352408 0.070681676
000360 50 61 f2 bd df a1 8d bd 6a 78 dd b8 43 10 c0 bc
       -0.11834967 -0.0691564 -0.0001056053 -0.023445254
000370 f9 15 1a 3d c8 ee 8d 3d 61 01 53 be d9 6b cd 3d
       0.03761861 0.069303095 -0.20605995 0.10030336
000380 c1 06 10 be 9d 50 08 3d e9 ba be bd eb 8c 8b bc
       -0.14065076 0.033280004 -0.09312994 -0.017034968
000390 0f 3a 5d bc 09 16 a4 bb b0 e9 99 3e 17 3f 44 bd
       -0.013502612 -0.0050075096 0.30061102 -0.04791173
0003a0 59 6a 9d bd 44 fb a8 be 99 d1 10 bd ec 8a ef 3c
       -0.076863 -0.330042 -0.035356138 0.029241048
0003b0 21 b5 b5 bb c1 85 2b 3e a6 b6 9a bd bc f6 9e 3c
       -0.005545274 0.16750242 -0.07554369 0.019404761
0003c0 2b cd 0c be 42 54 ac 3d 53 89 e9 bd 5b b0 ca 3d
       -0.1375014 0.084145084 -0.11403146 0.098969184
0003d0 0e 3f 16 be ad bf a9 3d 7b 62 1c bd 2b 90 90 ba
       -0.14672491 0.082885124 -0.038179856 -0.0011029294
0003e0 7b 61 85 bc cf b7 46 be 2e d9 e0 bd 2f 2d 73 3d
       -0.016281834 -0.19406055 -0.10978924 0.059369262
0003f0 c3 81 51 be 7e a0 10 be 4c ee 6f bd da 87 dd 3c
       -0.20459656 -0.14123723 -0.058576867 0.027042318

model.2.bias f4 [64]
000000 ef 28 b7 3d 63 ce bb bc 13 21 f1 bc 92 df 3a bd
       0.08943354 -0.022925561 -0.029434716 -0.04562337
000010 f0 1c 74 3d 4c 87 fd 3d 42 60 98 bd 98 66 08 be
       0.05959791 0.123793215 -0.07440235 -0.13320386
000020 57 a5 55 bd 67 f7 c3 bc 2a e8 cb bd ea d1 e9 3d
       -0.052159633 -0.023921682 -0.09956391 0.11416991
000030 7b 7d 71 bd ff 02 ab 3d 44 e6 29 bd ef d8 13 3c
       -0.058957558 0.08350181 -0.041479364 0.009023889
000040 db 98 73 bb 5f 35 f1 3d d2 7e 05 3d 09 c8 cc 3b
       -0.0037169966 0.11777758 0.03259165 0.006249432
000050 98 38 7c 3d e9 b5 b3 bc 03 6b 5e bd 90 49 e9 bc
       0.06157741 -0.021937327 -0.054301273 -0.02847746
000060 b9 9a 02 be 1b 44 b4 3c f1 99 5c bd 7c 1c 0f be
       -0.12754335 0.022005131 -0.053857747 -0.1397571
000070 b2 72 08 3d 8c 13 9c 3c 8e 98 08 3e 23 32 c9 bd
       0.033312507 0.01905229 0.13339445 -0.09824016
000080 20 bd 5b bd e0 ec ac 3d 4f 3c c7 bd cc 07 9a bd
       -0.05364716 0.08443618 -0.097283 -0.075210184
000090 d7 ef 05 be 76 fd 47 bd c1 2a 83 bd e5 51 a4 3d
       -0.13079773 -0.048825704 -0.06404639 0.08023433
0000a0 85 77 22 bd a8 37 66 3c 78 a3 a8 bc 22 42 03 3d
       -0.039664764 0.014051355 -0.02058576 0.03204549
0000b0 e6 9a 74 3d b1 06 19 bd b6 c7 be bc e8 d0 11 3e
       0.059718035 -0.037359897 -0.023288589 0.14239848
0000c0 9f 24 41 3e 5b 18 e8 3c 50 64 96 3b b7 34 4f be
       0.18861626 0.028331926 0.004589595 -0.20234953
0000d0 84 bc e1 3c ba 81 50 bc ca 07 a3 3d cc f8 0a 3d
       0.027555712 -0.012726242 0.0796047 0.033928677
0000e0 e5 1e b9 3c 46 59 f0 3d 93 bf 31 bd bc 67 8e bd
       0.02259774 0.117357776 -0.04339559 -0.069533795
0000f0 d8 01 a0 3d df 7b ba 3c 66 44 95 3c 69 ee 14 3e
       0.07812852 0.022764144 0.018221091 0.14544071

model.4.weight f4 [64, 64]
000000 ff 6e 66 bc 1d 62 ee bd d3 06 d4 3b bc d1 d7 bb
       -0.0140645495 -0.116398074 0.00647054 -0.0065862816
000010 79 99 43 bd de 40 3b be 96 92 35 bd 05 bc 5a be
       -0.047753785 -0.18286464 -0.04432925 -0.21360786
000020 41 8c 4a bd 46 80 2f be 34 e2 67 3d e3 af 02 be
       -0.049450163 -0.17138776 0.05661221 -0.12762408
000030 e1 76 34 3e 3e 18 68 3e 7d 1b 92 bd 5f ef 08 be
       0.17623474 0.22665498 -0.07134149 -0.13372563
000040 37 a1 e1 bd d1 8f b9 bd 30 88 99 bd 11 2c 00 bd
       -0.110170774 -0.09060634 -0.07496679 -0.031292025
000050 18 38 0a be e4 c5 e9 bd fc ae ca be 70 b8 19 bd
       -0.1349796 -0.11414698 -0.39586627 -0.03752941
000060 d6 ee 5b be 3c 47 39 3e ff a6 45 be 6c cb ba 3d
       -0.21477827 0.1809358 -0.19301985 0.09120831
000070 bd cc 3f 3d 1e 90 ee bd a2 d2 8d bb 07 67 ad bd
       0.046826113 -0.11648582 -0.004328088 -0.084669165
000080 05 cd d9 3e ed c5 23 bc f6 39 db bc 66 96 b3 3e
       0.4253923 -0.00999592 -0.026761036 0.35075682
000090 97 c0 35 be 3a a1 fb 3c 0e 56 bb 3d 7c ec 86 3d
       -0.17749248 0.030716527 0.09147273 0.065880746
0000a0 ec 9a 86 be f2 0b bb bd ee 9d bb 3e 3e c2 75 be
       -0.2629007 -0.09133138 0.36643928 -0.23999879
0000b0 14 4a af 3d 82 a7 c5 bb 86 05 6f be a1 94 87 3d
       0.08559051 -0.0060319314 -0.23341951 0.066201456
0000c0 7c 97 1a bd 1c 4c 68 bd bb eb 4a 3e 2f 37 54 be
       -0.037742123 -0.05671321 0.19816487 -0.20724176
0000d0 3b 37 78 bd 68 b2 fe 3d ba ed 9d 3e 84 55 a4 3d
       -0.060599547 0.12436372 0.30845433 0.08024123
0000e0 30 51 38 3d 15 7b 27 be 13 fb db bc 4f f5 ed 3d
       0.0449993 -0.16355546 -0.02685312 0.116190545
0000f0 21 64 24 3e 20 92 71 bd a4 ea 02 3e 5b 8b 0f 3e
       0.16053821 -0.058977246 0.12784821 0.14018004
000100 9b 8c 1e 3e 7a 5e 9f 3d 1a 3c a6 3d ba 62 14 3e
       0.15483324 0.07781692 0.08116932 0.14490786
000110 f4 66 8b bd 78 74 cc 3d 54 c0 3a bd 42 30 24 bc
       -0.06806746 0.09983152 -0.045593575 -0.010021271
000120 38 3b 1e 3d 10 3d 15 3e 07 13 b4 3d 40 00 ad 3b
       0.038630694 0.14574075 0.08792692 0.005279571
000130 b2 f2 3c 3c 15 ad af bd 09 b3 1f 3d 04 a8 a6 3c
       0.011532472 -0.08577935 0.0389891 0.020343788
000140 c3 e9 b3 3c 17 21 d1 bc fc 54 e3 3d 87 e7 a9 bd
       0.021962052 -0.025528474 0.11100194 -0.082961135
000150 b7 d8 9e 3d 1b 41 b6 bd 50 fb 0c 3e 70 f5 fe bd
       0.07756179 -0.08899137 0.13767743 -0.12449157
000160 b5 84 75 bd f9 e8 b9 3d 83 99 94 ba 9a cc 35 be
       -0.059941012 0.09077639 -0.0011337254 -0.1775383
000170 eb f9 00 3c 2b 32 21 3e 20 b8 00 3e b3 8a 2c be
       0.007872085 0.15741794 0.12570238 -0.16849785
000180 5e ca 66 bd 51 5c 37 3e cc 0e 14 3e 14 37 2e be
       -0.056345336 0.1790631 0.1445877 -0.17013198
000190 45 aa 9c bd ec 6a 98 3d b1 4a 1b 3e 55 e9 ad 3c
       -0.07649664 0.07442269 0.15165211 0.021229425
0001a0 15 a9 2b 3d db 2d 0d 3e 40 2c aa bc e3 4a a0 3c
       0.041909296 0.13787024 -0.020773053 0.019566959
0001b0 2a 05 9c bd 9e ce e3 3c 66 ad 07 3d 34 ae 36 3e
       -0.076181725 0.027808484 0.03312435 0.1783989
0001c0 dd 47 8a 3c 8a c6 1c 3e fd a5 1c be 4c ef 74 bd
       0.01687997 0.15310112 -0.15297695 -0.059798524
0001d0 93 fe 9c bd 3b f2 41 bd 0c 38 31 bd 93 fe 52 3e
       -0.07665744 -0.04735015 -0.04326634 0.20604925
0001e0 60 90 89 3c e6 16 e7 bd 50 57 15 3e 09 63 7e 3c
       0.016792476 -0.112836644 0.14584088 0.0155265415
0001f0 84 70 33 be 0c 80 88 bc b6 fc 44 3e d5 37 dd 3d
       -0.1752339 -0.01666262 0.19237027 0.10801665
000200 c0 d0 23 be 20 00 c0 3d d5 47 07 bd 07 b3 3d 3e
       -0.159976 0.09375024 -0.03302749 0.18525325
000210 69 1f 97 3d e6 76 4c bd fe 17 1b be df 1c 10 3e
       0.07379038 -0.049918078 -0.15145871 0.14073513
000220 0a 24 34 bd ed cd af bd 49 28 c1 3d 2e e5 84 bd
       -0.043979682 -0.08584199 0.09431512 -0.06489025
000230 0d 8f 45 be 7d d7 8b bc ec 5a 5c bd f9 b7 a4 bc
       -0.19292851 -0.017070526 -0.053797647 -0.020107256
000240 b7 a3 e5 3d 5a 25 13 bd db 66 84 be 43 cb 0f 3e
       0.11212867 -0.035924293 -0.25859722 0.14042382
000250 47 41 88 3d cb 3e 69 3c 86 12 62 be a3 0a 5d 3d
       0.06653076 0.014236162 -0.22077379 0.053965222
000260 c8 7d f4 3d 42 1d 14 bc 2a 24 ba 3d 8c a2 24 3d
       0.11938053 -0.009040179 0.09088929 0.04019408
000270 d1 94 0f 3e ff 3e 37 be b7 dd 5b bd 75 9f b7 3d
       0.14021613 -0.17895125 -0.05367824 0.08965961
000280 10 cb 08 bd fe 50 c2 bd 1a 2b 6a 3c 4d c6 9d 3c
       -0.03339678 -0.09488104 0.014292503 0.019259596
000290 d8 f4 47 3e 47 05 ef bd 64 75 c4 3c 45 36 1b 3e
       0.19526994 -0.116709284 0.023981757 0.15157421
0002a0 75 d7 54 3c 43 72 1e bd a3 6a 95 bb 97 7f 65 bd
       0.012990822 -0.038683187 -0.004559831 -0.056029882
0002b0 b5 38 09 be c8 1c 01 be 2f 63 e5 bd e9 fd 77 3d
       -0.13400538 -0.12608635 -0.112005584 0.060544882
0002c0 f8 b2 57 bd 96 f7 92 3d 16 a7 8e 3e 5c 7e 09 bd
       -0.052660912 0.071761295 0.2786185 -0.03356777
0002d0 b8 8f 96 bd 9b ff a9 bd be 48 82 3d ac f9 ac bd
       -0.07351631 -0.08300706 0.06361531 -0.08446059
0002e0 2c 0c c7 bd 51 c3 d7 3d ea 80 9e bc b7 0f b6 bc
       -0.097191185 0.105353005 -0.01934858 -0.02222429
0002f0 b6 d7 6d 3d 9e ab 71 3d 42 8c 61 3c d2 de 35 bc
       0.058067046 0.059001558 0.01376635 -0.011100488
000300 09 00 c7 3c 34 59 09 3c c7 f6 a7 3c 34 12 d4 bd
       0.024292009 0.008383084 0.020503415 -0.103550345
000310 10 d4 57 bd 12 91 19 bd 14 fc 22 3d 09 58 9b 3d
       -0.052692473 -0.037491865 0.03979118 0.07585151
000320 96 1b 35 bd ed fa 57 3d 3a e8 71 3d b5 97 d7 bd
       -0.04421576 0.052729536 0.05905936 -0.10526983
000330 9e 6a cd bd 9b 72 a9 bc 07 88 36 bc 0e c1 c6 3d
       -0.10030101 -0.020684531 -0.01114083 0.09704791
000340 02 db 9e 3d 97 a9 1c be 97 f8 1c be 67 af 06 3e
       0.07756616 -0.15299068 -0.15329204 0.13152848
000350 e5 91 83 3a 95 bd ba 3d c0 a8 08 3c 61 9c 5a 3c
       0.0010037987 0.09118191 0.008341014 0.013342948
000360 46 bc b0 3d cf 90 56 bd 12 77 b9 bd 4b cb 81 3c
       0.0862966 -0.052384194 -0.09055914 0.015844008
000370 5a 69 ea bb 1e 04 91 be 30 de 00 3d bd 8c 82 bc
       -0.007153672 -0.28323454 0.031461895 -0.01593625
000380 3f ba cb bd 0e 28 20 bd 69 c1 e2 ba 37 18 74 3d
       -0.09947633 -0.0391007 -0.0017300072 0.059593406
000390 58 21 fd 3d 84 b2 a1 3c 70 2b 86 3d 95 c1 9a 3d
       0.123598754 0.019738443 0.06551254 0.07556454
0003a0 ec b9 2e bd d1 09 42 3d 7a 56 61 3d 74 e8 75 3b
       -0.042657778 0.047372643 0.05501411 0.0037522586
0003b0 3e f4 03 bd 94 09 e3 bd ed ab af 3d ef 4d 2a bb
       -0.03221535 -0.11085811 0.08577714 -0.0025986393
0003c0 79 a8 e4 3a 80 b3 61 3d 8d fe fb bd 86 fb c7 bd
       0.0017445228 0.055102825 -0.12304411 -0.09764771
0003d0 01 73 8c 3d 1e 03 4b bc d0 cf 78 3d 55 ce a5 bd
       0.06857873 -0.01239088 0.06074506 -0.08095995
0003e0 6e b8 49 bd 12 e2 de 3d 4c be 79 bd 67 04 d4 3d
       -0.04924815 0.10882963 -0.060972497 0.10352402
0003f0 59 27 22 3d 82 67 ba bd 8d bd 04 be 47 df ac bc
       0.039588306 -0.09101774 -0.12962933 -0.02110256

model.4.bias f4 [64]
000000 8a d6 b7 3c dd d2 f6 bc 70 5f dc 3a e3 e0 07 3d
       0.022441167 -0.030129844 0.001681311 0.033173453
000010 a3 51 9f bd 88 7a ca 3d f1 d8 8b 3d 20 e1 aa bd
       -0.07779243 0.09886652 0.06828488 -0.083437204
000020 41 32 ef 3d 77 35 a4 bd a6 d2 2c 3d 03 cb b4 3c
       0.11679507 -0.0801801 0.042193078 0.02206946
000030 68 55 07 3e 4a 7f e9 bd 40 e2 92 bd 76 e6 88 3d
       0.13216174 -0.114012316 -0.0717206 0.06684582
000040 1f e6 80 bc 0e 1a 2e 3c 56 f0 c8 bd 61 42 49 bd
       -0.01573473 0.010626329 -0.098114654 -0.04913557
000050 76 0b 65 3d 43 e3 77 3c 32 dc 28 3d 01 cb 1b 3c
       0.055919133 0.015129867 0.04122562 0.009508849
000060 b7 aa 43 bd 98 85 c6 bd 0c ff c5 3d 42 b6 0c be
       -0.04777023 -0.0969345 0.09667787 -0.13741401
000070 6e 53 d7 3c cf 1e 39 3d 65 a2 71 3d c8 01 4e 3c
       0.0262849 0.045195397 0.058992762 0.012573667
000080 71 57 63 3d 32 44 9b bc cd 5d a6 bd 30 fe 63 bd
       0.055503312 -0.018953416 -0.0812336 -0.055662334
000090 69 49 e1 ba a0 0a b6 3c 28 fd 84 3d e4 ff 80 bc
       -0.0017188016 0.022221863 0.06493598 -0.015747018
0000a0 83 29 6a 3c 7e 0d a6 bd 9c f2 b0 3d 7a 6b 85 3c
       0.014292124 -0.08108042 0.08640024 0.0162866
0000b0 78 59 1e be f1 1e 92 bd bb 75 9c bd 54 5f e3 bd
       -0.15463817 -0.07134808 -0.07639643 -0.11102167
0000c0 6b b5 8d 3d 7a b6 0b 3d 19 c8 59 bd 87 7a 4a 3d
       0.06919368 0.03410957 -0.053169344 0.049433257
0000d0 23 a5 43 3e a2 70 d7 3d 38 73 a1 3d 46 92 58 bd
       0.19105963 0.1051953 0.07883304 -0.052873872
0000e0 86 91 69 bd 9e 09 a4 bd 09 2e 96 bc b1 47 fc 3d
       -0.057023548 -0.08009647 -0.018332498 0.123183616
0000f0 5b f4 12 be 40 5b 05 bd 95 59 ff bd 56 da bb bd
       -0.14351027 -0.032557726 -0.12468258 -0.09172504

model.6.weight f4 [64, 64]
000000 20 74 16 be fb 0c 75 3e ad 73 fa 3d 40 0e 3c 3e
       -0.14692736 0.23930733 0.12229095 0.18364811
000010 f1 ce 25 bd 66 a5 94 3c c0 84 08 be 36 b9 af 3d
       -0.040480558 0.018145274 -0.1333189 0.08580248
000020 25 2f 89 bd a0 7a 15 bd c5 38 f7 3d a0 d0 25 bd
       -0.06698445 -0.036493897 0.12071375 -0.040482163
000030 f6 cb 84 3c 76 dd 06 be 44 69 d9 3d e1 11 45 bd
       0.016210537 -0.13170418 0.10615781 -0.048112754
000040 81 45 01 3e b5 c7 b4 3d 07 dc d9 bd dc 38 e3 bd
       0.1262417 0.088271536 -0.1063767 -0.110948294
000050 67 d9 e1 3d e7 29 7d 3d d9 68 94 3e 93 09 5a 3c
       0.11027794 0.06180754 0.28986242 0.013307947
000060 54 fd 7c be 0b 07 ad bd 25 51 4b bb ee 52 bb 3c
       -0.24706012 -0.08448609 -0.0031023708 0.022866692
000070 7c 19 24 be 75 1e e1 bd 4d 33 a1 3b 3b 87 b4 bc
       -0.16025347 -0.10992137 0.0049194456 -0.02203714
000080 d4 75 83 bd d0 7d 10 be b9 23 44 bd 9a 31 62 bd
       -0.06418958 -0.14110494 -0.04788563 -0.055223085
000090 57 c2 a2 bd 9f 05 f8 bb 23 dd ef 3d 6c ae ef bb
       -0.07947224 -0.0075690295 0.117121 -0.007314494
0000a0 7a 36 8d bd 7a a9 8f bc 07 a9 c3 3d 1f b8 29 be
       -0.06895156 -0.017536867 0.09553724 -0.16574143
0000b0 c3 fd 9e be f4 14 f2 bd 06 41 cd bd 3b 86 f0 3d
       -0.3105298 -0.11820403 -0.10022168 0.117443524
0000c0 1c 69 aa bd 11 0a c2 3c 8f 76 e0 3c 02 7d a6 bd
       -0.08320829 0.02368644 0.027400283 -0.08129312
0000d0 92 31 11 be 12 5e eb 3d db 54 71 3b f4 4c 25 bd
       -0.14179066 0.11492552 0.003682426 -0.04035659
0000e0 ea 6d 26 3e 0b 82 57 bd 3a 66 2d 3e 17 ea f3 3d
       0.16252866 -0.052614253 0.16933528 0.119098835
0000f0 20 27 0b 3e 11 a5 a1 3d d0 4f ad 3c dc 32 00 3e
       0.13589144 0.07892812 0.021156222 0.12519401
000100 a1 cb 70 3c 18 43 dd be aa 17 44 bd ab c3 09 3e
       0.014696986 -0.4321525 -0.04787413 0.13453548
000110 85 f9 5c 3d 59 de ac 3d 83 a7 81 3d ae 89 0d be
       0.053948898 0.08440847 0.063307784 -0.13822052
000120 9c 21 c6 3d 07 6f e3 bc f7 3c 2b be 75 1c a1 bc
       0.09674379 -0.027762903 -0.16722475 -0.01966689
000130 61 b8 bc 3d 80 59 02 3e 12 46 89 3d 26 de 37 3c
       0.09214855 0.12729454 0.06702818 0.011222398
000140 ad cf 76 bd 07 57 b6 bb 0b 49 48 bd c0 cf 13 3e
       -0.06025665 -0.0055645737 -0.048897784 0.14434719
000150 93 9a 01 bd 2b 67 8a 3c e8 aa b1 bd b0 68 14 be
       -0.031641554 0.016894897 -0.08675176 -0.1449306
000160 40 c0 1c 3e b3 ae 0e 3c 48 56 89 3d 30 df b8 3c
       0.15307713 0.008708644 0.0670591 0.022567362
000170 03 11 77 3d 0b a7 c3 3d 5f f3 ec 3d cb e4 a6 bd
       0.060318958 0.09553345 0.11569857 -0.081491075
000180 70 44 6a 3e be 83 f5 3d 92 6d 12 be e0 ad bd bc
       0.2287767 0.119880185 -0.1429961 -0.0231542
000190 ef 9d 70 bd c0 66 30 3e 8e 0d ec 3b 53 1c be 3d
       -0.058744367 0.17226696 0.0072037643 0.09282746
0001a0 26 05 a5 bd ff f6 ba bd 11 34 cc bc c9 fb 01 3e
       -0.080576226 -0.09129142 -0.024927171 0.12693705
0001b0 cb 96 43 3e 2d 15 20 bc 7a 80 85 bd a2 91 19 3d
       0.19100492 -0.009770674 -0.065186456 0.037492402
0001c0 83 75 25 be 1f 5a 7a 3e 54 26 11 be 3b 20 59 3d
       -0.16158108 0.24448441 -0.14174777 0.053009253
0001d0 77 30 ca be 8d 78 af 3d a8 88 93 bd b2 08 57 bd
       -0.394901 0.08567915 -0.072037995 -0.052498527
0001e0 06 6c f3 bb c9 f0 54 be bb 7b 04 be 59 ef bf bc
       -0.007428649 -0.20794977 -0.12937824 -0.02342956
0001f0 04 d4 c5 3c be 79 70 bd 9c 2a a2 3d dc 5c 88 bd
       0.024148948 -0.058709852 0.07918283 -0.066583365
000200 7a b6 1a 3d 8e 2c a2 bd 04 6e 01 be 56 03 a2 bd
       0.03777168 -0.079186544 -0.12639624 -0.079107925
000210 5d 65 b0 3d f0 96 18 3e e1 b1 1f bd 02 49 9b bd
       0.086130835 0.14901328 -0.038987998 -0.075822845
000220 77 fc 95 bc 86 4f 0e 3e e3 1a 84 3c 1c f3 09 3e
       -0.018308861 0.13897523 0.016126102 0.13471645
000230 59 2d d6 3d f1 9f 37 3d 58 55 a6 bd bc b2 59 bd
       0.10457868 0.044830266 -0.08121747 -0.05314897
000240 ef e5 15 bd 02 0e 8c 3d 81 9b 8f 3d 3a 6a 64 3d
       -0.036596235 0.06838609 0.07012082 0.055765368
000250 16 7c 7b bc 0c 0c 8d 3c f4 d3 d4 bd 57 da f1 3d
       -0.015349409 0.017217658 -0.10391989 0.11809223
000260 9f fe 04 3e 45 98 9b 3d 76 30 61 3d c1 ac 60 bd
       0.12987755 0.075974025 0.054977857 -0.05485225
000270 74 ba 4d 3d b9 09 b5 3d 74 f1 4f bd ed 5d af bc
       0.050226644 0.08839745 -0.050767377 -0.021407092
000280 7b c7 8a bc 0a c5 3a 3e 8a 95 27 be 77 03 a8 bb
       -0.016940823 0.18239227 -0.16365638 -0.005127366
000290 38 84 86 3d 44 10 95 bb 8a 5d ec bd 60 87 c5 bd
       0.065681875 -0.004549058 -0.11541279 -0.09644961
0002a0 df 5d ce 3c 8d b4 31 bd d5 6a 24 3e 13 b0 1b 3e
       0.025191246 -0.043385077 0.16056378 0.15203886
0002b0 ef ca 79 3e eb 0f 9b bc 07 f2 a6 bd c5 09 c9 3c
       0.2439382 -0.018928489 -0.08151632 0.024540791
0002c0 fe 4c 14 3e 7a 93 2a 3e cd e5 4e ba db da 28 3c
       0.14482495 0.1665782 -0.00078925194 0.010306085
0002d0 37 ae fc 3c 09 05 30 3c df 96 07 bc d9 b1 89 bc
       0.03084479 0.010743388 -0.008275717 -0.016808437
0002e0 02 a7 0b 3d 2a cd f3 bd 41 7f 54 be 71 11 0b 3d
       0.034094818 -0.11904366 -0.20751669 0.03395218
0002f0 61 89 e5 bb 10 85 20 3e ff 80 86 3c 29 27 60 be
       -0.007004902 0.1567576 0.016418932 -0.21889938
000300 c0 75 cb 3d 60 ab bd bd e2 eb a4 bd f6 ad 5e bc
       0.099345684 -0.09261203 -0.080528036 -0.01359128
000310 3f 30 d0 bd 86 df 2c 3e 9d 3c 5c 3e dc f8 20 be
       -0.10165452 0.16882142 0.21507497 -0.15719932
000320 84 dc cc bb 96 c0 57 3e 02 24 18 3e b0 1b cc 3b
       -0.0062518734 0.2106956 0.14857486 0.0062288865
000330 3a a6 95 bd 29 8d 74 3c e5 24 88 bd a8 0c c0 3d
       -0.07307096 0.014926233 -0.06647662 0.09377414
000340 c1 2b f4 bc 3a 3a 8a 3d e7 bd 00 3d 70 ba 94 3d
       -0.02980602 0.06749387 0.031431105 0.07262123
000350 98 b4 a0 3d b9 c6 8a 3c 9a 4a 54 3d 09 02 b6 bd
       0.078469455 0.016940461 0.051828958 -0.08887107
000360 b4 7c dc 3d 04 04 0b 3e 08 2f ba 3d 2e b4 ed 3c
       0.10765973 0.1357575 0.09091002 0.02901658
000370 49 67 0c 3e 71 54 af 3d 51 8b 8d bd cb 5b d0 ba
       0.13711275 0.08561028 -0.06911338 -0.0015896497
000380 c8 80 eb bb 7d 19 94 bd 10 9e d4 3b b9 66 a3 3d
       -0.007186983 -0.07231424 0.006488569 0.07978577
000390 35 28 58 bc 70 34 5e 3d 67 a1 67 be 93 e2 86 3d
       -0.01319318 0.054249227 -0.22620164 0.06586184
0003a0 07 6f 11 3d ad 16 d6 bb 35 9f 6b bd 9a db ff bc
       0.035506275 -0.006533465 -0.05752488 -0.031232644
0003b0 f5 c4 8b 3e 1d 38 82 bd fe 87 84 bd 3f f3 01 be
       0.27298704 -0.06358359 -0.06471251 -0.12690447
0003c0 33 5f 61 bc fd d6 56 3d a7 94 c9 bd 80 4b e9 bd
       -0.013755607 0.052451123 -0.09842806 -0.113913536
0003d0 53 d8 dd bd 1a 65 c1 bc 9e 6a aa 3d bd c0 2b 3b
       -0.10832276 -0.02360778 0.08321117 0.002620741
0003e0 2e 16 4d 3d a1 4f 18 3d 70 f0 c9 bd d2 2d d7 3c
       0.05006998 0.037185315 -0.09860313 0.026266966
0003f0 33 15 d2 bd 62 08 44 3e bb d3 8e 3c d0 66 37 be
       -0.1025795 0.19143823 0.017434945 -0.17910314

model.6.bias f4 [64]
000000 6e 8f 3d bd db 70 73 3d 9b 91 41 3c ac 12 d3 bc
       -0.046279363 0.0594338 0.0118145 -0.02576574
000010 b1 57 65 3d d9 62 73 3d d7 f0 1f 3d 0a f2 68 bd
       0.055991832 0.05942044 0.039048042 -0.05687145
000020 11 51 26 3c a2 d3 3b bb fd fc 9a bd a8 f0 df 3b
       0.010151164 -0.0028660079 -0.07567785 0.0068341084
000030 4b dd 0a bd b3 8a 0a be 6a 64 5d bd 8f 60 09 3c
       -0.033902448 -0.13529472 -0.05405084 0.008384838
000040 ce 3c 24 bd c6 07 dc 3c aa 7e bc bd 33 fd 0b be
       -0.04009705 0.026859175 -0.09203847 -0.13670807
000050 32 e2 65 3a 3c 59 96 bd e9 d4 b1 bd 04 a4 0d be
       0.00087693625 -0.07341239 -0.086831875 -0.13832098
000060 27 9f d5 3d 72 5d 50 3d 54 4f 20 be ef fe e9 3c
       0.104307465 0.050870366 -0.15655261 0.028563945
000070 3f 9b 61 bd a6 cf ae 3d 4c cd 71 bd 5a 70 bf 3d
       -0.055079695 0.085356995 -0.059033677 0.09347601
000080 b4 5e 25 be 73 08 b3 3d d4 30 26 3e 5a 54 88 3d
       -0.16149408 0.08741846 0.16229564 0.06656714
000090 54 2e 48 3c 6f 65 6e 3c e9 b5 c2 3c 0f 32 a0 3d
       0.012218077 0.014550551 0.023768382 0.07822048
0000a0 90 e0 8f 3d 56 cf de 3c b2 55 e2 bb e0 d9 27 bd
       0.07025254 0.027198475 -0.0069071883 -0.040979266
0000b0 bb 5d 6c bc e5 e1 be bd e3 99 5d bc d4 b8 80 3d
       -0.014426644 -0.0932043 -0.013525459 0.06285253
0000c0 fc c0 b8 bd 1a 23 05 be 93 7a af 3d 04 23 0d 3c
       -0.09021184 -0.13001671 0.08568301 0.008614305
0000d0 8c b2 f0 bc ad a7 bb bb 7a 42 35 be 5f 0b e2 bb
       -0.029382013 -0.0057267756 -0.1770114 -0.006898328
0000e0 1d cb 8a bd 06 fc 20 be 12 80 81 3c d1 ec 2e 3d
       -0.06777022 -0.1572114 0.015808139 0.042706314
0000f0 05 a8 51 3d 7b 87 07 3e 3c 1a 16 3d 42 46 01 bd
       0.051185627 0.13235275 0.036646113 -0.031561144

model.8.weight f4 [64, 64]
000000 3d d0 d4 3d f1 9a dd bd 6b 09 d5 bd 27 1d b0 bd
       0.10391281 -0.10820568 -0.10402187 -0.0859931
000010 3b cc ea 3d 49 7a ad 3d c7 98 d1 3d 5f b3 03 be
       0.11464735 0.0847059 0.10234218 -0.12861393
000020 80 f6 c8 bd bb e6 a6 3d 2b 0a de bd a7 a8 d4 bd
       -0.09812641 0.08149477 -0.10841783 -0.103837304
000030 f0 e3 eb 3c 90 75 95 bd ae e5 0a be 95 a9 9b bd
       0.028795213 -0.07297814 -0.13564178 -0.076007046
000040 9f 61 5d 3d 11 1d c1 bb 55 35 c6 bd bf 9a 01 be
       0.054048177 -0.0058933576 -0.09678141 -0.12656687
000050 2b 62 c5 3d df 4e 1f bd 4c e3 0d be 2a f5 eb 3b
       0.09637865 -0.038893577 -0.13856238 0.0072008567
000060 b4 85 a1 3d b7 46 10 3e 3c eb 98 bd 0e 76 ff bd
       0.0788683 0.14089476 -0.074667424 -0.12473689
000070 4d 29 45 bd 95 99 aa bd 40 03 23 3d 56 fc 98 bd
       -0.04813509 -0.08330075 0.03979802 -0.07470004
000080 e3 c8 2d be 38 8c d0 3d f5 25 02 3e d8 79 d6 bd
       -0.16971163 0.101829946 0.12709792 -0.104724586
000090 5b 3e b2 bd 4e 62 b9 bd 0b 01 15 3e 55 7e 40 3d
       -0.087032996 -0.09051953 0.14551179 0.04699548
0000a0 fc 08 cd bd 70 6e 82 3d af a8 8c bb 45 7e da 3d
       -0.10011479 0.063687205 -0.0042925696 0.10668615
0000b0 3f 64 e6 bd 07 86 02 be dc b0 da 3d a1 59 c0 3d
       -0.11249589 -0.1274644 0.106782645 0.09392095
0000c0 53 97 5b 3d 29 45 ce bd ca 86 0a be 4e f3 a9 3d
       0.05361111 -0.10071785 -0.1352798 0.0829836
0000d0 62 e4 cd bd f8 f7 a8 bd f2 90 b9 bd 92 f7 f7 3d
       -0.10053326 -0.08250421 -0.09060849 0.12107767
0000e0 ff c1 01 3e 7d 06 8e bd 85 6a 24 bd 97 48 7e bc
       0.1267166 -0.06934831 -0.040140647 -0.015520236
0000f0 fd 54 12 3e 08 65 89 3c c0 46 ad bd 10 0d 2e bd
       0.14290233 0.016771808 -0.0846076 -0.042492926
000100 11 00 14 bb 0c 68 e2 3d 19 7f a9 3c 53 a7 55 bd
       -0.0022583047 0.110550016 0.020690488 -0.052161526
000110 88 82 2e bd 89 43 61 3d 46 53 b3 bc 8b 0a 95 3c
       -0.042604953 0.054996047 -0.021890294 0.018193504
000120 40 e9 15 3d cd b3 fa 3c b5 f7 46 3d 4b 3c 0b bd
       0.036599398 0.030603314 0.048576076 -0.033993047
000130 24 4e 88 bc 54 c2 7e 3d 89 d2 89 3b 4a 50 c5 3c
       -0.016638823 0.062197044 0.004206006 0.024086136
000140 56 6f b7 bd d9 ce 29 3d 4e d3 de 3d 84 a3 85 bd
       -0.089567825 0.04145703 0.10880147 -0.06525329
000150 36 ef 7d 3d ac 08 03 3b 3c 6d f1 3d e1 88 95 bc
       0.061995707 0.0019994183 0.11788413 -0.018253746
000160 c5 d3 c3 bd 69 76 c4 bb 89 d0 b5 3c e4 d7 bd 3d
       -0.09561876 -0.005995561 0.022194164 0.092696935
000170 86 73 6b bd cb bb 20 3d a6 ab be bd d4 29 8e bc
       -0.05748322 0.039241593 -0.09310083 -0.01735393
000180 06 58 18 3e a8 e6 ac bd 32 0d 3b bc 6d 71 7f bd
       0.14877328 -0.08442432 -0.01141672 -0.06236403
000190 05 c9 af 3c 47 4d a1 3d 05 7a d9 bc 50 14 99 3a
       0.021458158 0.078760676 -0.026547441 0.0011679027
0001a0 4c d9 c1 bc 96 7f 2c bd 0a 76 5a 3d 87 50 6f bc
       -0.023663186 -0.042113863 0.053335227 -0.014606602
0001b0 79 26 f4 bb 52 2f 06 bd d1 6f e6 bd c3 71 f7 3c
       -0.0074508754 -0.032759972 -0.11251796 0.030205613
0001c0 0e 57 3b bd cf 95 87 bd 31 35 19 3e b6 fb 75 bd
       -0.04573732 -0.066203706 0.14961697 -0.060054503
0001d0 5f a7 b6 3d 6c 44 06 be af 44 04 3e 84 91 05 3d
       0.08918642 -0.13112038 0.12916826 0.032609478
0001e0 c6 1c 28 bd 5f 2e 4e bd 29 3c 91 3d 88 bc 65 bd
       -0.041043065 -0.05033719 0.07091553 -0.056088
0001f0 1d 39 6c bd 6d 99 a2 3b 12 c8 39 3d f1 19 57 3d
       -0.057671655 0.0049621374 0.045356818 0.052514974
000200 d1 39 06 be 74 9c e5 3b 27 fe 51 bd 3a fb 8d bd
       -0.13107993 0.007007176 -0.05126777 -0.06932683
000210 d1 3c bc bd 60 93 4a bd 05 7f d4 3d d3 55 fd 3d
       -0.09191287 -0.049456954 0.103757896 0.12369885
000220 2b 11 bd 3d 69 89 14 ba 4b 5b 91 bd e8 14 66 3b
       0.0923179 -0.00056662277 -0.07097491 0.0035107676
000230 4d f8 ce bb 6a a9 7f bc e1 1f 17 3e 14 55 fa 3d
       -0.006316221 -0.015604356 0.14758255 0.122232586
000240 24 c0 f6 3b 15 e9 5d 3d f7 39 84 3c 65 0e 89 b9
       0.007530229 0.054177362 0.016140921 -0.000261414
000250 76 8e 93 bd b8 19 d6 bc d5 cd 81 3e 22 6c 4a bd
       -0.07204907 -0.02613531 0.2535235 -0.04941953
000260 17 1c a8 bd da f6 d0 bd b6 0d 52 bd 60 7f 76 3e
       -0.08208483 -0.10203333 -0.051282607 0.24072027
000270 98 cd ce bc 82 ea 4d 3c a3 4f 01 bd dc 26 f4 3c
       -0.02524452 0.012568118 -0.031570088 0.029803686
000280 a0 64 62 3e ae aa 85 bd 28 2f 07 be 4d 2e 2e bd
       0.22108698 -0.06526695 -0.13201582 -0.042524625
000290 20 ab 1f bd c5 44 22 bc 1f 78 41 3e 8a f0 e7 bd
       -0.038981557 -0.009904091 0.18893479 -0.11325176
0002a0 ad 01 d2 bd 46 b7 bc 3d 54 ac 4f 3d f9 0c 86 bd
       -0.10254226 0.09214644 0.050701454 -0.06545443
0002b0 bd 22 22 be 58 2d 3e be 9b dd 86 bd cc 33 e5 bc
       -0.15833564 -0.18571985 -0.06585237 -0.0279788
0002c0 fb f9 a7 bd 79 44 31 bd 56 8a 02 3e 75 a5 2d bd
       -0.08201977 -0.04327819 0.12748083 -0.04239412
0002d0 aa 73 bd 3d 84 7c 39 bd 24 cc d5 3d 5e 6d a7 bd
       0.09250577 -0.045284763 0.10439327 -0.08175157
0002e0 ad 1d a2 bb a5 1b f9 bc cc 92 0a bd dd a8 97 bd
       -0.0049473853 -0.03040869 -0.033831403 -0.07405255
0002f0 e2 b5 ac bc 1a 40 5e bd c2 24 b4 bc 2d a6 0c 3c
       -0.021082822 -0.05426035 -0.021990184 0.008584541
000300 d7 9f 76 bd 22 95 c2 3c cf 58 60 bc 53 05 28 3b
       -0.06021103 0.023752753 -0.013693049 0.002563794
000310 04 a9 0c be f0 0e 19 bd 67 92 0a 3e 3b 9f fa bc
       -0.1373635 -0.03736776 0.1353241 -0.030593505
000320 01 96 f9 3d 81 7b a1 3d 0a 36 8f 3d 3e 69 05 3d
       0.12186814 0.078848846 0.06992729 0.03257107
000330 7b 58 de bd 61 96 1f bd 64 84 9e 3d 9b fe 88 3d
       -0.1085672 -0.038961772 0.07740095 0.06689187
000340 d9 8b 92 3d b5 c7 3b 38 cd 73 e6 3c 75 e9 bc bd
       0.0715558 4.4770266e-05 0.02813139 -0.09224216
000350 3d ed f9 bd 97 98 a3 3c bf da 05 3e 1f e4 bf bd
       -0.12203453 0.019970221 0.13071726 -0.093696825
000360 e1 a0 b0 bc 88 e6 a6 bd e9 ab fe bd 70 97 9b 3d
       -0.021561088 -0.08149439 -0.12435133 0.07597244
000370 d4 08 79 bd 62 4d 14 bd ff cb 0d bc 09 ef 2d bc
       -0.060799435 -0.03620661 -0.0086545935 -0.010616072
000380 7b 0d 75 3e b4 33 f9 bd 56 fa e3 bc 59 6f 7a bd
       0.23930924 -0.12168065 -0.02782933 -0.061141346
000390 e7 03 ae 3d 59 d2 89 3d a8 88 24 bc ba cc af bd
       0.08496838 0.06729574 -0.010042347 -0.0858397
0003a0 2c df 95 bc fa d9 98 bc 3c c1 cc bc 02 96 a0 bd
       -0.018294893 -0.018658627 -0.024994485 -0.07841112
0003b0 fe fb 8a bd b1 c7 33 be d6 1e 85 bd 00 06 a4 bc
       -0.06786345 -0.17556645 -0.06500022 -0.020022392
0003c0 cf 71 0b bd f3 bd 06 be 85 e0 26 3e 91 99 22 3d
       -0.034044083 -0.13158397 0.16296585 0.039697234
0003d0 4b ae 4d 3d d7 8e 0a bd da d3 2b 3d 90 05 6a bc
       0.050215047 -0.03382763 0.041950084 -0.014283553
0003e0 d0 a0 e1 bc a6 65 af 3b 44 4d b0 3d 0c 48 f7 ba
       -0.027542502 0.0053526936 0.08608487 -0.0018866076
0003f0 5d aa 81 bd 54 e7 91 bc a5 6c 4c 3d 21 1f c2 3c
       -0.06331322 -0.017810501 0.0499083 0.023696484

model.8.bias f4 [64]
000000 9e c9 d8 3c 69 7f 5f 3d 45 cb 0d be 2d 34 79 3d
       0.026463326 0.054564867 -0.13847072 0.060840774
000010 f3 75 84 bc 87 10 29 bc 00 43 98 3b 79 33 3f 3d
       -0.016169524 -0.010318882 0.004646659 0.046679948
000020 c1 d4 0c 3e 40 3c d5 3d 50 cb ad 3d c8 8e 26 3d
       0.13753034 0.104118824 0.084860444 0.04066351
000030 87 b9 3a bd b3 82 d8 3d f7 ca b6 3d de 34 9a 3c
       -0.04558709 0.10571804 0.08925431 0.018824037
000040 07 4b e0 bb ca 0d c6 3d 32 b6 dd 3d bd 91 81 bc
       -0.0068448815 0.09670599 0.108257666 -0.015816564
000050 0b 20 b7 bd 5d 6d 15 3c 07 be 09 3e 18 1e 8c bc
       -0.089416586 0.0091203125 0.13451396 -0.017104194
000060 10 f1 22 be 05 b0 ac 3c c0 16 77 bd 76 1a d6 bd
       -0.1591227 0.021080026 -0.06032443 -0.10454266
000070 2b 19 59 bd 79 e2 4c 3e 5d a3 81 3d ca 9c b2 3d
       -0.053002518 0.20008267 0.06329987 0.087213114
000080 ac 23 50 3c 16 f9 72 3d 3d 7b 1b be 40 cf 03 3e
       0.012703817 0.059319578 -0.1518373 0.12872028
000090 bf 21 db 3c b3 fe ac 3d 1c e2 b5 3c 7c 51 a6 3b
       0.02674949 0.084470175 0.022202544 0.0050756317
0000a0 a1 53 56 3d cf c8 0b bd 5d 47 97 3c 60 da c0 3c
       0.05232585 -0.034127053 0.018466646 0.02354163
0000b0 73 44 cd 3d 1b 30 40 bd ad f3 93 bc ad 03 0e 3c
       0.10022821 -0.046920877 -0.01806053 0.008667869
0000c0 c8 5a 21 be 63 f4 2f 3d cd 48 f4 bc f9 bd 8c 3d
       -0.15757287 0.042957675 -0.02981987 0.06872172
0000d0 38 b5 c2 3d 78 05 0b 3e ac 7e 88 3d 2d 4c d6 3d
       0.09507221 0.13576305 0.06664786 0.10463748
0000e0 28 39 96 bd 78 7a 06 bd c7 f0 4a bc 50 93 f7 3a
       -0.073351204 -0.03283164 -0.012386507 0.0018888507
0000f0 04 24 95 bd 5f 30 4a 3d 3a b4 f0 3d 98 35 69 bd
       -0.0728226 0.049362537 0.117531255 -0.056935877

model.10.weight f4 [64, 64]
000000 00 d6 00 3d af b8 6d bd 18 f4 8a bc ca 49 6d 3d
       0.031454086 -0.058037456 -0.016962096 0.0579317
000010 e5 b4 0a 3d 4c 6f 31 3d ca 5b 48 3d 3d af 32 3d
       0.03386392 0.04331903 0.048915662 0.04362415
000020 3a 68 42 bd 45 89 b9 3c 4e db 32 3d 56 66 48 bc
       -0.04746268 0.022648463 0.043666176 -0.01223143
000030 90 7a 6a 3d 9b 43 d0 3c 6d e3 a7 3b d4 52 42 3d
       0.05724579 0.025422862 0.005123547 0.047442272
000040 cd b0 02 3d a8 d9 b2 3d d6 3c c3 3c e2 9d 0d 3d
       0.03190689 0.08732921 0.02383272 0.034574397
000050 7d e4 b7 3c 23 98 01 bd 69 6a 80 3d 24 31 81 3d
       0.022447819 -0.03163923 0.06270296 0.06308201
000060 37 65 2d 3c a2 1f 9a bd 61 66 2f bd fc 1c bc 3c
       0.0105832135 -0.07525565 -0.042822246 0.02296304
000070 47 38 be bc a0 6a 83 bd 7e af 06 3b 34 b5 90 bd
       -0.023220195 -0.064168215 0.002055138 -0.07065812
000080 4f 53 33 3d 82 13 2e 3d 97 26 a3 3c 0e 85 b4 3d
       0.04378062 0.042499073 0.019915862 0.08814441
000090 7f 60 8c bd 25 04 4b 3d 98 fe 0d 3d 48 3d 74 3d
       -0.06854343 0.0495645 0.034666628 0.059628755
0000a0 e1 2f 0b 3a 8c f9 bd bd ea f4 b6 3c e7 15 88 3d
       0.0005309564 -0.09276113 0.022333581 0.066448025
0000b0 0f d4 52 bd 6e 20 3f 3d 29 2d 4b bd 70 ee fa 3c
       -0.051471766 0.046661787 -0.049603615 0.030631274
0000c0 4d d9 3c bd e7 fe 3f bd 85 4b f3 bc ef 03 55 3d
       -0.04610567 -0.046873953 -0.029699096 0.052005704
0000d0 63 17 a9 3d 5f d8 1e bd 62 81 5e 3d a3 bc 29 bc
       0.08256414 -0.038780566 0.054322608 -0.010359916
0000e0 eb 6d 6c 3d a5 4d 29 bd eb be 5f 3d 5d 9a 11 3c
       0.057722013 -0.041333813 0.054625433 0.008886901
0000f0 7b 03 45 3d df a4 0f 3d 49 a2 d6 bc a3 0c 4b bc
       0.048099022 0.035069343 -0.02620043 -0.01239315
000100 f2 f7 e7 bd a4 ca 13 bd 35 0b 1d 3c a2 b5 b9 bc
       -0.11326589 -0.036081925 0.0095851915 -0.022669617
000110 39 84 31 3e 47 a9 83 bd 57 d6 2b bd eb 79 35 bc
       0.17335595 -0.064287715 -0.041952457 -0.011076431
000120 07 8c a4 bd b3 ac 9b bd 29 89 b4 3c 0e 18 eb 3c
       -0.080345206 -0.07601299 0.02203806 0.028697994
000130 00 59 30 3e a7 52 4a bd 25 f6 81 bc c2 54 71 bd
       0.17221451 -0.04939523 -0.015864441 -0.058918722
000140 23 08 df bb cb d8 92 3d d2 eb 94 bd db ab aa 3d
       -0.00680639 0.07170256 -0.07271542 0.0833356
000150 63 8e 2d 3c 27 a6 aa 3d 8f e4 b9 bd 80 39 2d 3e
       0.01059303 0.08332472 -0.09076797 0.16916466
000160 28 bf 91 3d ec e3 26 bb 24 78 17 3c 25 e3 99 3d
       0.07116538 -0.0025465442 0.009244952 0.075140275
000170 7e e9 50 3d ad 81 73 bd f2 af 7c bd 83 fd e7 bd
       0.051003926 -0.05944984 -0.061691232 -0.113276504
000180 07 ec 86 bd 8d 85 c7 3c 28 50 d6 3c 27 26 3c 3d
       -0.065879874 0.024355674 0.026161268 0.045934822
000190 3f 6c 6e bd 05 03 d8 bb 99 6d f0 bb eb ea ae bd
       -0.0582087 -0.006592157 -0.007337284 -0.08540901
0001a0 ac c7 74 3d 50 9f c1 bc 16 6e 39 bd c9 89 d4 3d
       0.059760734 -0.023635536 -0.045271 0.10377843
0001b0 5b 5a 4f 3d 5d e1 2a 3d 5a ae 29 3d 07 5c 89 bd
       0.05062328 0.04171883 0.04142604 -0.06707006
0001c0 6e 03 6b 3d 44 cc ed 3c d7 59 70 3d 85 74 50 3c
       0.057376318 0.029028066 0.058679428 0.012723093
0001d0 1a 79 65 3d 8e 53 7a bd 5e 0f 04 3d 41 08 34 3e
       0.056023695 -0.06111484 0.032241218 0.17581274
0001e0 54 92 af 3d 91 9f 52 bc b6 59 7d bd 0a f7 81 3d
       0.08572832 -0.012855426 -0.061853133 0.06345947
0001f0 b6 3f 38 bc 01 94 8a bd 11 e6 d7 bd 12 f6 44 3d
       -0.011245659 -0.06766511 -0.105419286 0.048086233
000200 62 e5 00 bd 98 7d c0 bd e2 cd 41 3e 00 42 af bd
       -0.031468756 -0.09398955 0.18926194 -0.085575104
000210 51 09 cc bd 6d f7 8d bd 24 9e 1b bc 8f de 87 bd
       -0.099627145 -0.06931958 -0.009498153 -0.066342466
000220 1f c2 91 3c d3 bb 9c 3c 21 cd f2 3d ee b6 95 bd
       0.01779276 0.01913253 0.118555315 -0.07310282
000230 42 5e 19 3d c7 dd 28 3d 45 b5 af bd 67 8b 0a 3e
       0.037443407 0.04122713 -0.08579496 0.1352974
000240 40 eb 3d bd fd 81 b6 3c 0e 57 90 3d 81 2a 4e be
       -0.04636693 0.02227878 0.07047854 -0.20133401
000250 f0 89 a8 bd 5b 7e c1 3d 01 00 f3 3d c1 31 bd bb
       -0.082294345 0.094479285 0.11865235 -0.0057737534
000260 ee 7b de 3c b8 b3 a9 bd 4f 72 14 3d 6d c2 7a 3d
       0.027158704 -0.08286232 0.036241826 0.061220575
000270 a5 f4 4d 3d 5d 93 bb 3d 7d 55 b3 bd 40 73 a5 3d
       0.05028214 0.09158967 -0.0875654 0.08078623
000280 f7 a9 30 3d de c0 83 bc 28 8f f8 bc eb df 39 3e
       0.04313084 -0.016083177 -0.0303417 0.18151824
000290 88 27 82 bc f1 ae 78 3d 2c c5 ce 3c fa d7 de 3d
       -0.01588799 0.060713712 0.025240503 0.10881038
0002a0 53 08 e8 bc f1 01 f6 bd 86 24 7d 3d a8 ea 9a bc
       -0.028324282 -0.12012089 0.06180241 -0.018910721
0002b0 20 a4 4a 3e 78 e0 0c bc 85 73 d5 3b b6 ae 01 bd
       0.19789171 -0.008598439 0.006514015 -0.031660758
0002c0 31 71 8d bd 4d d4 a4 3c 6c 24 06 be a6 51 8a bd
       -0.06906355 0.020120764 -0.13099831 -0.067538545
0002d0 e0 45 b7 bd 64 45 95 3d fb b0 93 3d a3 45 3f bd
       -0.089488745 0.07288626 0.07211491 -0.04669727
0002e0 75 de af bc 4c c9 10 bd 14 b7 82 bc c4 1c b7 3d
       -0.02146838 -0.03534822 -0.01595644 0.089410335
0002f0 b5 f5 98 3d c9 68 89 bd f4 0b 11 3e d6 16 6a bd
       0.0746874 -0.06709439 0.14164716 -0.057150684
000300 68 90 ed 3d 7a 6e cc bc e2 0d f0 3c 33 7a 03 3d
       0.11599809 -0.024955023 0.029303495 0.03209896
000310 8f 4c 22 bd a7 c7 06 bd 83 27 98 bc 57 8a 74 bc
       -0.039623793 -0.032905247 -0.018573528 -0.014925561
000320 1e f2 38 bd 2f 6d 2e 3c 26 4d 03 bd 01 4d d1 bc
       -0.045152776 0.010646149 -0.032055996 -0.025549414
000330 82 ba 98 3d 74 39 35 3d dc 6d 90 3b 94 2f 24 bd
       0.074574485 0.044244245 0.0044076275 -0.040084437
000340 b8 4d b5 3d c2 f1 a4 3d 5e 58 a6 3d bb 5c 57 bd
       0.08852714 0.08053924 0.081223235 -0.05257867
000350 c3 9b 6a bc 97 c6 a5 3d 33 84 05 bd d3 5e f6 bc
       -0.014319363 0.08094519 -0.032596778 -0.030074513
000360 0c 25 9b 3d 4b 82 0d 3c ab 11 94 3d 59 c9 d4 bc
       0.075754255 0.008637021 0.072299324 -0.025974916
000370 40 6f de 39 0c 9c 23 bb 86 00 c1 3c 8d 39 38 3d
       0.00042426027 -0.0024964837 0.02355982 0.04497676
000380 34 09 86 bc 6e e3 5e bc d6 b0 16 3d 17 09 29 3d
       -0.01636181 -0.013604028 0.036789738 0.041268434
000390 b0 17 93 3d fa 7b 1a bc bb 97 48 3d c4 04 91 3d
       0.071822524 -0.009428972 0.048972826 0.07080987
0003a0 62 e6 7f bd 33 20 cf 3d 47 f4 87 3d 13 67 7d 3d
       -0.06247557 0.101135634 0.06638389 0.061865877
0003b0 ee c8 44 3d 2c 82 81 bd 0b f3 36 bc 93 50 42 bd
       0.048043184 -0.063236564 -0.011166344 -0.047440123
0003c0 45 42 a9 bd ab 23 0d 3c 3a 3e ab bd e9 57 a8 bd
       -0.08264593 0.008614461 -0.08361478 -0.082198925
0003d0 01 98 1c bd 16 51 44 bd 89 8d 9b bd ca dc 5a bd
       -0.0382309 -0.047928892 -0.07595355 -0.053433217
0003e0 dc 71 cd 3c a8 2a 84 bd 36 58 ad 3d 67 5e 76 3d
       0.025078706 -0.064534485 0.084640905 0.060148623
0003f0 b6 e2 90 3d 87 39 46 bd 01 90 f6 bc 89 e8 f2 bc
       0.07074492 -0.048394706 -0.030097963 -0.029651897
