pinn_ns/conversion/snnmodel_cali128.pth (torch, 90392 bytes, 14 tensors)

model.0.weight f4 [64, 3]
00000000: d4b4 ba3d ddd4 093f 7b8d 75be f7ba b53c
00000010: 29d7 13bf 0ad9 a83e a8f2 0e3f 4fc0 833d
00000020: f58c d83d 5c81 babe b902 47be df06 153c
00000030: c4bc 0a3f b9bd 2b3e 57be 3fbe 0223 9e3b
00000040: 2e3f bd3c 91a4 033e 1b1e 86be f54b 23bd
00000050: 019c ccbe 4c02 df3d df19 1c3f 05a3 e3be
00000060: 739e 3c3f 301e 893e 25e7 51be 7e98 92be
00000070: 4042 aa3e 2e17 0c3f 2c7f e33e 4e11 debe
00000080: f966 20bf b7af 3bbe e119 e7bd 810b 113f
00000090: ab49 b9be 784a 8d3e 93d7 e2bd a5cb 1a3f
000000a0: 55cb 11be 2fc1 283d d522 58be 7240 0e3f
000000b0: c182 1cbf 3bff a23e e5d3 13be 08da 083f
000000c0: 8e06 9dbd 019d 7a3e 55f7 65be 455b 133f
000000d0: b8d9 3c3d cdb2 c8bb fe83 f73d 98fc 1ebf
000000e0: 6363 ccbe 5987 ef3e 26b9 473e ed04 debc
000000f0: e28c 173d 7e36 803d f039 c1be dae9 683d
00000100: 76a3 0ebd cd20 5cbd 6271 dabe 2b66 11be
00000110: 7378 ad3e 65e0 25be a50f 383e e946 6cbe
00000120: fab9 0abf f24d c93c 8083 073f fcb3 0abf
00000130: 02ca 913e 0b0d 70be 0c0f 58be 5544 f5be
00000140: c613 283f f90e 11bf e06c 0cbe 3b0c f8be
00000150: 876e 193e a311 afbe e6ed 023e dd37 16bd
00000160: c40c 983d bd9a 283e cae0 14bf 7f0e 7c3d
00000170: a087 3dbe ff08 aabe 6d06 033e 08ed 35be
00000180: 572a 663e 14ce 383e 54d0 2f3f d13a 2bbd
00000190: 94c6 22bf 7d16 07bf e60f f9bc 6e53 bcbd
000001a0: a228 86be 809a 08bf 1961 79be a15c 0cbf
000001b0: 97e0 59be 4b4c 293e ee55 7a3e e21d 253d
000001c0: d192 bfbe 506c 7ebe 727f dc3d 2306 053f
000001d0: 717f 743e 41e4 e63e e117 c1be 5e04 963e
000001e0: 0328 e2be cb3a 80be 3fa5 c6be d985 bcbe
000001f0: 2bca f13d f38f 69be 4a8e e23c 5116 b0bd
00000200: 7c05 ee3e 6000 cf3e 9dec a03d fa0f 37bf
00000210: 99de 3e3e ff4c d3bd 3bae f0be 5255 a33d
00000220: 556e cd3e afdc 1c3f 9489 f23e 1f1f fb3c
00000230: ef7f f2be de98 193f 62a8 90be b021 653e
00000240: 63f0 debe b5db 713e a8e2 bb3e 252e f9be
00000250: 48c6 c1be 836b fbbe 65d0 273f ac4d 4ebf
00000260: 1955 993e bdab a0be 7ca9 13bf d632 1e3e
00000270: 304f 133f 4636 1bbf 18af c2be e59a 7bbc
00000280: 6870 60bd 5430 fb3e d28b 0c3f 5e2b c4bd
00000290: 6b11 1fbf 29a7 4b3e 3244 85be cf49 33bd
000002a0: 108d fcbe 5021 52be 4278 7d3d 1d89 313f
000002b0: 4175 cb3c 7e1b 493d 270f e83e 35bc 8c3d
000002c0: f14b 123f efd1 08bf fa39 95bd b786 fdbe
000002d0: 84e0 9c3e c975 6cbe 86f4 efbe 653d 11be
000002e0: ef90 b1be 32f0 a3be e407 b6be 8d03 273e
000002f0: cf7a ffbe d594 283f 9493 29bd a621 113e
0.091165215 0.5384043 -0.23979752 0.022183878 -0.57750183 0.32978088 0.55839014 0.06433164
0.105737604 -0.36426818 -0.19434632 0.0090958765 0.54194283 0.16771592 -0.18724953 0.0048259506
0.023101415 0.12855746 -0.26194844 -0.03986736 -0.39962772 0.1088911 0.60976976 -0.44460312
0.73679274 0.26780844 -0.20498331 -0.28631967 0.3325367 0.5472287 0.44432962 -0.43372577
-0.62657124 -0.18328749 -0.11284233 0.5665818 -0.36189017 0.27595878 -0.11076274 0.60466987
-0.14237721 0.04119986 -0.21107037 0.55567086 -0.61137015 0.3183535 -0.144363 0.5345769
-0.07667266 0.24473955 -0.22457631 0.5756114 0.04610607 -0.0061248303 0.120857224 -0.6210418
-0.39919576 0.4678295 0.19504222 -0.027101958 0.03699959 0.062603936 -0.37739515 0.056863643
-0.034823857 -0.05374222 -0.4266463 -0.1419913 0.33880958 -0.16198881 0.17974718 -0.23073925
-0.5419003 0.0245733 0.5293503 -0.54180884 0.28474432 -0.23442475 -0.2109949 -0.47903696
0.6565517 -0.5666347 -0.13713408 -0.4844683 0.14983569 -0.34193143 0.12786064 -0.03667437
0.0742431 0.16465278 -0.581555 0.061537262 -0.18508768 -0.33209988 0.1279542 -0.17766201
0.22477089 0.18047363 0.6867726 -0.04180414 -0.63584256 -0.5276869 -0.030403089 -0.091956005
-0.26202875 -0.5336075 -0.24353446 -0.5482884 -0.2127708 0.1653301 0.24446842 0.0403117
-0.374167 -0.24846005 0.10766496 0.5196249 0.2387674 0.4509602 -0.3771353 0.29300207
-0.44171152 -0.25044855 -0.38797948 -0.36820868 0.118061386 -0.22808819 0.02765574 -0.085980065
0.4648856 0.40429974 0.078576304 -0.71508753 0.18639602 -0.1031742 -0.47007927 0.07975258
0.4012324 0.61274236 0.4737059 0.030654488 -0.4736323 0.5999888 -0.28253466 0.22376132
-0.43542776 0.23618968 0.36696362 -0.48668018 -0.3784659 -0.49105462 0.6555236 -0.8058727
0.29947737 -0.31381026 -0.5768049 0.1544908 0.57542706 -0.6062969 -0.3802421 -0.015356754
-0.0547947 0.4906031 0.5490085 -0.09578584 -0.6213595 0.19887985 -0.2602859 -0.04377156
-0.49326372 -0.2052052 0.061882265 0.69349843 0.024836184 0.049098484 0.4532406 0.06871835
0.5714713 -0.53445333 -0.07286449 -0.49516842 0.30640042 -0.23091806 -0.46866244 -0.14183576
-0.34680888 -0.32019192 -0.35552895 0.16309948 -0.49898383 0.658521 -0.041400507 0.14172992

model.0.bias f4 [64]
00000000: 60f4 063f c902 edbe 3acc 663e a6c6 b6be
00000010: ae87 4ebd ff7e da3e c3c7 f6be 0ead e9be
00000020: 60a1 a2bc 5b76 ce3d a889 de3d ca1b 913e
00000030: 4b78 f8be 42ec 92be 55d1 e43c 28b9 0cbf
00000040: 33a3 80be 33aa 85be f7c8 6a3e 7238 a6be
00000050: 1186 cebe df0d ddbe bf22 a23e 104f 123f
00000060: 2c9a 5b3e 1ec9 8a3d 274d d0be d71e d23e
00000070: b7ed 1ebf 099d fb3e a345 fa3e b579 12bf
00000080: 5d57 ee3d 1de6 12bd 7658 d43e 2eda 433c
00000090: 2456 113f 44a5 ac3e 6d65 3ebe 8b87 eebe
000000a0: 0a35 923d cbde 163e 2c81 e63e 0771 f9bc
000000b0: bbe4 153e 861f f1be 099d 6e3e 2377 95be
000000c0: 1fc6 853e 8eda 1dbd 2c7f f23c 5fbe febe
000000d0: 98b4 c73e a4c9 343e 49b2 013f c2d3 b9be
000000e0: 606c 473e 51db 62bd 24a2 9ebd 7d40 8e3e
000000f0: 489e 6bbe c0d1 9abe 7de1 d23e 8160 033e
0.52716637 -0.46291187 0.22538844 -0.35698432 -0.050422363 0.42675015 -0.4819928 -0.45639843
-0.01985234 0.10081168 0.108660996 0.28341514 -0.48529276 -0.28695875 0.027931849 -0.54970026
-0.2512451 -0.26106414 0.22928225 -0.3246494 -0.4033666 -0.43174645 0.31667134 0.5715189
0.2144553 0.06776641 -0.40683863 0.41039154 -0.62081474 0.49143246 0.48881254 -0.5721696
0.11637757 -0.035863984 0.4147374 0.011953874 0.56772065 0.33719838 -0.18593378 -0.46587786
0.07139023 0.14733426 0.45020425 -0.030449403 0.14638035 -0.47094363 0.23302092 -0.29192457
0.26127717 -0.038538508 0.029601656 -0.49754617 0.3900497 0.17655045 0.50662667 -0.3629437
0.19474936 -0.055384938 -0.077457696 0.27783576 -0.23009598 -0.30238152 0.4118766 0.12829782

model.2.weight f4 [64, 64]
00000000: c946 593b e9d3 203d c3a5 cbbd babc eb3d
00000010: c030 a93c 2d21 b93c f2df bcbe 4962 013e
00000020: 767c 8a3c 3c1c 9abd edb0 5b3d 682c 1fbe
00000030: 9547 00be 2235 983d c27c 30bd 064e 1a3e
00000040: e9ee 3ebd c1f1 563e 53ba 6c3d 79a0 0a3e
00000050: 0894 193e 483c 173e ce0c e3bc c68a f4bd
00000060: 267e f03d db8a 4cbc a6af bebc 425d 55bd
00000070: f853 5fbe 4f96 02be 3ce4 6e3e 1df4 e4be
00000080: a430 183d 7fc1 143d 1f5d d1bc 5e71 e4bd
00000090: 4c0a 443e 8b9b 93bb e857 c5bd 9c0f a8be
000000a0: 2486 223e 5280 d83c ebf1 863d 7675 f53d
000000b0: 2e35 a0bd d6a9 df3d 913e 70bd e59d 9a3c
000000c0: 35b4 393e 8461 d7bd 3fb5 df3e 1696 1b3d
000000d0: f02c 603d a3a6 82bc c3ee 123b 0056 0c3e
000000e0: 65a7 d7bd 927a 1cbe 6c4c d0bd d9c3 33bd
000000f0: 8116 523d 3412 febb a3de 5dbe 58e7 36bd
00000100: d5f4 c3bd fa05 003e edad 1a3e 5023 febd
00000110: bef4 debd b68c ccbd 362a 0b3e 59ad 593c
00000120: 21f0 1f3e 9389 ec3d b8b2 333d 3bd1 98bd
00000130: e563 1e3e e996 07be 7344 30be 9cc8 9b3d
00000140: d919 e2bd c906 ba3c 8e54 153d 973b 75bd
00000150: 8de9 e3bd 3844 bdbc 8826 55be 581d d8bd
00000160: e915 8cbe db91 113e a87d 243e 6634 e83c
00000170: 8643 fa3d cc3a 533d d401 3abe 01c8 803e
00000180: bcce 81bd 3886 623e e848 71bb 6602 03bd
00000190: fe8d 963d 66c9 f0bc e953 0cbe 7e07 363e
000001a0: 82ed 073e f6ab 193e 0528 db3d 6266 873d
000001b0: 84ab b6bd f9fd 48bd c5e4 58be 5f1c 3f3d
000001c0: 8e9c b23d 8d6e f4bb d1c0 97be 4ad8 243e
000001d0: 363c 9bbe 1ef9 e63c a9f3 1dbe bf1c bb3c
000001e0: b0f3 e83d 6a1f 75be df0b a23d 8f3f 313e
000001f0: b3fd c2bd 44b0 bf3d be7a 703d 5fcd ee3c
00000200: 194f 09bd 1ef6 4fbd 04cd 383d e6a2 423d
00000210: 4de2 c73b fc4b cf3d a4af 26be 8624 913d
00000220: 78eb 683d 6ec8 17bc fcce 90bd e49a 94ba
00000230: c38d b43d 83ab 04be 2273 19be 6a9b 923d
00000240: cfec 92bc 18ac 85bd 8416 5d3d 5e8b a2bc
00000250: 83f9 4d3b ceb5 023c 0ec2 0dbd 049f 84bd
00000260: 0985 c1bd 16d1 1e3d 0e8e b53c 8168 2fbd
00000270: d33a b83d f991 8e3d e809 d7bd 1b8d 5b3c
00000280: 4755 a33d e4b4 71bd 9c7a ab3d b623 f03c
00000290: 9b21 24bd f24e 64bd 376a 643d 45ff 173e
000002a0: b7e6 9c3c 79df 4e3c d280 ba3d 1b55 2dbe
000002b0: b02a 063d e7e9 9a3c 0ecf 42bc 4eb0 113c
000002c0: 2907 49bd 4853 e9bc 256a 653d 8684 0c3e
000002d0: b486 41bd bc46 ebbc 2c7b e5bc 6219 a23d
000002e0: 0a95 743d 89d4 ce3d a8cf f53b bca4 aa3d
000002f0: 5f25 11bd 3c5c 41bd b189 24bd 0be5 903c
00000300: 0053 a6bd 1581 1ebd 3e21 85bd 1a0b 6a3d
00000310: 3524 0bbe 3d0a fdbd f3e3 273e 2b87 463e
00000320: 63de 25be f962 8fbb a182 fbbd 1feb 2d3d
00000330: b67d 0a3e c0c9 e8bd aa03 e13d 89c3 a0bd
00000340: 4498 a53d ac62 9ebd ee17 3bbd 80e6 b93c
00000350: b3ad 103e e7e0 3f3d e33a aa3c a5f5 96bd
00000360: 4169 0cbe 4cd7 053e 6766 b8bd 33a3 d73d
00000370: 69e3 10bb c262 14bd 9a70 233e f214 c53d
00000380: 44c5 03be ade8 e33d 1215 a5bd 60b4 113e
00000390: 64c2 373c 9732 efbd 4167 2ebd d380 49be
000003a0: 6e8e 063e dc5a 023e a4aa ffbd 4a0a 95bc
000003b0: e8b0 84bd d283 91bd 4c36 22be a18f 80bd
000003c0: d4b4 0b3e 6004 d73d fa54 89be 87de da3d
000003d0: be66 06be a10c ccbc e5f7 eebd d6af 393d
000003e0: a15b e6bb 19fc 1fbe 1a71 b3bd 418f 013e
000003f0: 9f06 fb3d 597d 153e ba20 f33d d1c3 72bd
0.0033153764 0.039264593 -0.09943726 0.11510606 0.020653129 0.022598827 -0.36889607 0.12635149
0.01690505 -0.075249165 0.053635526 -0.15544283 -0.12527306 0.07432009 -0.04308773 0.15068826
-0.04661456 0.2099066 0.05779488 0.13537778 0.14997876 0.14769089 -0.027716067 -0.119405314
0.11742811 -0.012484278 -0.023277115 -0.05209089 -0.21809375 -0.1275265 0.23329252 -0.44717494
0.037155762 0.036317345 -0.025557099 -0.111544356 0.19144553 -0.004504626 -0.096359074 -0.3282441
0.15871483 0.026428375 0.06589111 0.119852945 -0.07822643 0.109210655 -0.058653418 0.018874118
0.1813515 -0.105166465 0.43692967 0.03798493 0.054730356 -0.0159486 0.0022420145 0.13704681
-0.10529975 -0.15281132 -0.10170826 -0.043887947 0.051290993 -0.007753635 -0.2166696 -0.04465422
-0.095681824 0.1250228 0.1510541 -0.12409079 -0.108865246 -0.09987776 0.13590321 0.013285958
0.15618946 0.11549678 0.04387161 -0.074617825 0.15467794 -0.13241161 -0.17213611 0.076066226
-0.11040086 0.022708314 0.03645759 -0.059871282 -0.11128531 -0.023103818 -0.2081548 -0.10552472
-0.27360466 0.14215796 0.16063559 0.028345298 0.1221991 0.051569745 -0.1816476 0.2515259
-0.063382596 0.22121513 -0.0036817137 -0.03198471 0.073513016 -0.02939291 -0.13703884 0.17776296
0.13274196 0.15007004 0.107009925 0.06611325 -0.08919433 -0.049070332 -0.21181019 0.046657916
0.08721267 -0.0074594677 -0.29639295 0.16098133 -0.30319375 0.02819496 -0.1542498 0.022840856
0.11374605 -0.23937765 0.079124205 0.17309402 -0.095210455 0.09359792 0.058710806 0.029150663
-0.0335227 -0.050771825 0.045117393 0.047518633 0.006099975 0.10121915 -0.16277939 0.070870444
0.056865185 -0.009264095 -0.07070729 -0.0011337665 0.088161014 -0.12956052 -0.14985326 0.07158549
-0.017935185 -0.06526965 0.05397655 -0.019841846 0.0031429238 0.007977916 -0.034608893 -0.06475642
-0.094492026 0.03877362 0.022162464 -0.042824272 0.08995595 0.06961436 -0.10499936 0.013400341
0.0797525 -0.0590104 0.08372995 0.029313903 -0.04007111 -0.05573935 0.055765357 0.14843471
0.019152982 0.012626522 0.09106602 -0.16926996 0.032755554 0.018910361 -0.011890186 0.008892132
-0.049079094 -0.028482094 0.05600943 0.13722429 -0.047247604 -0.028720252 -0.028012834 0.07914998
0.059712447 0.100991316 0.007501561 0.08332202 -0.03543603 -0.047207102 -0.040170375 0.017687341
-0.081213 -0.03869732 -0.06500481 0.057139494 -0.1358803 -0.123554684 0.1639555 0.193875
-0.16198115 -0.004375812 -0.12280775 0.042460557 0.13524517 -0.11366606 0.10987027 -0.07849795
0.08085683 -0.07733664 -0.045677118 0.022692919 0.14128761 0.046845343 0.020780033 -0.07371072
-0.13712026 0.1307041 -0.09003907 0.10529175 -0.0022108203 -0.036226995 0.15960923 0.096231356
-0.1286822 0.11128364 -0.080606595 0.14228964 0.01121578 -0.11679571 -0.04257894 -0.19678049
0.1314027 0.12729973 -0.12483719 -0.018193383 -0.06479055 -0.07105221 -0.15841025 -0.06277395
0.13643199 0.10498881 -0.26822644 0.10686975 -0.1312513 -0.024908366 -0.11668376 0.045333706
-0.007029966 -0.15623511 -0.08761807 0.12652303 0.12257122 0.14598598 0.118714765 -0.059268776

model.2.bias f4 [64]
00000000: edab b9bc 375f 7fbc f7b9 193e a833 303c
00000010: 8318 0d3d 4d48 1cbe 7e37 c93d 35d2 50bc
00000020: 148e 63bd 5c19 ae3d 483e f33b f464 54bd
00000030: 4b94 02be 6cf3 a0bd 29b3 a73d 01a7 103e
00000040: 477c 6d3d 7ad9 f83d 0158 babc 0df9 c8bd
00000050: eb26 08bc fae9 2f3e 552b bd3c f1a0 2d3c
00000060: b697 c4bd 1a76 3bbd 3b01 d53d 1881 36bd
00000070: 1ccb 9bbb 73ca 4abd c181 193d e60f 13be
00000080: aa81 d43d f1f2 4f3d bf09 ed3d 9fdd 9c3d
00000090: 6a86 0a3d 9f31 f33d 5a5a edbd f8e6 e73d
000000a0: 7703 a9bd 4c05 9abd 81b7 b93b bc35 1f3d
000000b0: c22e 5a3d e60b a53b 2e1d 873d e33f d9bd
000000c0: 7a05 e73d 311b 31bd 203b 05bd 467a 413c
000000d0: cbec 0dbe e56a 913d 649c 2fbd 95ed 2ebd
000000e0: c6f4 ccbd 622e dc3d 72da 80bd 7380 36bd
000000f0: b344 413d d4e2 923d 2f49 c8bd d7df 01bd
-0.022664988 -0.015586666 0.15012346 0.010754503 0.034447204 -0.15261956 0.098250374 -0.01274543
-0.055555418 0.08500931 0.007423196 -0.05185409 -0.12751882 -0.07858929 0.08188469 0.14126207
0.05797985 0.12150855 -0.022747042 -0.09813128 -0.00831006 0.17179099 0.023091951 0.010597453
-0.09599249 -0.045766927 0.10400625 -0.044556707 -0.004754437 -0.049509477 0.03747726 -0.14361534
0.10376294 0.050768796 0.115741245 0.07659458 0.033819593 0.11874699 -0.11589499 0.11323351
-0.08252614 -0.075205415 0.0056676273 0.038869604 0.053267248 0.005036819 0.065973625 -0.106078885
0.112803414 -0.043238822 -0.03252709 0.011808937 -0.1385986 0.07100467 -0.042873755 -0.042707045
-0.10007624 0.10751034 -0.06291665 -0.044556092 0.047184657 0.0717217 -0.09779584 -0.03170761

model.4.weight f4 [64, 64]
00000000: 5357 eb3c cb8a 9e3b 17ff 423d 549a 2bbd
00000010: f3d5 0e3e ba46 1fbd c0e6 3b3e 68b0 03bd
00000020: fb59 dabd c90f 2d3e 3a1d a1bd 8a58 14bd
00000030: 4288 a4bc 3146 1a3c a2d7 e53d 3934 2fbd
00000040: dd5d 25be 3e38 693c 850e 863d dec7 c33d
00000050: 5f68 503d 913a 97bd 0a26 62bd 789f 2ebd
00000060: fc09 a23d 2b3f b6bc 34fe a6bd 61b1 873d
00000070: b9f2 80bd 6e34 3ebe 6fb0 fc3d dd42 ec3b
00000080: 8fe6 e63d 26eb a2be 1698 433d 3db8 85bd
00000090: 0f19 01bd 0595 e5bc 401d c0bb 656e 57bc
000000a0: 96ad 39bb 2cc7 d2bc 773c b43d c5cc 2dbe
000000b0: 377f dc3d 6859 e43c aacc 11bd 9d5b 713d
000000c0: e7eb 18be 59e6 923b 21c8 513d ead9 99bc
000000d0: 11ed 993e 991c b1bc 23d5 53bc 6719 013e
000000e0: 38bf 94bd bdb7 243e 2770 293e f6e7 ea3d
000000f0: 1d6d fdbc c5f4 1abd 0339 c4bd c16d 883b
00000100: f638 03be cbdc 123e e8c3 03be df4d f73d
00000110: f703 423e f8bb 433d 92db 32bc 3d8e bf3d
00000120: 7dba 5c3e 7233 85bd d028 87bd 1d8b ea3d
00000130: 2f26 073d fcb2 0dbe f116 2dbd f28e 303e
00000140: 3299 20be 8c2f 92bd 2f04 fc3d 8034 3bbe
00000150: ff35 14be ad7b ba3d 3089 e1bd e84c 823c
00000160: e4a8 edbc f5af 033e c78c 77bd 71eb 073e
00000170: 5334 27be c22b 41be db06 b13d dac4 05bd
00000180: e886 d8bc 1657 1ebe 4f98 c1bc 3a44 36bd
00000190: ef00 473e b598 033e bab5 87bd 64f2 753e
000001a0: 3958 8d3c b762 c0bc ea73 0bbd 929b 233d
000001b0: 4349 2ebe d838 b33d d9e4 81be b7d1 9d3c
000001c0: 4f10 6a3d 9339 123f 1e03 783d 213b 17be
000001d0: 5850 273e 37cd 423e 640a 18bd 7ac2 073e
000001e0: 3c10 d83d f948 7dbd 544d 83be 4ded 4fbd
000001f0: 42f9 933d 7eb8 cfbd 00d9 6f3d 5e39 4f3d
00000200: dd41 a53c 5d5e 1c3e 1371 e03d 9b45 a0bc
00000210: b0e1 383e c3e0 283d bfc7 2b3e 9997 9c3d
00000220: 364a 4abe 6f0c efbd b042 473e 2643 1cbe
00000230: 9fc0 383d 7f0c 94bc 05f1 593d 2747 27bc
00000240: 2faa ce3d 3342 a0bd 59cc 003e 6761 9bbd
00000250: 2d89 c8bd 7096 12bd 8bbe 6b3d c751 b23c
00000260: 3d07 72be ab33 48bd eba2 ce3d 8a46 84bd
00000270: 3655 a7bd 2eb0 1b3c 9c5b 853e 9f20 5dbd
00000280: 3527 db3d 20a2 aebe a9a8 e13d ac66 d23b
00000290: 6332 fe3c 4e74 aabc a4d1 49be 9077 6abe
000002a0: 2b39 adbd 9c85 d03c 3fff 9e3d aae5 2dbd
000002b0: 31e9 64bc ce2d 823e ff90 613e a380 ae3c
000002c0: 839a 793d 7b65 233e 8e0e 89bc ca8e d4bd
000002d0: 5b54 ed3e 6917 a0bd 4717 d3bc 1586 bb3c
000002e0: 314b bbbb 516b 4d3e dbe6 f03d 24c5 423e
000002f0: 59af 88be b734 a23d 2703 a63c 9bdd 1c3d
00000300: 027d b5bd 7a52 bf3b 95da 95bd 238e 653c
00000310: d863 d03d d169 d93d cbca 3b3e ea3f 313d
00000320: c13c 1a3d f950 183e c189 753d 7d0d 2dbe
00000330: fae3 f23d c03f d2bc 37f8 d8bc abf1 12bd
00000340: 476e abbd 57bc 78bd a43d 103d 9fed 4c3d
00000350: 4920 0ebe c2ba 2dbd 82d8 9a3d a5a6 f73b
00000360: 7fea 513e a1cd 10bc d851 0abe cd69 cabd
00000370: fdfb 0cbe 8159 23be 9798 f23c 220f cf3d
00000380: 43a0 0b3c 3294 89be ab00 b63d 8b89 a13d
00000390: 1847 dc3c 298f ccbd bc1c 1abd 30c1 e43d
000003a0: c6c5 1ebc b6fc eebd fe95 10bd 04b4 d83c
000003b0: a52c 5fbc a65c 9abc 9227 b73d 3a47 9f3d
000003c0: a400 0bbe 6b23 1fbd 7cf3 30bd 199b c4bc
000003d0: 7df8 6f3e 96a6 623c 0112 fdbd 24bd 453d
000003e0: ecbc 593c 6a8e 993d 297a 79bd bcbd f03d
000003f0: eece bcbd ea33 09be f8d2 8b3d 84a9 183e
0.028728163 0.0048383228 0.047606554 -0.041895226 0.13948803 -0.03888581 0.18349743 -0.032150656
-0.10661694 0.16900553 -0.07866903 -0.03621725 -0.020084504 0.009416149 0.11222769 -0.042774413
-0.16149087 0.014234601 0.06545738 0.09559606 0.050880786 -0.073842175 -0.055212058 -0.04263255
0.079120606 -0.022246918 -0.08153954 0.06625629 -0.06296296 -0.18574688 0.123383395 0.007210119
0.11274444 -0.3182003 0.047752462 -0.06529281 -0.03151804 -0.02802516 -0.005862862 -0.013148879
-0.0028332225 -0.025729738 0.08800595 -0.16972645 0.10766452 0.027874663 -0.035595573 0.05892526
-0.1493374 0.004483026 0.05121625 -0.018780667 0.3006368 -0.021620082 -0.012929234 0.12607346
-0.072630346 0.16085716 0.16546689 0.11470024 -0.030935818 -0.037831087 -0.095811866 0.0041634743
-0.12814698 0.14342038 -0.12867701 0.120753996 0.18946825 0.047786683 -0.010916607 0.09353302
0.21555515 -0.06503953 -0.06599581 0.11452315 0.0329954 -0.13837808 -0.042258207 0.1724203
-0.1568344 -0.07137975 0.123054855 -0.18281746 -0.14473723 0.091056205 -0.110124946 0.015905812
-0.029011197 0.12860091 -0.06043699 0.13273408 -0.16328554 -0.18864349 0.08643886 -0.032658435
-0.026431516 -0.15462908 -0.023632197 -0.04449866 0.1943395 0.12851222 -0.066264585 0.24018246
0.017253982 -0.02348457 -0.03404609 0.039943285 -0.17020135 0.087510765 -0.2536991 0.019265039
0.05714446 0.571191 0.060549848 -0.1476865 0.16339242 0.19023596 -0.037119284 0.1325778
0.105499715 -0.06183717 -0.25644934 -0.050763417 0.072252765 -0.10142611 0.058556557 0.05059182
0.020173008 0.15270372 0.10959067 -0.01956444 0.18054843 0.041229974 0.16775416 0.076461025
-0.19754872 -0.116722934 0.19459033 -0.1525999 0.045105573 -0.018072365 0.05320837 -0.010209835
0.10091054 -0.078251265 0.12577952 -0.075869374 -0.09791789 -0.035788 0.057554763 0.02176751
-0.23635574 -0.0488774 0.10089668 -0.06458767 -0.081705496 0.009502454 0.26046455 -0.053986188
0.107008375 -0.34108067 0.110184975 0.006420931 0.031029886 -0.020807412 -0.19708878 -0.22897172
-0.084581695 0.025454335 0.07763528 -0.042455353 -0.013971613 0.2542557 0.22027968 0.021301573
0.06093837 0.1595668 -0.016730573 -0.10378797 0.4635342 -0.07816965 -0.025767935 0.022891084
-0.0057157506 0.20060469 0.11762782 0.19020516 -0.2669628 0.07920211 0.020265175 0.038297277
-0.08861734 0.0058386894 -0.07317082 0.014010939 0.10175294 0.10615886 0.18339078 0.043273844
0.037655596 0.14874639 0.059945825 -0.16899677 0.11859889 -0.025665164 -0.026485546 -0.035875004
-0.08370643 -0.06072649 0.035215035 0.0500313 -0.13879503 -0.042414434 0.07560827 0.0075577074
0.2049961 -0.008838088 -0.13507783 -0.09883461 -0.13768001 -0.15952112 0.029613776 0.10110308
0.008522096 -0.26870877 0.08886846 0.07887562 0.026889369 -0.09988243 -0.03762506 0.1116966
-0.009690708 -0.116692945 -0.035299294 0.026453026 -0.013621484 -0.018843006 0.08943094 0.07777257
-0.13574463 -0.038852137 -0.043200955 -0.023999738 0.23434635 0.0138336625 -0.123569496 0.04827608
0.013289671 0.074978665 -0.060907517 0.11754939 -0.09219156 -0.1339871 0.068273485 0.14908415

model.4.bias f4 [64]
00000000: 73a4 1d3d 831f 94bd 4c92 e7bd b783 22be
00000010: 833c 8a3c be8e 92bd 6841 b43d fa32 1bbe
00000020: dece 1abe 7ca5 85bd e37d 54bd ef3f 36be
00000030: 008d 91bd a250 93bb 7d86 793a e988 d63d
00000040: 5654 983b 33c7 2ebd 6c35 a33c f75c 7d3d
00000050: b97b e2bd b0a5 debc 3bfe 4bbc a201 b53d
00000060: 50a0 debd d7ee 403d d4f7 a5bd c971 45be
00000070: 9c45 b1bc ffba 3f3d 4962 febc b925 c83d
00000080: 830f c53d 92b9 ef3c 7859 6e3c 67d2 e4bd
00000090: 61c3 afbd bb3f fdbd 1963 963d eecb 2dbe
000000a0: 703e 0abe 86ac 97bd a734 cfbd 30b6 1c3e
000000b0: d783 303b 77ea 9abd 086f 483e 5c76 583c
000000c0: 7f50 65bd c521 b13c f616 1a3e 59f0 0dbd
000000d0: 1033 ba3d 31e6 f33d d275 503d ea2b b4bd
000000e0: 0fbf 273e d7b0 c3bd 594b 91be 0565 843d
000000f0: f404 103e ccf6 09bd 14bc 413d 3fb2 cbbc
0.03848691 -0.07232573 -0.11307201 -0.15870558 0.016874557 -0.07156132 0.08801538 -0.15156165
-0.15117976 -0.06525704 -0.051877867 -0.17797826 -0.07106972 -0.004495696 0.00095186365 0.10475332
0.0046487255 -0.04267044 0.019922934 0.061856236 -0.110587545 -0.027178615 -0.01245075 0.08838202
-0.10870421 0.047102775 -0.0810391 -0.19281687 -0.021639638 0.046809193 -0.031052725 0.0977282
0.09622099 0.029263292 0.014547698 -0.111729436 -0.085821874 -0.12365671 0.0734312 -0.16972324
-0.1350038 -0.07405953 -0.101174645 0.15303874 0.0026934051 -0.07564252 0.19573605 0.013211813
-0.05598497 0.021622548 0.15047821 -0.03465304 0.09091771 0.1190914 0.050893612 -0.087974384
0.16381477 -0.09555214 -0.28377798 0.064645804 0.1406439 -0.03368263 0.047298506 -0.024865268

model.6.weight f4 [64, 64]
00000000: 63a9 0e3e 5ba5 853d 4337 013c fd98 1a3e
00000010: b3ec 023e 61f2 37bd 2d1f 49bd 77f9 fa3b
00000020: 3009 2dbc 9ce8 263e a47c c93d 121d 2f3e
00000030: a00e 163d 84f3 6b3d 1689 bc3d ded5 84bd
00000040: 3215 0ebe 90c8 113e 0256 143d 9736 adbd
00000050: cf1d 883d 4c1c 59bc cf38 8bbd 2d76 183e
00000060: f442 15bd e122 ffbd a464 2e3d a20a 103e
00000070: 2128 96bc 490a e7bd fbe7 f93d c66e dc3d
00000080: 0f5f b2bd 81d4 f4bc 5576 12be d031 0f3d
00000090: 807a 163e 899e d6bd 1338 e53d f728 ab3d
000000a0: d63b 073e 8bfe 103e 3a90 dbbd e671 16be
000000b0: 2872 083e 7626 f93d 5c21 e3bd bb79 15be
000000c0: 93f7 a3bd b723 d1bd f17b 1fbe 9452 073e
000000d0: ffed 853c 17c4 13be 2a10 8abd 1846 8bbd
000000e0: b24f 0bbe bf2a 123e b581 293e 6ed5 043d
000000f0: 13d3 20be afad babc afdb 053e 847c 21be
00000100: aa6f 9bbb ebc4 573e e357 92bd fc99 063e
00000110: 1740 543c d655 ecbc c1e1 26be aa57 8cbd
00000120: 8908 853d 1757 9fbd a229 0bbe 776c ec3d
00000130: aff9 523e 32ee dbbd e5fa 3c3d 18b4 903e
00000140: a620 1d3e 8c1c 19be 00ac 27be cb7b fe3d
00000150: ab9a 13bd 3ba5 053e 931d 34be b699 7bbe
00000160: f3d5 043d ab7e bebd 52da d5bd 4cd0 853c
00000170: fda4 383e 376f 5e3c bd4d 25bd b5d1 f3bd
00000180: 52a4 ddbd d700 a5bb 9bb6 d9bc 1a0e 6e3e
00000190: 3837 d5bc c561 133e 8e78 debd b6ab a2bc
000001a0: e6ac bbbd d593 ca3d b9e2 483d 8c88 71bd
000001b0: ad81 9abc b5d7 fcbd 70da bf3c 18e5 a23d
000001c0: fd45 c93d 8eed d1bd 8216 81be 0a31 733d
000001d0: 4fcb 6cbc 71b4 c7bc fd43 49be 3f2d f3bd
000001e0: e2ba aabd 2fd9 0cbd b158 653d 0979 9abc
000001f0: 5bf8 dd3d 2fee 77bc eae7 be3d 1eba 303d
00000200: 5332 5abd 056c 30be 66ec 43bd 2345 193c
00000210: 79d7 453e a1cc 9ebd 6b0d 583e 12d3 f03d
00000220: 671b f13a 92fb d0bd 63d9 0cbd 56f9 bfbc
00000230: 9e79 6abe b7e4 8dba c69b b3bd 42cc 443e
00000240: 6367 de3d a986 1ebe 9db7 4d3d 224a 743e
00000250: 5a3d 7c3d b0be e4be e407 213d 4533 a03d
00000260: 7fa5 78bd d809 603e f073 ccbd 400d 25be
00000270: 3f6d f53d 1fd6 3dba fb16 143d 2dee 5ebd
00000280: 5df1 5d3d bafa 163d 8df5 c83d ae7e 1ebe
00000290: 8427 383c 5899 d03d 6b5e 423e fb5a 9cbd
000002a0: 9970 ebbc 7de3 04bd 893d 71bc d32e a03d
000002b0: adab fa3d 3483 1dbe 767f 2ebe 52a4 45bc
000002c0: a639 373e 26b4 b4bd f298 803d bd65 e2bd
000002d0: 4a23 753c c3e5 99bd 7c5d 9fbc 47aa 05be
000002e0: f9b3 56bb fd16 493e 3564 99bd c1ac 08be
000002f0: 3da3 18be e01c c0bd 7c9f 4d3d d8f3 543e
00000300: 589d 2fbd 3cca 42bd 3b13 debc b735 89bd
00000310: f57c 47be d2a1 41bd b01c 22bc 24e7 393b
00000320: 2a24 1e3d 3a13 44be d00a 083c b9b3 e53c
00000330: ef4c 7d3d 4306 ecbd 3603 96bd 1b72 113e
00000340: 90db 073e 49a1 a9bd 8886 2bbe 2eac d43d
00000350: 87cf 053c 3d75 b63d 847c 7cbc 35b9 a8be
00000360: 24a9 b13d 20fe 99bd d125 773e f709 2b3e
00000370: f3f1 06bd 2010 263e 3941 9c3c a39f 723d
00000380: 9e94 bb3d c027 8f3c 747e 383e 1bee 883d
00000390: d1cc 22be f5b6 e8bd bcb6 8fbd 3f90 96bd
000003a0: 98d8 903d 69ab 95bd ac0f 603e 28ca 48be
000003b0: 4428 63be cc4b 50bb 8102 2fbe fd3a 903b
000003c0: 26ce 253d 1b05 09bd be5d 86bd 0b85 87bd
000003d0: 88c8 75bb aeeb cc3d 78b5 fd3d 87e5 a23d
000003e0: 363e 31bd 239c 0c3d 606c 22bd 5ab1 92bc
000003f0: d406 5ebc 3e49 203d ec4f 19be 495d af3b
0.13931803 0.0652568 0.007886711 0.15097423 0.12785606 -0.044908885 -0.049101997 0.007659133
-0.0105612725 0.16299671 0.098382264 0.17100933 0.03663504 0.05760528 0.092058346 -0.064861044
-0.13875273 0.14236665 0.036214836 -0.08457678 0.066463105 -0.013251375 -0.06797945 0.1488883
-0.036440805 -0.124578245 0.042576447 0.14066556 -0.018329682 -0.112812586 0.1220245 0.10763316
-0.08709537 -0.029886486 -0.14302953 0.034959614 0.14695168 -0.10479457 0.11192336 0.08357423
0.1320642 0.141596 -0.107208684 -0.14691886 0.13324797 0.12165539 -0.11090347 -0.14597218
-0.080062054 -0.1021189 -0.15574624 0.13215095 0.016348837 -0.14430271 -0.06741364 -0.06800479
-0.1360462 0.14274119 0.16553386 0.032430105 -0.15705518 -0.022787897 0.13072084 -0.15770155
-0.004743536 0.21071212 -0.07145669 0.13144678 0.012954733 -0.028849524 -0.16297056 -0.06852658
0.064957686 -0.07780283 -0.135901 0.115441255 0.20603059 -0.107387915 0.04613771 0.282624
0.15344486 -0.14952296 -0.16374207 0.124259554 -0.036036175 0.13051312 -0.17589407 -0.24570355
0.0324306 -0.09301504 -0.10442032 0.016334675 0.18031688 0.01357632 -0.04035734 -0.11905233
-0.10822357 -0.0050355005 -0.02657633 0.23247567 -0.026027307 0.14392765 -0.10862838 -0.019857269
-0.09163837 0.09891478 0.049044345 -0.058968112 -0.018860662 -0.1234583 0.023419589 0.079538524
0.09827802 -0.10250388 -0.25212485 0.05937294 -0.014452769 -0.024378033 -0.19654842 -0.118738644
-0.08336426 -0.03438681 0.055992786 -0.018856542 0.10838386 -0.015132471 0.09321578 0.043146245
-0.05327065 -0.17228706 -0.04783287 0.009354862 0.19320478 -0.077538736 0.21098869 0.117590085
0.0018395007 -0.10204233 -0.034387004 -0.023434322 -0.22897956 -0.0010825609 -0.08769946 0.19218543
0.10859563 -0.15481056 0.050223935 0.23856404 0.061581947 -0.44676733 0.039314166 0.07822279
-0.060704704 0.21878755 -0.09983051 -0.16118336 0.11983728 -0.00072416844 0.03615473 -0.05442636
0.05418526 0.036860205 0.0981246 -0.15478012 0.01123989 0.10185498 0.1898133 -0.07634541
-0.028740214 -0.032443512 -0.014724144 0.07821431 0.12239776 -0.15382081 -0.1704081 -0.012063103
0.17893085 -0.08823423 0.06279172 -0.11054561 0.014962027 -0.07514527 -0.019453757 -0.13053237
-0.003276108 0.19637676 -0.07489816 -0.1334715 -0.1490602 -0.093805075 0.050200924 0.20796144
-0.042874664 -0.047556147 -0.02710878 -0.066996984 -0.19481261 -0.047273465 -0.009894535 0.002836653
0.038608707 -0.1914796 0.008303359 0.0280398 0.061840948 -0.11524632 -0.07324831 0.14203684
0.1326735 -0.08282716 -0.16750538 0.10384403 0.008167154 0.0890908 -0.015410546 -0.32953802
0.08674839 -0.075191736 0.2413552 0.1670302 -0.032945585 0.16217089 0.01907407 0.059234273
0.09159206 0.017475009 0.18016988 0.0668604 -0.15898444 -0.11363021 -0.07017276 -0.073517315
0.07072562 -0.073080845 0.21880978 -0.19608366 -0.22183329 -0.003178346 -0.17090799 0.004401563
0.0404798 -0.033452135 -0.06560849 -0.06617173 -0.003750356 0.1000589 0.12388128 0.07953935
-0.04327222 0.03432859 -0.039654136 -0.017906833 -0.013551433 0.03913235 -0.14971894 0.0053516966

model.6.bias f4 [64]
00000000: c117 90bb 09ac f8bc db6c 233e 0f70 373d
00000010: 831f 5a3d 5c1f b33d 3a1a 043e 19fd 683d
00000020: 9270 a7bd 24db 143d 858e d13d f5a9 163e
00000030: 4c7b a5bd eed2 94be 7d76 0c3e df8b 713d
00000040: 8277 edb7 eac7 15bc a5b7 003e ce76 77bd
00000050: 0ab4 8e3d fed0 f6bd 3f10 063e 62b3 013e
00000060: f00b df3d 2182 da3d e43f eabd a644 c83d
00000070: 18c5 513c d488 26be b705 e13d 329a 85bd
00000080: 2299 f6bd b618 903d 9cfa 213d f7a5 3b3e
00000090: 4d7d 053e 4658 00bb 8854 763c 170d 83bd
000000a0: 757f b4bd 44a5 c33d 5f2c bc3d 2420 d33c
000000b0: 3029 d33c 96d1 89bc 6087 943d 0463 763d
000000c0: edd4 203d 7f0f fcbd 744a 9a3d 8903 97bd
000000d0: 64ca c3bd a552 b9bd 0a3a debd dbe3 6fbd
000000e0: c712 b4bd 3b5c 473d 42d2 b83d d15b aa3d
000000f0: 9f1f 03be 2599 00be 4ae9 00bc ee1e a2bd
-0.004397363 -0.03035547 0.15959494 0.0447846 0.05325271 0.08746216 0.1290063 0.056881998
-0.08175768 0.0363418 0.102322616 0.14713271 -0.08080158 -0.29067177 0.13717075 0.058971282
-2.8308252e-05 -0.0091419015 0.12570055 -0.060416035 0.069679335 -0.12051581 0.13092135 0.12666085
0.10890949 0.10669351 -0.114379674 0.09778719 0.0128033385 -0.16263133 0.10987418 -0.06523551
-0.120409265 0.07035963 0.03954564 0.1832503 0.1303608 -0.0019583865 0.015034802 -0.06398981
-0.08813373 0.09553006 0.091881506 0.025772162 0.025776476 -0.016823571 0.07252383 0.060153022
0.03926556 -0.12307643 0.07533732 -0.07373721 -0.09560087 -0.09048966 -0.10850914 -0.05856691
-0.08792644 0.048671942 0.090244785 0.08318294 -0.12805031 -0.1255842 -0.00786812 -0.079160556

model.8.weight f4 [64, 64]
00000000: fc2d 91bd c9ba a83c 1634 5a3d 9c86 933d
00000010: 66c7 b03c 0c46 103d a9d5 963c 3f88 f7bc
00000020: 366b 413b 60c0 41bd 5c6c 3a3d 8038 41bc
00000030: eb7f 2ebd 203d acbd bb92 d7bd 0d7f 923e
00000040: 5360 dfbd 307b 6abc 56cb 06bd 42ba c3bd
00000050: 4bdb e9bc f987 633d b745 f43c 5c42 e43d
00000060: fbbd 0a3d d3f0 cf3d 7054 89bd 6ed4 6f3d
00000070: 3b46 b03c 3cb0 39bc ae64 223b 5e72 183d
00000080: 7e59 83bd 3469 933d 309c ccbd bf13 f9bd
00000090: 4177 bf3d a6cf a43d 25e9 8e3d c732 173c
000000a0: 9a2d 8dbb 8d0e df3d 8619 1bbc d86b c63c
000000b0: 14da dc39 de7c b2bc b82d 873d 0bdd 21bd
000000c0: 7864 3bbd 5690 563d ffd4 d13d cb71 173d
000000d0: 3bb6 48bd 9da1 963d 450f 443d 87cf 0ebd
000000e0: 103a ecbc 119c d73d 4377 9ebd c89d 1f3d
000000f0: 59fa de3c f7b5 c03b e406 aabd aefa e23d
00000100: 5e86 163e 0a18 04be 2a53 2cbe 176a a6bd
00000110: 0d2a 5d3d 4d36 2a3d ad2a f4bc 82bc b83c
00000120: d5fc 82bd f642 5dbd 1a36 233d 4508 bdbd
00000130: 27f7 4a3d 3fdf 9fbd 0833 193e a1f9 10be
00000140: 8661 cebd 26ae 03bd a1a7 913b fcbd b1bd
00000150: 236c 9cbd 72b7 d03d 4350 503d 3235 46bd
00000160: f92f c73d 6ba4 5abd 02a9 3cbc 7525 74bd
00000170: 8404 2cbc 2e18 c2bd b911 273b f606 aa3d
00000180: 172a 4c3c 8c50 153c cbdc b3bc 6084 01bd
00000190: 2a99 1abd 7629 e4bb 1c7d 2cbe 0e9c a13d
000001a0: 041f 1f3d 4ab6 abbd 5c32 353d e24f 263b
000001b0: 249d e5bc 6afe b5bd 7752 c43d d3d6 82bd
000001c0: c729 12be 8aa5 7a3d 16f8 1fbd caf1 d23d
000001d0: 9006 c8bc 1533 12bd c246 b13d 7806 403d
000001e0: 0256 ff3c 4563 823b 72ee b93d 199d 9a3d
000001f0: 0391 e53c 5f88 6c3d df0d 6e3d fe29 a13d
00000200: 94de 87be 5609 103e 8872 63bc 4bf7 243d
00000210: 8b1f fc3c 4ecf a2bd abad 8fbc 3b71 16be
00000220: 952b 643c ad76 323e e68b 6dbd 033a 83bd
00000230: 7214 b6bc 86e6 c33c 5329 87bd 1071 a93d
00000240: 0ad2 1c3e 55a0 283c 7b5c b03d a93d b53d
00000250: aa93 3b3c 339b 543c 65fe 933c 9c7c 853c
00000260: 6e35 993d 99ea fe3b 2d7b ecbd 375e 063d
00000270: ace1 4e3d 2888 2d3d eb1f 2abc 22a7 943d
00000280: 8616 a33c cd3d dfbd e332 9fbc 9cc6 a33e
00000290: 6e1e 063e 943d 2b3d 1a83 713e bf8c aabd
000002a0: 95a6 9dbd 5dcb ba3d e4e5 87bd ce1b d7bd
000002b0: d2e7 ddbd 6d85 d93a 7e91 6abd 3a5e d0bc
000002c0: 52b8 8b3d ac5f 3dbd 4626 253d 4c5a 333c
000002d0: 4397 64bd a7c4 4c3d f183 bcbd e6f9 c83c
000002e0: 6204 633d cede 0f3d dbed febd 82b6 e0bc
000002f0: 01f2 9dbd ad03 d9bd b54a 3a3d 8831 aebd
00000300: e2d0 253e aebc 09be e731 48bd 4265 fcbd
00000310: e899 a1bd 6a87 a7bc 50bb 2d3e 307a 073e
00000320: cd58 86bd 63f3 093d f22d 22bd ed21 1fbd
00000330: aed0 a33d 35b5 17bd ebc7 bf3d 5966 e4bd
00000340: a528 2ebe 3702 e6bd 7f8c b33d 2914 a4bc
00000350: d48c 313d 8256 e2bd e9c9 0f3e a64b 083e
00000360: 5f64 fe3d 18bd b03d bd18 05be e1be 1a3b
00000370: 5b00 b43d 15d3 bcbd 3c4c 7d3d 5513 dd3d
00000380: 198b 053d 6881 013e d182 1cbe 5ba1 88bd
00000390: 5f9b 0c3e b1f7 c9bd 2093 3dbe c777 91bc
000003a0: 1936 e1bd 86fa cd3d e54d b9bd b233 cabd
000003b0: 249d b63a 8a41 dfbd 74c5 033d b0c7 47bd
000003c0: a0f2 e9bd 674c c3bd c996 ee3d 4443 96bd
000003d0: 364f 96bd 7121 c33d 37d2 bfbd 4864 6cbd
000003e0: ec95 023e 73a1 61bd a291 8e3d 612a dd3a
000003f0: 2a4f b9bd bdcc ea3d b066 8c3d 07f1 fd3d
-0.07088849 0.020596879 0.05327233 0.07203409 0.021579456 0.035223052 0.018412428 -0.030216334
0.0029513366 -0.047302604 0.045513496 -0.011793256 -0.04260246 -0.08410096 -0.105260335 0.28612557
-0.10907044 -0.014311597 -0.03290876 -0.0955701 -0.02854695 0.055549596 0.029818399 0.111454695
0.033872586 0.101533554 -0.06705558 0.058552198 0.021517863 -0.011333521 0.0024779248 0.037218444
-0.06413554 0.071978 -0.09990728 -0.121619694 0.09348918 0.08047418 0.069780625 0.009228415
-0.0043084146 0.10891447 -0.0094665345 0.024221346 0.0004212415 -0.021788057 0.06600517 -0.039517444
-0.04575011 0.052383743 0.10245704 0.036973756 -0.049001914 0.07355044 0.047866125 -0.034865882
-0.02883628 0.10527814 -0.07737591 0.03896883 0.027218984 0.005881067 -0.083020955 0.110829696
0.14699695 -0.12899795 -0.168286 -0.08125704 0.05399518 0.04155569 -0.029805506 0.022550825
-0.0639588 -0.054018937 0.039846517 -0.09230093 0.04955211 -0.07806253 0.14960873 -0.14157726
-0.10077195 -0.032148503 0.0044450318 -0.08678815 -0.07637813 0.101912394 0.050857794 -0.048390575
0.09725947 -0.053379457 -0.011514904 -0.059606034 -0.0104991235 -0.09477268 0.0025492741 0.08302109
0.012461207 0.009113442 -0.021955868 -0.031620383 -0.037743725 -0.0069629503 -0.168446 0.07891093
0.03884794 -0.08384378 0.04423748 0.0025377204 -0.028029032 -0.08886416 0.095860414 -0.06388631
-0.1427375 0.061193027 -0.039054953 0.10300024 -0.024417192 -0.035693247 0.08656074 0.04688117
0.031168941 0.003979119 0.09078683 0.07549495 0.028023249 0.05774724 0.058118697 0.078693375
-0.26537 0.14066061 -0.013882287 0.0402749 0.03077676 -0.079496965 -0.017538866 -0.14691631
0.013926406 0.17428084 -0.057994746 -0.06407549 -0.022226546 0.023913633 -0.06599679 0.08273518
0.15314499 0.010292132 0.08611389 0.08849651 0.01144878 0.0129764555 0.01806564 0.01629477
0.07480894 0.007779431 -0.115469314 0.032804694 0.050508186 0.042366177 -0.010383586 0.072584406
0.019908201 -0.109004594 -0.019433444 0.31987464 0.13097546 0.041806772 0.23585168 -0.083276264
-0.076977886 0.0912082 -0.06635645 -0.1050335 -0.10835232 0.001659555 -0.05726766 -0.025435556
0.06822266 -0.046233818 0.040319704 0.010946821 -0.055808317 0.04999223 -0.09204853 0.024533223
0.0554241 0.035124592 -0.12447711 -0.027430777 -0.07712174 -0.10596404 0.045481402 -0.08505541
0.16192964 -0.13450882 -0.048875716 -0.12324001 -0.078906834 -0.020450313 0.16965985 0.13230205
-0.06559906 0.033679377 -0.039594598 -0.038850714 0.07998787 -0.037038047 0.09364303 -0.11152334
-0.17007692 -0.11230891 0.08767032 -0.020029144 0.043347195 -0.11051656 0.14041866 0.13310108
0.12421488 0.08629817 -0.12997718 0.0023612308 0.0878913 -0.09219948 0.06184028 0.10794703
0.032603357 0.12647021 -0.15284277 -0.06671401 0.13731144 -0.098616965 -0.18513155 -0.01775731
-0.109966464 0.10057549 -0.0904806 -0.09873141 0.001393233 -0.109011725 0.032170728 -0.04877442
-0.1142323 -0.09536057 0.11649854 -0.07337049 -0.07339327 0.09527863 -0.09366267 -0.057712823
0.12752503 -0.05508561 0.06961371 0.0016873592 -0.090483025 0.11464832 0.068555236 0.12399488

model.8.bias f4 [64]
00000000: 082e be3c 2f06 57bd 47d5 9a3d a491 1e3a
00000010: be53 ddbc 2fd8 823d 313d aebd ce4d bc3d
00000020: d8b8 dc3d 4dc4 1c3d 37df 8e3c 6652 36bd
00000030: 3af7 bbbb e522 cabc 1d84 693d ed93 d73c
00000040: ce48 f73c 2d76 123d 3ef4 e5bc aedf 5fbc
00000050: 49aa 36bb 1ec2 b8bc cbea 01be 1077 0b3e
00000060: 9f52 103d 5031 cabc a786 21bb 0d03 45bd
00000070: b7bb b5bd 45ca ee3d dc3e e83d e39c 72bc
00000080: d9ca 533b 6b5f 823d 1df4 493c d3f4 6dbc
00000090: 15e9 c23d 482c f9bd e796 9dbd 7ee7 053d
000000a0: d4c8 c3bd f6ed 033c 80cf 413d 6283 63bc
000000b0: 26f9 ccbd 21f4 3e3d 5b2d 373c 27f5 273e
000000c0: 464e 673d 03e1 e73c 6813 8abc b302 39bd
000000d0: 1089 70bd 0d22 0dbb f85f 59bd b559 083c
000000e0: f2bb 99bd 26e1 c5bc 49a7 89bd 2714 93bb
000000f0: 1644 5bbd f5fe 5ebd 05e5 063e 3fbf ffbc
0.023215309 -0.05249613 0.07560211 0.0006048924 -0.02701747 0.0638889 -0.08507765 0.091945276
0.10777444 0.038273145 0.017440422 -0.044512175 -0.005736259 -0.024674842 0.05701076 0.026315654
0.030186083 0.035757232 -0.028070565 -0.013664169 -0.0027872494 -0.0225535 -0.12687223 0.13619637
0.035235044 -0.024681717 -0.002464691 -0.048098613 -0.088736944 0.116596736 0.113401145 -0.0148079125
0.0032316952 0.06365856 0.012326268 -0.014523703 0.09517113 -0.12166649 -0.07694798 0.03269147
-0.09559789 0.00805234 0.047317028 -0.013886305 -0.10008459 0.04661954 0.011180247 0.16402112
0.05647113 0.028305536 -0.016854957 -0.04516859 -0.058724463 -0.0021535188 -0.05307004 0.008322169
-0.07506551 -0.02415521 -0.0672136 -0.0044884863 -0.05353173 -0.054442365 0.13173302 -0.031219123

model.10.weight f4 [64, 64]
00000000: 6e45 8ebd 868d 3bbd 9f9a 523d 5a03 f03d
00000010: 0397 e9bc b11a 813d c842 a8bc 66a5 a63d
00000020: be0f 813d cced 12bd cffb 563d 0466 403b
00000030: 0b5e 013d 49b3 52bd 7543 26bc e987 d1bc
00000040: 2136 a5bb 969c 933d 6c00 b2bb a2dc d2bc
00000050: f8cc 2d3d 4e24 b2bd 5a40 23bb 440e cf3d
00000060: 1a0a 373d e207 943d 9589 2b3d 0b29 7b3c
00000070: 53e5 51bd b8c0 c13d fdca 5c3d f272 9fbd
00000080: 6d84 443b 2bfe e2ba 6373 21bd 1d66 52bb
00000090: db07 883d 4ccf 8bbd cf80 3bbd e5f0 6b3d
000000a0: 964e 4dbd e7d3 c43c 5059 6b3d 8783 4ebd
000000b0: 7268 7bbd 5b94 033d cda1 1e3d afd5 193d
000000c0: eade e4bb c2e4 7dbd f900 2cbd 6608 94bb
000000d0: 5d84 30bd 97f0 56bc 9ad5 03bd 3cb9 a3bd
000000e0: 14d8 993d a4c9 5abd 79ea 2f3c 6907 d33b
000000f0: 932f af3b 5f0b 72bd 5fca b23d 60d6 a53d
00000100: cb4a ccbd 6303 1dbd 2576 2d3d a2e5 c23b
00000110: 4768 983d 1a0d b93d c7d2 e63d 5060 74bc
00000120: cfd7 623d 6f61 f73c 2d2c babc 1656 9c3c
00000130: 6613 c2bd 5505 1dbd a77e 0f3d bbd0 8abc
00000140: bcbb 04bd cb6d a13d f127 40bc 7aef 0bbe
00000150: 793f 3d3d 4089 febc 879d 1f3d 6470 e1bd
00000160: 4041 df3d 55be 903c e1ef 2d3d 4f13 6dbd
00000170: 7e93 b8bc e08b 833d 4a23 483d c3f6 c23b
00000180: f7a7 9b3d b35d 8a3d b1af 6ebd 2e5a a9bd
00000190: 6a33 083d 2a1a 9a3d b8d6 823d 71ce 643d
000001a0: ab0a c33d 2749 26bd 8ee4 bf3c 0412 afbd
000001b0: 7876 bc3d 0226 2dbd 5f01 73bc 20e3 a23d
000001c0: d01b 173b 5f2c e3bc 2791 7dbd 2fef e43d
000001d0: b535 25bd 760c 49bd 9452 7f3d 5f19 8ebd
000001e0: 7a3f c4bb ef76 8d3d 6f6d df3a 2710 d73c
000001f0: eee1 03bd a10e abbd 0a97 9ebd 24aa 07bd
00000200: 9cc1 c53d f227 22bc 0a2c 8bbc 5f6a 3bbe
00000210: 0229 83bd 35b6 263e 79cf 42be a8c2 04be
00000220: d5e7 b7bc 2b86 143e 3868 07bb b93f c4bd
00000230: bf4b 053e c058 3c3e b579 153d 3e7b 1ebe
00000240: 58c6 b8bd 047e 0e3e 9afe b33c 3409 263e
00000250: 9454 d53d 766f b23d b29e e63d 811d 43bd
00000260: c27c c63c f579 d6bd 8ebd dabd 18bd e6bd
00000270: b593 b23c b317 0b3e 8bcb fcbc f96a 02be
00000280: 9a4d c23d 73ee af3d a84a 25be 812e 26be
00000290: 554e d4bd 5b2e 503d 6267 833d 9110 7c3d
000002a0: 66dc 02be 1a7d afbd d30b 303d 8704 02be
000002b0: a574 fe3b 9005 c83d 4554 353d 7745 15be
000002c0: 0626 913d 6df8 d73b d76f fbbd c26b 8dbc
000002d0: 572f d73d 364d f23d 3def 703c 2244 ee3d
000002e0: 6166 803c aef1 d0ba b1a1 103e d631 27be
000002f0: e9b5 883d 92dc 5e3d c9d0 54bd 2d0b d53d
00000300: 6f83 2cbc 4887 90bd 6dc1 983d 7e64 843d
00000310: d8d0 683d f624 c8bc e740 943d 86fe 48bd
00000320: cbd3 793d 6593 adbd bda8 963d 443f a73d
00000330: 96e1 88bd f87c e7bc 0bc6 a2bd d512 a33d
00000340: fe6e cdbb 62ae b1bd 7a0d a6bd c941 be3c
00000350: ac88 67bd 04df a03d 01c2 9abd 6b1f 023e
00000360: ce8a 823d f955 633d c56f 19bd 2d91 6b3d
00000370: dc89 5f3d 586c 4abd 016c 35bc fa10 ae3d
00000380: 5d37 e3bd 2c89 7fbd 4fcf b53d ecd1 8c3d
00000390: 6508 c63d cae8 b6bd 1500 a5bd 1005 d23d
000003a0: c390 da3a 9aff cb3d b14e 773d 7155 88ba
000003b0: dc49 253e 143f 8dbd 2241 50bc 40e3 6a3d
000003c0: 0ca3 88bd acec 9b3d b765 4ebd 5609 52bd
000003d0: 9356 04bd c840 82bd 3066 9cbd b6f7 27bd
000003e0: 9799 eabc 8a1d d23d b438 96bd 3c13 25bd
000003f0: 0b33 4b3c b386 993c cedc 9c3d 3e59 993d
-0.069468364 -0.045789264 0.05141699 0.11719389 -0.02851439 0.06303919 -0.020539656 0.08137016
0.06301831 -0.035871312 0.052486237 0.002935768 0.031583827 -0.05144051 -0.010147919 -0.025577502
-0.005041853 0.07207601 -0.005432179 -0.025739972 0.0424318 -0.08698331 -0.0024910183 0.10110143
0.044687368 0.07228066 0.041879255 0.01532961 -0.05124409 0.09460586 0.053904522 -0.07785596
0.0029986158 -0.001731818 -0.039416682 -0.0032104321 0.06642123 -0.06826648 -0.04577714 0.05760278
-0.050123774 0.024026824 0.057458222 -0.050418403 -0.061378904 0.032123905 0.038728524 0.0375573
-0.0069845812 -0.06198574 -0.041993115 -0.0045176027 -0.04309498 -0.0131188845 -0.03218613 -0.07994315
0.07511917 -0.053414956 0.010737055 0.0064400923 0.0053462475 -0.059092876 0.087300055 0.080975294
-0.09975203 -0.038333308 0.042349 0.0059477845 0.07441764 0.09035702 0.11270671 -0.014915541
0.055381592 0.030197827 -0.022726143 0.019084018 -0.09476356 -0.038335163 0.035032894 -0.016945234
-0.0324056 0.078822695 -0.011728273 -0.13665572 0.04620311 -0.031071305 0.03896859 -0.11007765
0.10901117 0.017668882 0.042465094 -0.057879742 -0.022531267 0.064231634 0.04886178 0.0059498264
0.07600396 0.06756153 -0.05827302 -0.082691535 0.033252157 0.07524522 0.063886106 0.05586094
0.09523519 -0.040597107 0.023424413 -0.08548358 0.092022836 -0.042272575 -0.01483187 0.07953477
0.002305735 -0.027731119 -0.061906006 0.11178433 -0.040334422 -0.04908415 0.062334612 -0.06938433
-0.0059890123 0.069074504 0.0017046164 0.02625282 -0.032197885 -0.083523996 -0.07743652 -0.033121243
0.09656069 -0.009897219 -0.016988773 -0.18302296 -0.06404306 0.16280444 -0.19024457 -0.1296488
-0.022449413 0.14504306 -0.0020661484 -0.09582467 0.13017176 0.1839323 0.036493022 -0.154767
-0.09022206 0.13915259 0.02197199 0.16214448 0.104165226 0.08712666 0.112607375 -0.04763556
0.024229411 -0.1047248 -0.10680686 -0.112665355 0.021798948 0.1358326 -0.030858776 -0.1273612
0.094874576 0.085904025 -0.1614176 -0.16228677 -0.10366503 0.050825458 0.06416203 0.061539236
-0.12779388 -0.08568783 0.042980026 -0.1269704 0.00776537 0.09766686 0.04426982 -0.1457728
0.070873305 0.006590894 -0.12277191 -0.017263297 0.10507076 0.11831133 0.014705476 0.11634089
0.015673818 -0.0015941167 0.1412418 -0.16327605 0.066753216 0.05440957 -0.051956926 0.10402522
-0.010529383 -0.07057053 0.07458768 0.0646448 0.056839794 -0.024431687 0.07238942 -0.049070857
0.060992997 -0.08475379 0.07356403 0.08166364 -0.06683652 -0.028257832 -0.0794793 0.07962576
-0.006269335 -0.08675839 -0.08108039 0.023224728 -0.056526825 0.07855037 -0.075565346 0.12707298
0.06374131 0.05550191 -0.037460107 0.057511497 0.054574832 -0.04941973 -0.011073113 0.08499332
-0.11094544 -0.062386677 0.088774316 0.06875977 0.0966957 -0.0893112 -0.08056656 0.10254872
0.0016675222 0.099608615 0.06037778 -0.001040144 0.16141456 -0.06896797 -0.012710841 0.05734563
-0.06671724 0.07613501 -0.05038997 -0.051278435 -0.032309126 -0.06360012 -0.07636678 -0.04100772
-0.02863769 0.102595404 -0.07335034 -0.040301546 0.012402306 0.018740987 0.07659303 0.07487725

model.10.bias f4 [64]
00000000: ffb8 bc3d e570 15bc 8a6d 3abd f058 91bd
00000010: 45a4 18bd 5a8d e93d 0212 2cba c606 7abd
00000020: 3ac5 babd d2f4 983d 7d22 833d 9a72 3c3d
00000030: b813 cc3b 684b 803c eef9 793d d464 ecbd
00000040: 8f6d f9bd d901 0b3e 5d1e 96bd 80db 92bd
00000050: e34a f53d e1b3 dcbd a136 c63d ab12 8f3c
00000060: ab19 b43d 2c07 793d 6b2d 003e 8bac 523d
00000070: 3f29 b93d 9e87 a13d ceed fbbc c3a4 823d
00000080: 3e2a 003e 35ec 103c fdbe 093d 5c32 a73c
00000090: f9a8 d63b fa21 f7bd 6bb2 00bd b97d 8f3d
000000a0: 265c 5e3d 17eb 783d f217 ca3d 3b2a b13d
000000b0: d917 483d e9e9 f3bd 96ee bebc 1552 35bd
000000c0: a940 823d d97b 98bc 10e3 ae3d 78e4 8d3c
000000d0: 3fb2 913c 93bb e53d 6851 c5bd 5437 4f3c
000000e0: ab6b 88bd b5e3 04be 1cd6 9e3d 7316 523c
000000f0: 1d70 7fbd 6f0e 98bd 00e9 77bc 5d58 f0bd
0.09214973 -0.009121154 -0.04551462 -0.070970416 -0.037266035 0.11403914 -0.00065639627 -0.061041616
-0.09119649 0.07468571 0.064030625 0.04600773 0.0062279366 0.015660957 0.061029367 -0.11542669
-0.121791 0.13574924 -0.0733001 -0.071707726 0.11977174 -0.10776497 0.096783884 0.017464956
0.08793958 0.060797855 0.12517326 0.05143408 0.0904107 0.07887195 -0.030753043 0.06379082
0.12516114 0.008845379 0.033629406 0.020409755 0.006550905 -0.120670274 -0.031420153 0.070064016
0.0542871 0.060771074 0.098678485 0.08650633 0.048850868 -0.11909849 -0.023307126 -0.044267733
0.06359989 -0.018613743 0.085394025 0.017320856 0.01778519 0.112174176 -0.09634668 0.012647469
-0.06661161 -0.12977488 0.07755682 0.012822735 -0.06236278 -0.07424628 -0.015131235 -0.11735604

model.12.weight f4 [3, 64]
00000000: 6507 c3bd 2524 533d 4b89 f53d 4be3 cebd
00000010: 0ceb f53d 2c2b 5d3d 5e0d c03d 6f35 a13d
00000020: a7e6 043e 7251 cebd df06 aebd 52b1 80bd
00000030: b84a edbd c4d7 e73d e9cf 8e3d 0fbd 2abd
00000040: df99 ac3d 5eca 8fbd 41cf 503c aad9 f4bd
00000050: b4c5 8c3d e419 873d 59f8 883d d3f7 d5bd
00000060: d809 87bd 9b2c 3abc 423f 8fbd 7c43 bbbc
00000070: fe78 d03d 2179 c93d c713 e33d 8de9 9ebd
00000080: 39df ee3d e6e4 acbd 5bc4 b63d 1614 e3bc
00000090: 4552 b4bc edcf 9fbd 8aa6 07be 80e0 f0bd
000000a0: f709 c73d 837c fc3d ed2e a53d 2b67 bbbd
000000b0: dd26 b1bd 814f 80bd f6b1 ecbd 9b1a e1bd
000000c0: 230f e63d 9efc a0bd 83cf 94bd bd71 df3d
000000d0: 5280 36bd 1066 be3d 4fe0 64bd 5141 bcbd
000000e0: 6501 c73d 7c02 173d 68ee 9dbd 4082 ccbd
000000f0: 5ad6 60bd 815c ecbd 62a1 113d 4bd7 c7bd
00000100: ab4b 25bd 8699 9e3d 832a 5fbd a091 853d
00000110: d144 acbd 38aa 9e3d d5fd 2ebd 5ae2 663d
00000120: 92f4 a1bd 179d 383d aae3 7d3d a492 2b3d
00000130: b674 bc3c 6c1b b4bd c71f 913d 0e19 873d
00000140: 95db 8fbc 7ade 9ebd 8cb6 16bd 34c0 86bd
00000150: e45e 4ebd 7011 913d 6386 98bd 7605 cabc
00000160: 918c 1bbd 0556 af3d 8273 c7bd 8272 4a3d
00000170: 6455 79bd ae7f a4bd 16c4 523d 4296 173d
00000180: 0c34 0fbd 8ac6 aabd eb35 ab3c 2f93 863d
00000190: f67b 13bd 732d c2bd ea5b a33d 5473 743d
000001a0: 0737 82bd ce5b 603d 5816 9bbd 697f 7e3d
000001b0: bed1 763c 7c60 ddbd 7332 4ebd 81aa 3abd
000001c0: 300a 70bd b704 7fbd c9af 913d 4b7a 4bbc
000001d0: dbcf b6bd e7ef 8c3d fe0b e5bc 380f ff3c
000001e0: d829 84bd dc71 86bd feaf f8bc bddf 823d
000001f0: 3172 b23d 2391 36bd 6de7 2abd f069 0d3d
00000200: c740 d8bd 6175 9b3d bbea 2ebe 8146 063e
00000210: 160c 0f3c 4484 163d f70f ff3c f988 9f3d
00000220: fc1f b0bd 7572 a3bd a620 06be fe14 15be
00000230: 2753 03be 9eb7 8e3d bdd5 c8bd 8e31 f63d
00000240: e2dc f03d 67a1 8cbd ebb6 db3d 9adb be3d
00000250: 8ec3 dcbd 4827 31bc 1927 eabd 7afa ccbd
00000260: 2e68 c2bc 3cf6 a5bd ebc3 813c 6e96 0ebe
00000270: c332 b53d 0fc6 b5bd 8e9d 08be 9285 d2bd
00000280: 4de6 f3bd 31e1 c23d 48af d2bd ee27 893d
00000290: c47f e93b 53f1 ccbc 7fc8 1f3c b3c7 803d
000002a0: 8335 1b3d a54a a7bd 05a5 b8bd 9b35 a9bd
000002b0: 8da6 853d a742 923a 4d43 343d b2e8 01be
000002c0: 78b2 8c3d ae2f 9b3d 27a7 be3d 30f5 a53d
000002d0: 9df7 b1bd 4dfd c53d 2d75 00be 809e 9dbd
000002e0: 1410 87bd bf39 ba3d c4cc 05be 3cfc 893d
000002f0: 7eb1 f6bd 28e6 c23d ca85 033e 717b febb
-0.09522895 0.051548142 0.11989077 -0.101019464 0.12007722 0.05399625 0.093775496 0.0787152
0.12978612 -0.10074128 -0.08497404 -0.06283821 -0.11586517 0.11320451 0.069732495 -0.041684207
0.08427786 -0.0702102 0.012744726 -0.119555786 0.068736464 0.06596735 0.066879936 -0.10447659
-0.065936744 -0.011363174 -0.06994487 -0.022859327 0.101793274 0.09837557 0.110877566 -0.0775939
0.1166367 -0.084420964 0.089241706 -0.027719539 -0.022011885 -0.078033306 -0.13247123 -0.1176157
0.097186975 0.12328436 0.08065591 -0.09150537 -0.08649991 -0.06265164 -0.11557381 -0.10991403
0.11233356 -0.07860683 -0.07266142 0.10910366 -0.04455597 0.092968106 -0.05587798 -0.091921456
0.09717063 0.036867604 -0.07711488 -0.09985781 -0.05489192 -0.11541081 0.035554297 -0.09757861
-0.040355366 0.07744126 -0.0544839 0.065219164 -0.08411563 0.077473104 -0.04272254 0.05636821
-0.07907976 0.045071688 0.061984695 0.041887894 0.02300487 -0.08794293 0.07086139 0.06596576
-0.01756076 -0.07757278 -0.036795184 -0.065796286 -0.050383464 0.07083404 -0.07447507 -0.024660807
-0.03797585 0.08561329 -0.09738828 0.04942561 -0.06087245 -0.080321655 0.051456533 0.03700853
-0.034961745 -0.083386496 0.020899734 0.06571042 -0.03600689 -0.09481325 0.079765156 0.059680298
-0.06358152 0.05477505 -0.07572621 0.062133227 0.015064655 -0.108094186 -0.05034108 -0.04557276
-0.058603466 -0.062260356 0.071136065 -0.012419294 -0.08926364 0.06881695 -0.02795982 0.031135187
-0.064532936 -0.06564686 -0.030357357 0.06390331 0.087131865 -0.044572007 -0.04172461 0.034524858
-0.1055923 0.075907476 -0.1708173 0.13112833 0.008730909 0.036747232 0.031135542 0.07789797
-0.085998505 -0.07980815 -0.13098392 -0.14558789 -0.12824689 0.06968616 -0.09806392 0.120211706
0.1176088 -0.068667226 0.10728248 0.093192294 -0.107794866 -0.010812588 -0.114332385 -0.10008712
-0.023731317 -0.08103606 0.015840491 -0.13924572 0.08847573 -0.08875667 -0.13341352 -0.10279383
-0.11909161 0.09515608 -0.102873385 0.06697069 0.0071258266 -0.025017416 0.009752392 0.062880896
0.03789283 -0.08168534 -0.0901585 -0.082621776 0.06525908 0.001115878 0.044009496 -0.12686422
0.06869978 0.075774536 0.093092255 0.081034064 -0.086898066 0.09667454 -0.12544699 -0.07696247
-0.065948635 0.090930454 -0.13066393 0.06737563 -0.12045573 0.09516555 0.12844005 -0.00776618

model.12.bias f4 [3]
00000000: a31d 643c 93a6 aabd 36a6 d2bd
0.013923082 -0.08332553 -0.102856085
