pinn_ns/conversion/snnmodel128.pth (torch, 90302 bytes, 14 tensors)

model.0.weight f4 [64, 3]
00000000: e8c5 ff3d df37 2d3f c35f 0abe 5130 893c
00000010: 0912 2dbf f976 8a3e 09fe 293f 01fa b13d
00000020: 428b 3d3e d422 e5be 65eb 80be 401e 63bd
00000030: ab54 163f 7f43 3e3e c9bb 64be 4d89 1d3c
00000040: 0918 fc3c 6dca 513e 56e7 efbe cd1e 99bd
00000050: 201a 4abf 6745 f63d a4dd 4a3f d594 34bf
00000060: 6967 573f d54e a23e 4682 83be 74a7 b0be
00000070: 71e7 c53e 5231 263f 0cd3 023f a20b f9be
00000080: 445f 31bf be08 87be 433f 20be ad72 473f
00000090: 014b 00bf d965 c63e e9e2 99be 492d 313f
000000a0: 3159 26be 1096 0cbd b2c4 79be 11e2 273f
000000b0: ead2 34bf ed07 b43e 3d9f 23be 8784 023f
000000c0: 37b5 b9bd c6ce 943e c04a 8cbe fcbf 263f
000000d0: 452a 503d 6829 9abd ebfb 123e 4d5f 2ebf
000000e0: f632 cebe c9d0 0a3f 6c10 603e ac16 d1bd
000000f0: 3b00 683d eaf3 c43d 398b 13bf 3583 8a3d
00000100: 3200 34bd 8dec debd d02c 0bbf 78ee 29be
00000110: cfdd f73e 07d4 49be c39b 643e d3c5 30be
00000120: 3cb3 2cbf 5935 ff3c d340 303f ac87 17bf
00000130: a25b a83e 0476 80be 2424 7abe eb55 07bf
00000140: 37c5 293f 9df5 1dbf 4f9a 19be aeaf eabe
00000150: 675f 433e 22a5 f2be 9cca bcbc 0c56 47bd
00000160: c61a df3d a2fb 9c3e 5f15 30bf 9ec3 863d
00000170: 9812 a6bd 2232 10bf 1acf 4a3e c661 03bf
00000180: ef55 933e 2226 753e 492c 5a3f 26f7 59bd
00000190: 95ac 42bf b4c9 24bf 3464 febc 9577 ccbd
000001a0: f744 83be 16a4 20bf bfba 9abe a367 25bf
000001b0: e512 b1be bbbe 873e fe6d 113f aa4c 413d
000001c0: 91ac cebe 628b 6dbe 4d24 ed3d a3c0 0c3f
000001d0: 1fc7 6d3e a6d0 023f 6619 d6be b7af 703e
000001e0: a5dd f5be d4b4 91be f3bb d6be 6552 c0be
000001f0: 5843 fd3d b328 68be 0e56 3a3d b532 21be
00000200: 28dc 553f 665c f73e ce4e b63d 858b 53bf
00000210: 25b5 423e 07a1 d7bd 28ee f2be 19ae a63d
00000220: 5048 dc3e e461 1a3f d752 003f 5352 083d
00000230: 02d4 f8be 704c 2b3f b4cd a2be ceef 393e
00000240: fa0d 0abf 106b 8d3e a6a1 fd3e 541d 15bf
00000250: 712b f0be 7c73 17bf 8f91 483f eb00 77bf
00000260: 3637 bb3e eca3 c5be db52 36bf 8092 123d
00000270: 138d 2b3f 7ba5 35bf 78da afbe 004a b2bc
00000280: a541 8bbd fcb7 113f 13de 203f 270b e4bd
00000290: db1b 1bbf 8ddb 723e 817c 9bbe 3f03 cfbd
000002a0: 57fe 0abf 63d2 66be e39e dc3d 8680 433f
000002b0: 8c08 ef3c 5abc 0d3d 7ff0 003f 0dde a53d
000002c0: 5128 223f 8e38 11bf 835d a4bd 93fb ffbe
000002d0: 7aa8 c93e 62e0 90be 4272 1bbf 60fe 47be
000002e0: 4180 f2be 2a41 eebe 69cd c0be 2ca3 313e
000002f0: 49a8 f9be de0b 443f 3485 5bbd 402f 573e
0.124889195 0.6766338 -0.13513093 0.016746672 -0.67605644 0.27043894 0.6640325 0.086902626
0.18510154 -0.44753134 -0.25179592 -0.05544877 0.58722943 0.18580435 -0.2233726 0.009615255
0.03077318 0.20487376 -0.46856183 -0.07476578 -0.78946114 0.12024956 0.79244447 -0.705396
0.84142166 0.3170077 -0.25685328 -0.34502757 0.38653138 0.64919007 0.5110328 -0.48641688
-0.6928599 -0.26373857 -0.15649132 0.77909356 -0.50114447 0.3874958 -0.3005593 0.69209725
-0.16244961 -0.0343228 -0.2439144 0.65579325 -0.7063433 0.35162297 -0.15978713 0.5098347
-0.09067767 0.29064006 -0.2740078 0.65136695 0.05082156 -0.07527429 0.14353912 -0.6811417
-0.40273255 0.5422483 0.21881264 -0.102094024 0.056640845 0.096168354 -0.5763431 0.06763307
-0.0439455 -0.10884962 -0.54365253 -0.16594875 0.48411414 -0.19709788 0.22325043 -0.17262964
-0.6746099 0.031153368 0.68848914 -0.59191394 0.3288241 -0.2509004 -0.24427849 -0.52865475
0.6631655 -0.617029 -0.1500027 -0.45837158 0.19079362 -0.4739161 -0.02304583 -0.048666045
0.108937785 0.3066073 -0.6878261 0.0658028 -0.08109015 -0.56326497 0.19805565 -0.51321065
0.287765 0.23940328 0.85223824 -0.053214215 -0.7604459 -0.64370275 -0.03105364 -0.09983746
-0.25638554 -0.62750375 -0.302206 -0.6461126 -0.34584728 0.26512703 0.5680846 0.047192253
-0.40366033 -0.23197702 0.115791894 0.5498144 0.2322049 0.5109962 -0.41816252 0.2350453
-0.48020664 -0.28458273 -0.4194027 -0.37562862 0.123663604 -0.22671776 0.045492224 -0.15742
0.83539057 0.48312682 0.089017496 -0.82634765 0.19014414 -0.105287604 -0.47447324 0.08138675
0.4302392 0.6030562 0.50126404 0.033281635 -0.4859925 0.6691351 -0.31797564 0.18157884
-0.53927577 0.27620745 0.4953739 -0.58247876 -0.46908143 -0.5916059 0.78347105 -0.96485776
0.3656556 -0.38601625 -0.7122018 0.035784245 0.6701214 -0.7095563 -0.34346366 -0.021763802
-0.0679963 0.5692136 0.6283886 -0.1113494 -0.6058938 0.23716564 -0.30368426 -0.10108041
-0.5429434 -0.22541194 0.10772493 0.76367986 0.02917888 0.034603454 0.5036697 0.080989935
0.6334277 -0.5672692 -0.080256484 -0.49996623 0.3938635 -0.2829619 -0.6072122 -0.1953063
-0.47363475 -0.4653409 -0.37656716 0.17347401 -0.48761204 0.7658061 -0.05359383 0.21014118

model.0.bias f4 [64]
00000000: 60f4 063f c902 edbe 3acc 663e a6c6 b6be
00000010: ae87 4ebd ff7e da3e c3c7 f6be 0ead e9be
00000020: 60a1 a2bc 5b76 ce3d a889 de3d ca1b 913e
00000030: 4b78 f8be 42ec 92be 55d1 e43c 28b9 0cbf
00000040: 33a3 80be 33aa 85be f7c8 6a3e 7238 a6be
00000050: 1186 cebe df0d ddbe bf22 a23e 104f 123f
00000060: 2c9a 5b3e 1ec9 8a3d 274d d0be d71e d23e
00000070: b7ed 1ebf 099d fb3e a345 fa3e b579 12bf
00000080: 5d57 ee3d 1de6 12bd 7658 d43e 2eda 433c
00000090: 2456 113f 44a5 ac3e 6d65 3ebe 8b87 eebe
000000a0: 0a35 923d cbde 163e 2c81 e63e 0771 f9bc
000000b0: bbe4 153e 861f f1be 099d 6e3e 2377 95be
000000c0: 1fc6 853e 8eda 1dbd 2c7f f23c 5fbe febe
000000d0: 98b4 c73e a4c9 343e 49b2 013f c2d3 b9be
000000e0: 606c 473e 51db 62bd 24a2 9ebd 7d40 8e3e
000000f0: 489e 6bbe c0d1 9abe 7de1 d23e 8160 033e
0.52716637 -0.46291187 0.22538844 -0.35698432 -0.050422363 0.42675015 -0.4819928 -0.45639843
-0.01985234 0.10081168 0.108660996 0.28341514 -0.48529276 -0.28695875 0.027931849 -0.54970026
-0.2512451 -0.26106414 0.22928225 -0.3246494 -0.4033666 -0.43174645 0.31667134 0.5715189
0.2144553 0.06776641 -0.40683863 0.41039154 -0.62081474 0.49143246 0.48881254 -0.5721696
0.11637757 -0.035863984 0.4147374 0.011953874 0.56772065 0.33719838 -0.18593378 -0.46587786
0.07139023 0.14733426 0.45020425 -0.030449403 0.14638035 -0.47094363 0.23302092 -0.29192457
0.26127717 -0.038538508 0.029601656 -0.49754617 0.3900497 0.17655045 0.50662667 -0.3629437
0.19474936 -0.055384938 -0.077457696 0.27783576 -0.23009598 -0.30238152 0.4118766 0.12829782

model.2.weight f4 [64, 64]
00000000: 4259 dbbd 1a9e b93d 14ab f33d b48b 023d
00000010: 7ff6 22bd 1650 063e 18bd 923d 3959 90bd
00000020: 77bc a23d a443 39bd 4fcd e93d d09a 86bd
00000030: ec6f 373c a918 e6bd 26ae 583d d960 c3bd
00000040: aa82 2fbe b9ff 533d 27ff a13d 3f0b 0b3d
00000050: 6b83 9b3d 5d30 bb3d 1c38 bf3d 1d45 80bd
00000060: d4e7 523d 8d14 44be 65d3 5cbb 1700 1a3d
00000070: 794f 95bd 958c 56bd 1b0f 49bd 9032 5dbd
00000080: 957f 053e d4eb f2bd f437 913d 6c7c 47be
00000090: 7b01 e23d e47f 133e c62d 21be 7231 843d
000000a0: db9c 673d e5cc 013d 1624 f23d 4d4d 323c
000000b0: 8ce8 643d d16a c93d e07b c7bb d5ae bc3d
000000c0: d88d c33d 3c75 c7bd 1302 373e 9ab8 843d
000000d0: 4382 0a3d 6120 a33d ed73 113e e2c5 e23d
000000e0: 37cc 923c a577 bdbd f349 f43d 445a afbd
000000f0: e471 e93c 2fa8 ebbd aa17 833d 6b07 3a3e
00000100: 8707 8dbd 8765 053e 1c95 05be 66f7 c63d
00000110: 7246 7c3d 398a 37be d6f2 f53d 12dd c0bd
00000120: df80 a2bb fb16 c43d 9dec 5f3d 28b6 06be
00000130: ad41 91bc f5ff e6bd 136f 473d ee93 0f3e
00000140: da43 36bd aca6 d53d 5309 55bd 29c1 0cbd
00000150: 2778 62bd 4b7c ff3c fc9d 433d 7f66 2dbe
00000160: 24b9 a23c f266 803e 38fb 293e 906a 31bd
00000170: ffb9 d43d 3586 4eba ee26 8bbb 4a82 323e
00000180: 9990 f7bd 41ac 563d b7c3 7cbd 4cc3 993d
00000190: f7d9 e23c cbd3 1bbe 477f 98bd 0b35 153e
000001a0: e966 d13c 8dba 1b3c 6255 253d 7506 b23d
000001b0: a35f 68bd 6def 7e3d 24d7 61be 3c8f d93c
000001c0: ddd6 913d fb26 7e3d fd90 16be 27eb 3b3e
000001d0: 1ddd 89bd 2ee7 2ebd 36fb 02bf f19f 673d
000001e0: fbc7 4e3d d937 1ebe e722 d8bc 7001 183c
000001f0: 7835 1fbd 540c 303e 81f3 debb 728e d9bc
00000200: 953f 2fbe 7b0c a2bc 6e3d 3bbd d6d1 da3d
00000210: aaff f73c 1373 243e 455a fbbd ed7c 9b3d
00000220: 0c90 bcbd e180 c9bb c172 b7bd 8c48 25bd
00000230: 9065 0e3d 2e62 91bd da43 05bd 1c3a 963d
00000240: 49b9 eabc f246 653d f3dc b23d 8492 8b3d
00000250: a27d 64ba 47d0 823c e6db 143d 194d a7bd
00000260: 5c57 3abd b8e9 4d3d bcf9 9b3d 5188 60be
00000270: 479b 3e3d b626 a43d b678 f3bd 5ef1 93bd
00000280: 91bb c53d cdb6 01bd d299 313e 7000 2c3b
00000290: b2f4 d73b 3c87 7ebc de43 b93d a1a3 863c
000002a0: 192c 2f3d 3ae3 5abd 5754 553d bf9d 09be
000002b0: 12c9 d23c e516 21bd 38f2 02be 3b1c 983d
000002c0: 8966 c2bc 3f5b 42bd a1e8 e73c e390 c1bc
000002d0: e85d db3c 21ce 9dbc 3f83 e8bd 393c d93d
000002e0: 288a 16bd 8bec bf3d 8f33 b7bc 4bbd 8f3d
000002f0: 4e2c fabc 5f92 7abd 8f7d d7bd a45d 28bd
00000300: 923d afbd 1662 b6bd a278 0cbe ea26 1d3d
00000310: 447c 1cbe d308 22be 51d0 5e3e 0a53 99bb
00000320: fbfa f3bd 45c4 593c 90f1 fabd bc21 98bd
00000330: 1e20 0c3e 573a 19be 36ff 533e ef2d 08be
00000340: 502d ba3d 75cc c2bd 1156 f2bd 6535 ab3c
00000350: 8dd1 3a3e 2241 303d 4309 d5bb f1d8 5cbd
00000360: 2e42 d03d 0eac 803e 50b5 02be 2c95 a43d
00000370: f106 9f3c 2c6c 03bd f84c 613d a4db a93d
00000380: 6329 17be afd9 a83d 3187 b7bd faed 833e
00000390: fec1 39bd c195 1ebe 5fb6 9d3c f50b 07bd
000003a0: b6c5 d03d cc9e af3e df20 27be 26fc 8a3d
000003b0: aa1c d5bd be56 adbd 6e8e 2dbe 7569 87bd
000003c0: 39c3 c13d c857 d03d 3eb9 44be 378c f93d
000003d0: 85c5 74be 415a f7bc 4542 8dbe 173b a33c
000003e0: 26e5 afbc 06a6 72be 5b6e 92be 3aa1 cf3d
000003f0: b5d8 143e 1d3b 463e 5b26 783e cb5c 1ebe
-0.10710384 0.090633586 0.11897865 0.031871513 -0.03978586 0.13116488 0.07164973 -0.07048268
0.07946103 -0.045230523 0.11416113 -0.06572497 0.011196118 -0.11235172 0.052900456 -0.095399566
-0.17139688 0.051757548 0.079099946 0.033946272 0.07593425 0.09140084 0.09336874 -0.06263182
0.05149062 -0.19148465 -0.0033695337 0.037597742 -0.07290549 -0.052380163 -0.04908667 -0.0540033
0.1303695 -0.11861387 0.0709075 -0.19481057 0.110354386 0.14404255 -0.15740117 0.064547434
0.056546073 0.031689543 0.11823289 0.010882688 0.055885836 0.09834827 -0.006087765 0.09213034
0.09548539 -0.097391576 0.17871885 0.064805225 0.033815634 0.0796516 0.14204378 0.110728994
0.017919643 -0.09251336 0.11928167 -0.08562139 0.02849669 -0.11506688 0.06400998 0.18166892
-0.06886201 0.13027011 -0.13045162 0.09715156 0.06159062 -0.17923822 0.12009208 -0.09417166
-0.0049592103 0.09574696 0.05466901 -0.13155425 -0.017731512 -0.11279289 0.048689913 0.14021274
-0.044498302 0.10432181 -0.052010845 -0.0343639 -0.055290367 0.031187197 0.047758088 -0.1693363
0.019863673 0.2507854 0.16599739 -0.043314517 0.103870384 -0.0007878275 -0.004246584 0.17432514
-0.12088127 0.052410368 -0.061710086 0.07507953 0.027691824 -0.15217511 -0.07446151 0.14571016
0.025561767 0.009504926 0.04036463 0.08692638 -0.05673183 0.062240053 -0.22054726 0.026557557
0.0712106 0.062048893 -0.14703746 0.18351422 -0.06731627 -0.04270094 -0.5116457 0.056549016
0.050483685 -0.15450992 -0.02638383 0.0092776865 -0.03886935 0.17192203 -0.0068039303 -0.026557181
-0.17114098 -0.019781342 -0.04571288 0.10684554 0.030273277 0.16059522 -0.12273077 0.07592187
-0.09207162 -0.0061493968 -0.089574344 -0.04035239 0.034764826 -0.070988044 -0.03253541 0.07335302
-0.028652804 0.05597586 0.08733549 0.06815055 -0.00087162305 0.015968455 0.036342524 -0.08169002
-0.04549347 0.05027172 0.076159924 -0.21927 0.046534803 0.08015196 -0.11888258 -0.072237715
0.09654916 -0.031668473 0.17343834 0.0026245378 0.0065904493 -0.015535172 0.09046148 0.016435446
0.042766664 -0.053439356 0.052082386 -0.13439082 0.025730643 -0.039328475 -0.12787712 0.074272595
-0.023730533 -0.0474503 0.028309168 -0.023628658 0.026778176 -0.019263329 -0.11353158 0.1060719
-0.03675285 0.09371289 -0.022363452 0.07018527 -0.030538704 -0.061174747 -0.10521995 -0.041104928
-0.085566655 -0.08905427 -0.13717893 0.03836719 -0.15281779 -0.15823679 0.21759154 -0.0046790885
-0.11913105 0.013291423 -0.12253106 -0.07428309 0.13684127 -0.14963661 0.20702824 -0.13298772
0.09090674 -0.09511653 -0.11832822 0.020899484 0.18244 0.043030865 -0.006501348 -0.05391783
0.10168873 0.25131267 -0.12764478 0.08036265 0.01941249 -0.032085583 0.055005044 0.08293846
-0.14761882 0.08244645 -0.089613326 0.257675 -0.04535102 -0.15486814 0.019252 -0.032970387
0.1019396 0.3430084 -0.16321133 0.06786375 -0.10405858 -0.084638104 -0.16948864 -0.06611911
0.09461064 0.10172993 -0.1921129 0.12184947 -0.23903473 -0.030194404 -0.27589622 0.019925637
-0.021471571 -0.23696145 -0.2859982 0.101381734 0.14535792 0.19358487 0.24233381 -0.15465085

model.2.bias f4 [64]
00000000: edab b9bc 375f 7fbc f7b9 193e a833 303c
00000010: 8318 0d3d 4d48 1cbe 7e37 c93d 35d2 50bc
00000020: 148e 63bd 5c19 ae3d 483e f33b f464 54bd
00000030: 4b94 02be 6cf3 a0bd 29b3 a73d 01a7 103e
00000040: 477c 6d3d 7ad9 f83d 0158 babc 0df9 c8bd
00000050: eb26 08bc fae9 2f3e 552b bd3c f1a0 2d3c
00000060: b697 c4bd 1a76 3bbd 3b01 d53d 1881 36bd
00000070: 1ccb 9bbb 73ca 4abd c181 193d e60f 13be
00000080: aa81 d43d f1f2 4f3d bf09 ed3d 9fdd 9c3d
00000090: 6a86 0a3d 9f31 f33d 5a5a edbd f8e6 e73d
000000a0: 7703 a9bd 4c05 9abd 81b7 b93b bc35 1f3d
000000b0: c22e 5a3d e60b a53b 2e1d 873d e33f d9bd
000000c0: 7a05 e73d 311b 31bd 203b 05bd 467a 413c
000000d0: cbec 0dbe e56a 913d 649c 2fbd 95ed 2ebd
000000e0: c6f4 ccbd 622e dc3d 72da 80bd 7380 36bd
000000f0: b344 413d d4e2 923d 2f49 c8bd d7df 01bd
-0.022664988 -0.015586666 0.15012346 0.010754503 0.034447204 -0.15261956 0.098250374 -0.01274543
-0.055555418 0.08500931 0.007423196 -0.05185409 -0.12751882 -0.07858929 0.08188469 0.14126207
0.05797985 0.12150855 -0.022747042 -0.09813128 -0.00831006 0.17179099 0.023091951 0.010597453
-0.09599249 -0.045766927 0.10400625 -0.044556707 -0.004754437 -0.049509477 0.03747726 -0.14361534
0.10376294 0.050768796 0.115741245 0.07659458 0.033819593 0.11874699 -0.11589499 0.11323351
-0.08252614 -0.075205415 0.0056676273 0.038869604 0.053267248 0.005036819 0.065973625 -0.106078885
0.112803414 -0.043238822 -0.03252709 0.011808937 -0.1385986 0.07100467 -0.042873755 -0.042707045
-0.10007624 0.10751034 -0.06291665 -0.044556092 0.047184657 0.0717217 -0.09779584 -0.03170761

model.4.weight f4 [64, 64]
00000000: 6e22 fa3d 9833 8b3d 1734 c0bd 671e a83b
00000010: 563f b23d 81a9 083d 1b0c 3e3d a0a5 4d3c
00000020: 3df5 733d 365f f43d 4533 493d daef 7f3d
00000030: 7333 15bc 1304 8ebd dbec f23d 0682 c3bd
00000040: ed58 e7bd 869b e7bd 042a f03d 707e bd3d
00000050: d7db 133e cb34 e5bd 837d 6c3d 456d 04be
00000060: 8c72 523d 04e7 353c bf05 d0bd ef32 9b3b
00000070: c2fa d2bc fd21 64bd b8eb c1bd 2719 033e
00000080: d4b6 853d 837f 383d 5741 4d3d 6679 51bd
00000090: 051c 573d 850c 8d3d e779 a33d 7561 cfbd
000000a0: db64 f83c 9fec c63d c4c7 9c3d 87d1 30be
000000b0: 2877 04be fd6f d53d f2c0 7fbd 3a63 c03d
000000c0: b627 11bc 1b9c a4bb aaab 1d3e c82c 0cbe
000000d0: 2758 cc3c eac8 1d3d acc2 70bd 5f71 443d
000000e0: cf94 a03b 936e b0bd 599e 8e3d f01d 953d
000000f0: 3d91 aa3c 709c 2dbd bbda 0b3e 55ed acbd
00000100: 94d5 b8be 449a 513e c1cf 46be 0528 af3e
00000110: 86e7 523e 5b62 a13d ec4d f43d 15fb ca3d
00000120: c9ed 343d 0b4b 36bd bd8c 33be 0e06 633d
00000130: dd3b 503c 8706 edbd d07f d0be 3a57 ef3d
00000140: 63f3 21be d82f 23bd 5c9c f43d 5873 5abe
00000150: 3b2c edbd d20b 513e 8358 81be d3cb 043e
00000160: be4d 4cbd 29c1 2d3e fe42 82bd 984f b0bd
00000170: f60a 01be fd18 8cbe f9c6 043e e020 d0bd
00000180: b5a8 e9bd 2828 5abe c4b5 ad3c 1ffb 3cbd
00000190: 8e46 9e3e 87bf ac3e bd4d cbbd 874e c03d
000001a0: 91c9 413d 9b2e d03c 2895 11bc ccc7 78bc
000001b0: badc 4abd eb5b d1bd f40c 5cbe 3a32 9eb8
000001c0: 1119 f8bc 8174 7b3e 61e6 373d d283 49be
000001d0: 3e0f a23d f9eb f53e f31d c43d 9640 513e
000001e0: 8147 1b3d 98ce 14be 82ad 5fbe 4159 cebc
000001f0: f2a0 8c3d 09af 2ebe 9147 c4bd ebc0 b13d
00000200: 20ff 373c 16d1 963d 80b7 1bbd dee1 123d
00000210: 7e28 bc3d d3f2 033e 878a b2ba c834 c93d
00000220: 4094 0ebe 6b82 11be d1ad 843d acc0 1d3b
00000230: 3060 173e dad8 4ebb 08e0 1f3e ce41 66bc
00000240: e252 773b c875 25be 1831 813d 375e 813d
00000250: 38bc 75bc 8dd6 ecbc fcb6 acbd 6c80 fabd
00000260: a3e4 14bd ad0b cb3c 2ba8 a43d 830d 973d
00000270: 6c24 18bd 7e23 b13d adfa 8dbd 6cf9 a9bd
00000280: 8652 2bbc 16cb 88bd dd09 26be ef92 403d
00000290: e258 8bbd b7c9 c8bd 3fb0 083d f910 f83c
000002a0: 0eb3 273d e5c3 933d 297a 8dbd ac6d 0bbe
000002b0: b3bb 41bd edca 76bd 777a fe3d db69 163e
000002c0: 529a 7a3c defc 183e 47b7 143e f0e4 13be
000002d0: c637 643d 7450 bfbd e333 15bc 42a8 ecbc
000002e0: 9ba3 f2bd 84bd 133e f1e0 ce3d bf51 bb3d
000002f0: 9b94 a2bd 278c da3d 51b1 203e f102 c6bd
00000300: 3016 e9bd 5b34 54bb 836a aabd 45f2 033c
00000310: c66d ba3d b9bf 4e3e 2cb6 863d a676 a83d
00000320: 62de c4bc 61b7 f73d 3b14 3d3d 2d2b cfbd
00000330: ccc6 233e 53d0 1ebd 406f 1ebe b4bf d9bd
00000340: 80f8 31bd 742c 01be e09f 0cbd acce d4bd
00000350: 49fa 5f3d b02f f93d 9fa6 8b3d 7a6a f53d
00000360: b4be 073e 675a 483d 0e67 1abe 872f 1b3c
00000370: eb68 1abd 0bc9 debd 6416 dfbd 83ec 3b3e
00000380: 818d 79bd d521 15be 700e 04bd c192 b6bc
00000390: dce2 21bb a254 a23d 11bf 203d 6a1d 2dbc
000003a0: 190e 21bc 5cd8 16bc 40ed 3b3d 9c85 b8bd
000003b0: 8568 ffbd eb83 f0bd 7da3 843d a10a 9a3d
000003c0: 31ef cabd 25a0 15be 9248 f23d a353 14be
000003d0: 01fd d9bd 50a7 163e 5b5b 26be ac81 113d
000003e0: 8cdf 9fbd 607c 9bbd 3495 d4bd 58de 013d
000003f0: 0711 84bd 1fe5 3abe d1ba e13d 38da 8f3d
0.12213598 0.0679695 -0.09384935 0.0051305774 0.087034866 0.033364777 0.046398263 0.012551695
0.05956005 0.119322225 0.04912116 0.0624846 -0.009106505 -0.06934371 0.11861583 -0.095462844
-0.11296258 -0.113089606 0.11726764 0.09252632 0.14439331 -0.1119171 0.057736885 -0.12932308
0.05137877 0.011102442 -0.10157346 0.0047362964 -0.025754336 -0.055696476 -0.09468788 0.12802564
0.06529012 0.04504348 0.05011114 -0.051141165 0.052516956 0.068871535 0.079822354 -0.1012601
0.03032153 0.09713101 0.0765529 -0.17267428 -0.1293608 0.10421751 -0.062439866 0.09393926
-0.0088595655 -0.005023492 0.15397516 -0.13688958 0.024944378 0.038521685 -0.058779404 0.04795968
0.004900552 -0.0861484 0.06963796 0.07281101 0.020821208 -0.04238552 0.13657658 -0.08443705
-0.36100447 0.20469004 -0.1941519 0.3421022 0.20596132 0.07880088 0.11928925 0.09911171
0.044172082 -0.04450516 -0.17534156 0.055425696 0.012709585 -0.115735106 -0.40722513 0.11686559
-0.15815501 -0.03984055 0.11943886 -0.21333063 -0.11580702 0.20414665 -0.25262842 0.12968378
-0.04987883 0.16968216 -0.06360434 -0.08608931 -0.12601838 -0.27362815 0.12966527 -0.101625204
-0.114091314 -0.21304381 0.021204837 -0.046137925 0.30913204 0.33739874 -0.09926937 0.09389978
0.04731137 0.025412848 -0.008885659 -0.015184354 -0.049526908 -0.1022261 -0.21489316 -7.5433825e-05
-0.03028539 0.24556161 0.04489744 -0.19679192 0.079130635 0.48031595 0.09576025 0.20434794
0.03790999 -0.14531934 -0.21843532 -0.025189044 0.068666354 -0.17058958 -0.09583963 0.08679374
0.01123026 0.07364099 -0.038016796 0.035859935 0.09187411 0.12885599 -0.0013621607 0.0982452
-0.1392374 -0.14209907 0.06478465 0.002407114 0.14782786 -0.003156236 0.15612805 -0.014053775
0.003773861 -0.16158211 0.06308192 0.06316798 -0.014998488 -0.0289109 -0.08433339 -0.12231526
-0.036350857 0.02478584 0.08039888 0.07375624 -0.03714411 0.08649348 -0.06932578 -0.082995266
-0.010456687 -0.066793606 -0.162147 0.047015127 -0.068040624 -0.09804099 0.033371206 0.03028153
0.040942244 0.07215098 -0.06908066 -0.13616055 -0.047298145 -0.06025212 0.12425702 0.14688818
0.015295582 0.14940211 0.1452304 -0.14442801 0.055717252 -0.09341517 -0.009106609 -0.028888825
-0.118476115 0.14427763 0.10101498 0.09146451 -0.079385005 0.10671263 0.15692641 -0.0966853
-0.11381185 -0.003237984 -0.08321097 0.008053367 0.09102969 0.20190324 0.06577715 0.082257554
-0.024031822 0.120955236 0.04616187 -0.10115657 0.15993804 -0.038772892 -0.15472126 -0.106322676
-0.04344988 -0.12614614 -0.034332156 -0.10390982 0.05468205 0.12167299 0.0681889 0.119831994
0.13256341 0.04891434 -0.15078375 0.009471781 -0.037697714 -0.1087819 -0.108929425 0.18351941
-0.060925964 -0.14563687 -0.03224033 -0.022286775 -0.002470187 0.07926299 0.039244715 -0.010566095
-0.009830021 -0.0092068575 0.045880556 -0.09009859 -0.124711074 -0.11743911 0.064764954 0.075215586
-0.099089034 -0.14611872 0.11830248 -0.1448503 -0.1064396 0.14712262 -0.16245787 0.035524055
-0.0780631 -0.07592082 -0.10380021 0.031706184 -0.0644856 -0.18251465 0.110219605 0.07024044

model.4.bias f4 [64]
00000000: 73a4 1d3d 831f 94bd 4c92 e7bd b783 22be
00000010: 833c 8a3c be8e 92bd 6841 b43d fa32 1bbe
00000020: dece 1abe 7ca5 85bd e37d 54bd ef3f 36be
00000030: 008d 91bd a250 93bb 7d86 793a e988 d63d
00000040: 5654 983b 33c7 2ebd 6c35 a33c f75c 7d3d
00000050: b97b e2bd b0a5 debc 3bfe 4bbc a201 b53d
00000060: 50a0 debd d7ee 403d d4f7 a5bd c971 45be
00000070: 9c45 b1bc ffba 3f3d 4962 febc b925 c83d
00000080: 830f c53d 92b9 ef3c 7859 6e3c 67d2 e4bd
00000090: 61c3 afbd bb3f fdbd 1963 963d eecb 2dbe
000000a0: 703e 0abe 86ac 97bd a734 cfbd 30b6 1c3e
000000b0: d783 303b 77ea 9abd 086f 483e 5c76 583c
000000c0: 7f50 65bd c521 b13c f616 1a3e 59f0 0dbd
000000d0: 1033 ba3d 31e6 f33d d275 503d ea2b b4bd
000000e0: 0fbf 273e d7b0 c3bd 594b 91be 0565 843d
000000f0: f404 103e ccf6 09bd 14bc 413d 3fb2 cbbc
0.03848691 -0.07232573 -0.11307201 -0.15870558 0.016874557 -0.07156132 0.08801538 -0.15156165
-0.15117976 -0.06525704 -0.051877867 -0.17797826 -0.07106972 -0.004495696 0.00095186365 0.10475332
0.0046487255 -0.04267044 0.019922934 0.061856236 -0.110587545 -0.027178615 -0.01245075 0.08838202
-0.10870421 0.047102775 -0.0810391 -0.19281687 -0.021639638 0.046809193 -0.031052725 0.0977282
0.09622099 0.029263292 0.014547698 -0.111729436 -0.085821874 -0.12365671 0.0734312 -0.16972324
-0.1350038 -0.07405953 -0.101174645 0.15303874 0.0026934051 -0.07564252 0.19573605 0.013211813
-0.05598497 0.021622548 0.15047821 -0.03465304 0.09091771 0.1190914 0.050893612 -0.087974384
0.16381477 -0.09555214 -0.28377798 0.064645804 0.1406439 -0.03368263 0.047298506 -0.024865268

model.6.weight f4 [64, 64]
00000000: 5f4f ac3d d37b 3e3e 91d3 293d 1e28 813e
00000010: ddb9 a33e 8752 c03c 7097 4ebd 798e a83d
00000020: 8024 a53d c4c0 6e3e 4a05 a23d 8610 543e
00000030: c662 3b3e e599 ef3d 265f 093d 6e0a 63be
00000040: 3fb3 073e 74c9 203e 89c6 1c3e 3595 1fbe
00000050: 352f 373e 3bfa 10be 4983 16be cb6a 023e
00000060: bcac a23d ae21 30be 6d55 c63d 84e0 4b3e
00000070: 2e8d d83d 066c b5bd 42ea 1c3e beeb 2c3e
00000080: 3550 a6bc 50f0 3b3e 5ec9 96bc 8034 8bbc
00000090: ce7d 983e 432c 17be c533 293d 49c2 0f3e
000000a0: 40fd 883e f262 5f3d 2328 14be 0dbc 69be
000000b0: efa7 db3b 5d3b b03d 715c 4bbe f9f6 62be
000000c0: 288a fdbc 7b75 a5bd c70c 8ebe c58b 843e
000000d0: 1ee7 f5bd add0 76be 99f3 20be 771b e93b
000000e0: 70e1 2abe 54da 553e 0385 d03e af3b 323d
000000f0: 01ef 9cbe e1d9 703b 17fd ff3d bbae 13be
00000100: 31d0 793b 7327 eabb 8f53 9b3b 5ec8 053e
00000110: 1380 c83c df36 2dbc a8cc bc39 ac3d 91bd
00000120: 75b4 8f3d 60ff b5bc 03f0 0cbe d364 e63d
00000130: ed21 0a3e 06fc 73be 6d72 593c 135c 033e
00000140: ddc0 143d fb4b b8bd 7514 29be 07dd a33d
00000150: e8ec 9c3d 9521 693e 9a7a a2bd 0380 083e
00000160: 705f 6dbd e4c5 99bd 7082 1dbe e010 843d
00000170: 9850 0e3e 20e5 233d 7280 35bd 9d92 a0bd
00000180: a136 32be 711b 04be 153e 3e3a 3174 7e3e
00000190: 55b4 2abe d287 1a3e 6277 87bb e2aa 223d
000001a0: 950b f2bd 8428 713d 8b8c 263e 9ded 2cbe
000001b0: f45a f33d def3 42bd dcd9 e4bd 3dbb ad3c
000001c0: 80b8 a33c ce6b df3c e74a 56bd 7a55 d4bc
000001d0: 1b45 f5bd e404 b13d 0cc7 55be cc38 4ebd
000001e0: cbd6 c0bd 423c 9c3d b8ee 8e3d c89e 5cbe
000001f0: 8dda 863d 7381 d93d 1b7d 1e3d 598a 493e
00000200: c3f9 d1bd ac90 59be 0dc5 d2bd 4a11 32be
00000210: a409 dd3d 59b4 99be 3e4e 133e 7e65 0f3e
00000220: 6d12 c3bd 7ef4 0c3d 475a da3d abf5 bfbd
00000230: 2e4c 91be 3fe6 153d ff47 89bd dbcd 2c3e
00000240: b883 6b3d ed44 44be 8781 673d 1d7c 923e
00000250: 3506 e3bd 0c1b 86be 2f78 4c3d 87e2 553e
00000260: 0d4a bc3d a534 483e da26 36be 119b 34be
00000270: 732f 8fbe 5d92 283d 9c9c bdbd 86ab 2dbd
00000280: 38f6 b63d 3748 fe3d b360 a23b 6e6c ccbd
00000290: 09bf bb3d 910f 00bc dc3e e03d 8e40 d2bd
000002a0: 0e20 11ba 34b0 863d bef0 a63d 1290 153e
000002b0: f036 163e 550e fabd bf9f 19bc 2546 1cbb
000002c0: eb02 e43c b284 fbbc 1aeb cf3d ac27 20be
000002d0: 2f00 933e b220 9d3d 510a 913d ec21 223e
000002e0: 5328 17bd 2b05 c6bd 30f2 4bbc 9453 0c3d
000002f0: 415f 38be c7e5 b43d 1a19 1dbd 7c24 16be
00000300: 551a 8ebc 40c1 efbc 36df 8e3d 4ae6 18be
00000310: 9a1f aebe d37c dfbd 4081 c63d d9e4 953c
00000320: 72de 063c 4a91 03be 848f 503d 7618 12be
00000330: 3e76 8c3e 8273 8abe dc64 29be 9595 283e
00000340: deef 503d 96f1 42be a6e4 bebd 3dcc 4d3e
00000350: 910a 8bbd 9b51 973e 60c1 2a3d b463 12bc
00000360: 3a4d 00bd fbfb a0bd 7867 4f3c b63c 8b3c
00000370: d275 a63d fc19 763e 5eac a63d 40a9 07bc
00000380: 4ce3 1b3e 5a1b 9d3d 5a39 bb3d 8653 7e3d
00000390: 60f3 61be 8054 a43d 7d20 aabd fdd5 29bb
000003a0: c309 8cbd 98bc c2bd 3bcc fe3e 6be2 37be
000003b0: 7b86 5dbe 19ee 053e a089 60be ca13 093b
000003c0: 9c1d 35be dbd9 0f3e e8f3 02be 0d85 28be
000003d0: eab5 1fbd 5fa5 6ebd 8f67 293e ba7c 7bbd
000003e0: de3b d93c e794 533d 767b 91bd 8c3e dbbd
000003f0: cdd3 973c 6dc9 103e 515f 4ebd 6377 0e3e
0.08413576 0.18601923 0.04146153 0.2522592 0.3197774 0.023476852 -0.05043739 0.082302995
0.080636024 0.23315722 0.07911165 0.20709428 0.18299398 0.11699275 0.033538006 -0.22171947
0.1325197 0.15701848 0.1531011 -0.15584262 0.17889102 -0.14157955 -0.14698519 0.12736051
0.07943103 -0.17200348 0.096842624 0.19909865 0.10573803 -0.088584945 0.15323737 0.16886804
-0.020301918 0.1835339 -0.018406566 -0.016992807 0.2978348 -0.14762978 0.041309137 0.14038958
0.26755714 0.05453772 -0.14468436 -0.22825642 0.006703369 0.08605073 -0.19859482 -0.22164525
-0.030949667 -0.08079048 -0.27744123 0.25887886 -0.12006973 -0.24103041 -0.15717925 0.00711387
-0.1668756 0.20884067 0.4072648 0.04351395 -0.30651096 0.003675096 0.12499445 -0.14422123
0.0038118477 -0.007145816 0.0047401856 0.13064715 0.024475133 -0.010572164 0.00036010635 -0.07091841
0.07016841 -0.022216499 -0.13763432 0.112496994 0.13489504 -0.23826608 0.01327191 0.12828092
0.03631674 -0.08998867 -0.1651171 0.08001142 0.07662374 0.22766717 -0.07933541 0.13330083
-0.057952344 -0.07508448 -0.15381789 0.06448531 0.13897932 0.040013433 -0.044311948 -0.07840464
-0.17403652 -0.12901093 0.0007257176 0.24849011 -0.16670354 0.15090874 -0.0041341046 0.039713748
-0.11818615 0.05887653 0.1626455 -0.16887517 0.11882582 -0.04759585 -0.11174366 0.021207446
0.019985437 0.027273085 -0.052317526 -0.025919665 -0.119760714 0.08643511 -0.20876712 -0.050347134
-0.094159685 0.07628681 0.06979126 -0.21544945 0.06584654 0.106203936 0.03869353 0.19681682
-0.102527164 -0.21246594 -0.10291491 -0.17389408 0.107928544 -0.30020407 0.14385316 0.1400356
-0.09524999 0.034412853 0.1066175 -0.09373029 -0.28378433 0.036596533 -0.06703185 0.16875403
0.057498664 -0.19166918 0.05652001 0.28610316 -0.11085168 -0.2619251 0.049919304 0.20887195
0.091938116 0.19551332 -0.17788258 -0.17637278 -0.27965888 0.041155208 -0.092583865 -0.042399906
0.08933681 0.12416118 0.004955375 -0.09981619 0.091672964 -0.007816211 0.109494895 -0.10266219
-0.00055360876 0.06576577 0.08151387 0.1460574 0.14669394 -0.12209765 -0.009376465 -0.002384552
0.027833423 -0.030702922 0.10152264 -0.15640134 0.28711078 0.07672252 0.07082046 0.15833253
-0.03690369 -0.096689545 -0.012447879 0.034259394 -0.18005086 0.08832889 -0.038354017 -0.14662355
-0.01734654 -0.029266953 0.06976168 -0.14931598 -0.34008485 -0.1091248 0.09692621 0.0182976
0.008231746 -0.12848392 0.050918117 -0.14267144 0.27433962 -0.2704125 -0.16542381 0.16463311
0.051010005 -0.1903747 -0.09320955 0.20097442 -0.06789125 0.29554448 0.041688323 -0.008934904
-0.03132365 -0.078605615 0.012658946 0.016996723 0.08127941 0.2403335 0.08138345 -0.008280098
0.15223426 0.076712325 0.09141798 0.062091373 -0.22065496 0.080239296 -0.08306978 -0.00259149
-0.068377994 -0.09508628 0.4976519 -0.17957465 -0.21633331 0.13079108 -0.219275 0.0020916336
-0.17687076 0.14047949 -0.12788355 -0.16457005 -0.038991846 -0.05826318 0.1654341 -0.061398245
0.026517805 0.051655676 -0.071036264 -0.10705289 0.018533612 0.14139338 -0.05038387 0.1391273

model.6.bias f4 [64]
00000000: c117 90bb 09ac f8bc db6c 233e 0f70 373d
00000010: 831f 5a3d 5c1f b33d 3a1a 043e 19fd 683d
00000020: 9270 a7bd 24db 143d 858e d13d f5a9 163e
00000030: 4c7b a5bd eed2 94be 7d76 0c3e df8b 713d
00000040: 8277 edb7 eac7 15bc a5b7 003e ce76 77bd
00000050: 0ab4 8e3d fed0 f6bd 3f10 063e 62b3 013e
00000060: f00b df3d 2182 da3d e43f eabd a644 c83d
00000070: 18c5 513c d488 26be b705 e13d 329a 85bd
00000080: 2299 f6bd b618 903d 9cfa 213d f7a5 3b3e
00000090: 4d7d 053e 4658 00bb 8854 763c 170d 83bd
000000a0: 757f b4bd 44a5 c33d 5f2c bc3d 2420 d33c
000000b0: 3029 d33c 96d1 89bc 6087 943d 0463 763d
000000c0: edd4 203d 7f0f fcbd 744a 9a3d 8903 97bd
000000d0: 64ca c3bd a552 b9bd 0a3a debd dbe3 6fbd
000000e0: c712 b4bd 3b5c 473d 42d2 b83d d15b aa3d
000000f0: 9f1f 03be 2599 00be 4ae9 00bc ee1e a2bd
-0.004397363 -0.03035547 0.15959494 0.0447846 0.05325271 0.08746216 0.1290063 0.056881998
-0.08175768 0.0363418 0.102322616 0.14713271 -0.08080158 -0.29067177 0.13717075 0.058971282
-2.8308252e-05 -0.0091419015 0.12570055 -0.060416035 0.069679335 -0.12051581 0.13092135 0.12666085
0.10890949 0.10669351 -0.114379674 0.09778719 0.0128033385 -0.16263133 0.10987418 -0.06523551
-0.120409265 0.07035963 0.03954564 0.1832503 0.1303608 -0.0019583865 0.015034802 -0.06398981
-0.08813373 0.09553006 0.091881506 0.025772162 0.025776476 -0.016823571 0.07252383 0.060153022
0.03926556 -0.12307643 0.07533732 -0.07373721 -0.09560087 -0.09048966 -0.10850914 -0.05856691
-0.08792644 0.048671942 0.090244785 0.08318294 -0.12805031 -0.1255842 -0.00786812 -0.079160556

model.8.weight f4 [64, 64]
00000000: c209 afbd 1c69 2c3e cf0c 96bd e108 f73c
00000010: 3e0d c63c d7e1 cfbd d9e1 bb3d cc4a b8bd
00000020: c17b 9ebd e3eb c43d 006a 9fbd cdca c4bd
00000030: d9d8 b6bc 07a5 16be 03ae f23b 5b3b 72bd
00000040: b143 f3bd 37ef e93b b589 07bc 1aa1 2bbe
00000050: 5c45 55bd fbd2 f53c f491 653d 4b4b 313e
00000060: e076 db3c 4abc ec3d b8f6 24be 1c08 b83d
00000070: 65a2 1d3d 271d cf3b b85f 0d3d 6776 303c
00000080: 6c27 87bd 4ab8 853d 8d30 923b b55e 54bd
00000090: 3fdf df3d 04f5 24bc ea17 eebd 9868 373d
000000a0: 726c 1f3d a2e2 30bc 1985 8f3d d416 9fbb
000000b0: 7db4 563c a0de cfbd a42d 463d 3da5 4dbd
000000c0: 7094 11be e5a3 a63a e3f1 933c 3d6d 673c
000000d0: ac7d a0bd fbf7 b43d 8c55 e13c f9ef 38be
000000e0: 0e97 793c a5d3 473e 308a 2dbc 6040 3abc
000000f0: c465 21bd b28e c9bd 25a5 23bd 2355 383e
00000100: e744 223e 784a afbd ced4 43be 89f1 3abd
00000110: 2937 543d f59d 5c3d a998 a2bd 052e 75bd
00000120: ea72 29bd 6fdd 9c3c 655b 983d 500b 1fbe
00000130: eb8b f3bb ce05 1bbd 1f7e 0b3c b3e8 9abd
00000140: 7f8e e6bd 69d4 11bd 9f9a e5bc 7d51 08be
00000150: ee37 c6bd 60fc a73d f357 643d facb 31bd
00000160: 31c0 8d3d debd 51bd defb 3d3d 0b37 b7bd
00000170: f867 5a3c 7a71 03be 0dc7 38bd 4000 6c3d
00000180: d8ce 1c3d f9b4 0c3d 947e 8d3b 8d31 a03c
00000190: 0c6b 26bd e10c 00bd 38d6 0bbe b4bd 403d
000001a0: 780b 143d d424 19bb 6020 93bc 978b 42bd
000001b0: 905b 94bd 52a5 ccbd b8f1 413d 67d7 d1bd
000001c0: 1423 00be 68ed 3b3d 7473 82bd fd36 053e
000001d0: bbc3 033c 8d72 ed3b b682 683d c8f6 c23c
000001e0: 6d6d 2cbd 56e6 ee3c 08b0 093e 937a 913d
000001f0: e152 0c3c 04b9 cc3c 3daf a13d e38f 123e
00000200: 6134 11be 4de6 963a e70b 2c3d a3f0 953d
00000210: 1c5f 0f3d 43cd d8bd 2f77 e63a 9ab0 a4bd
00000220: 1fb7 293e f04a f93d c1f3 0cbe a9c8 03be
00000230: 6521 b9b8 cd6e e2bd a725 ce3d 1867 d8bb
00000240: eb91 863d 627d 213e 4c90 9c3c a2db 193d
00000250: 227d cd3d 9489 8fba 836f fbbd 7bb1 9d3c
00000260: e005 053e 0df6 983b ce1c 9c3b 3295 ef3d
00000270: 7f8e 983d 0e91 b6bc 5ecf 873d fe1c 603d
00000280: c603 74bd 34bf f7bd 7338 a5bc 9a14 1f3e
00000290: 0e58 d83c 2f12 413c b30e df3d bc3a d2bd
000002a0: 8d3c afbd ab97 0c3e 7742 cebc 53e7 c9bd
000002b0: 4dff edbc 3de2 43bc 7d67 7fbd a6d1 a63d
000002c0: c448 ce3d 48ea ef3d 1b45 e53d 9a37 5fbd
000002d0: 5a00 01bd 10f6 2b3d 118a eebd 1f09 483d
000002e0: 6dcc da3d 52f8 f83a a156 dfbd 49aa eabc
000002f0: 0e76 fabd 462a 03bd 7dcf d2bc 6e04 bdbd
00000300: 302a 82bc f608 14be b3fc 20bd ef01 a8bd
00000310: 622c 50bd 8408 3bbe ea84 4a3e e857 833e
00000320: e7aa 58bd 729e cd3d 69fe ab3d 3faa 8f3d
00000330: c113 43bc 51c3 b83d d322 d4bc 51b8 b6bc
00000340: 4fbb 84be bf36 90bd b15c 463e a359 93bd
00000350: 3ae5 cbbd d983 40be c1ae 6a3e 00bc 1d3e
00000360: fa8b 723c a3b1 423d 6d68 05bd ade5 3bbd
00000370: b7f6 f23d a59e 51be 9674 9bbd 63b0 1f3c
00000380: b41d 163d bd8c 1a3e 7e06 b4bd 500f 03be
00000390: 2889 1a3e b5c9 38be e56a c6be d00e 39be
000003a0: 83f1 33bd af4e 38bd d09b 0fbe 1b26 23be
000003b0: 19e1 113e 6790 60be 8935 753c 2403 8abc
000003c0: 3dab 88bd 9aae e93c 1d68 6d3e 5661 3abe
000003d0: 8527 dc3d c78c 293e d8b9 b1bd 4f6e 923d
000003e0: 8af4 643d 5258 653d 92f2 733d 9042 973c
000003f0: 982b 9cbd 18e0 ed3d 6a49 913d b56b 203e
-0.08546783 0.16836971 -0.07326662 0.030155601 0.024176236 -0.101504974 0.091739364 -0.08998641
-0.07738448 0.09615304 -0.0778389 -0.09608994 -0.022320198 -0.1471139 0.0074059977 -0.059138637
-0.118781455 0.0071391123 -0.008272578 -0.16760674 -0.0520681 0.03000783 0.056047395 0.17313878
0.026790082 0.11559351 -0.1610974 0.08985922 0.03848495 0.006320614 0.034515113 0.010770417
-0.06599316 0.06529291 0.004461354 -0.051848132 0.10931253 -0.010068182 -0.11625655 0.044777483
0.03892178 -0.010796221 0.07007808 -0.0048550162 0.013104555 -0.10149884 0.04838337 -0.05020641
-0.1421678 0.0012713639 0.018059677 0.0141251655 -0.0783647 0.08836361 0.027506612 -0.18060292
0.015233768 0.1951433 -0.0105920285 -0.011367887 -0.039403692 -0.0984167 -0.039952416 0.18001227
0.15846597 -0.08559126 -0.19124147 -0.045640502 0.051810417 0.053861577 -0.07939274 -0.05985834
-0.041369356 0.019148557 0.07439307 -0.15531659 -0.007432451 -0.037847333 0.008513956 -0.07563915
-0.11257648 -0.03560296 -0.02802783 -0.13312335 -0.096786365 0.082024336 0.055747937 -0.043407418
0.06921423 -0.051206462 0.046382777 -0.089460455 0.013330452 -0.12836257 -0.045111705 0.057617426
0.0382832 0.034352276 0.004318068 0.019554878 -0.04062943 -0.031262282 -0.13655937 0.047055915
0.03614375 -0.0023367899 -0.017959774 -0.047496404 -0.07244027 -0.0999247 0.04734966 -0.10246163
-0.12513381 0.045880705 -0.06369677 0.13009258 0.008042271 0.0072463215 0.05676528 0.023799315
-0.042096544 0.029162567 0.13446057 0.07103457 0.008564682 0.024990566 0.07894752 0.14312701
-0.14180137 0.0011512727 0.04200354 0.073212884 0.035002813 -0.105860256 0.0017583127 -0.080414966
0.16573761 0.12172496 -0.1376486 -0.12869515 -8.827708e-05 -0.1105629 0.10065775 -0.0066040866
0.065708004 0.15770486 0.019111775 0.037562974 0.10033633 -0.0010951036 -0.122771285 0.019249668
0.12990522 0.0046680034 0.004764176 0.116983786 0.07449054 -0.022285964 0.06631349 0.05471515
-0.05957391 -0.12097016 -0.020168519 0.15535203 0.026409175 0.01178412 0.108914755 -0.10265109
-0.08556471 0.13729732 -0.025178177 -0.09858575 -0.029052401 -0.011955795 -0.062354553 0.08145456
0.10072473 0.117146075 0.111948214 -0.054496385 -0.031494476 0.04198271 -0.11647428 0.048836824
0.106835224 0.0018994904 -0.10905195 -0.028645651 -0.122295484 -0.032022737 -0.025733704 -0.092293605
-0.015889257 -0.14456543 -0.039303493 -0.08203494 -0.050823577 -0.18264967 0.19777265 0.25653005
-0.05289736 0.10039987 0.08398134 0.07014894 -0.011906565 0.09021629 -0.025895512 -0.022304686
-0.25924155 -0.07041692 0.19371296 -0.07194831 -0.09955831 -0.18800296 0.22918226 0.15403748
0.014803881 0.04753269 -0.03257029 -0.045873333 0.11863463 -0.20470674 -0.075905964 0.009746644
0.03664942 0.1509275 -0.08790301 -0.1279881 0.15091383 -0.18045695 -0.3875343 -0.18072057
-0.043931495 -0.044996914 -0.14024282 -0.15932505 0.14246024 -0.21930085 0.014966377 -0.0168472
-0.06673286 0.02852564 0.23184247 -0.18201193 0.10749725 0.16557609 -0.08678025 0.07149946
0.055897273 0.055992432 0.059557505 0.018464357 -0.07625502 0.11615008 0.07094081 0.15666087

model.8.bias f4 [64]
00000000: 082e be3c 2f06 57bd 47d5 9a3d a491 1e3a
00000010: be53 ddbc 2fd8 823d 313d aebd ce4d bc3d
00000020: d8b8 dc3d 4dc4 1c3d 37df 8e3c 6652 36bd
00000030: 3af7 bbbb e522 cabc 1d84 693d ed93 d73c
00000040: ce48 f73c 2d76 123d 3ef4 e5bc aedf 5fbc
00000050: 49aa 36bb 1ec2 b8bc cbea 01be 1077 0b3e
00000060: 9f52 103d 5031 cabc a786 21bb 0d03 45bd
00000070: b7bb b5bd 45ca ee3d dc3e e83d e39c 72bc
00000080: d9ca 533b 6b5f 823d 1df4 493c d3f4 6dbc
00000090: 15e9 c23d 482c f9bd e796 9dbd 7ee7 053d
000000a0: d4c8 c3bd f6ed 033c 80cf 413d 6283 63bc
000000b0: 26f9 ccbd 21f4 3e3d 5b2d 373c 27f5 273e
000000c0: 464e 673d 03e1 e73c 6813 8abc b302 39bd
000000d0: 1089 70bd 0d22 0dbb f85f 59bd b559 083c
000000e0: f2bb 99bd 26e1 c5bc 49a7 89bd 2714 93bb
000000f0: 1644 5bbd f5fe 5ebd 05e5 063e 3fbf ffbc
0.023215309 -0.05249613 0.07560211 0.0006048924 -0.02701747 0.0638889 -0.08507765 0.091945276
0.10777444 0.038273145 0.017440422 -0.044512175 -0.005736259 -0.024674842 0.05701076 0.026315654
0.030186083 0.035757232 -0.028070565 -0.013664169 -0.0027872494 -0.0225535 -0.12687223 0.13619637
0.035235044 -0.024681717 -0.002464691 -0.048098613 -0.088736944 0.116596736 0.113401145 -0.0148079125
0.0032316952 0.06365856 0.012326268 -0.014523703 0.09517113 -0.12166649 -0.07694798 0.03269147
-0.09559789 0.00805234 0.047317028 -0.013886305 -0.10008459 0.04661954 0.011180247 0.16402112
0.05647113 0.028305536 -0.016854957 -0.04516859 -0.058724463 -0.0021535188 -0.05307004 0.008322169
-0.07506551 -0.02415521 -0.0672136 -0.0044884863 -0.05353173 -0.054442365 0.13173302 -0.031219123

model.10.weight f4 [64, 64]
00000000: e1e6 ecbd 6cf3 e8bd 743e 253d 9c37 243e
00000010: f5cb dbbc ac93 a53d 3ecb 59bd 7e3d 6b3d
00000020: c211 f33d 00ed b33c c4d5 913d 927b 8ebc
00000030: 7884 f53c d2d1 8bbd cf06 1bbd 0c3f 0ebd
00000040: b1a1 c9bc 6103 ac3d 1c0a 96bc 59de b4bd
00000050: 3dfb b23d 234c 43be 337b f23c 6692 ef3d
00000060: 5908 e63c 95a7 c1bc fff1 aa3c 4a06 653d
00000070: 79e6 9bbd 3c67 ee3d d824 ae3d 5d66 78bd
00000080: 5096 983c c367 cbbc 6dc9 b4bd 2126 5abd
00000090: 51da bb3d aaee 86bd 5472 d8bd aedd c23d
000000a0: 3de9 bcbd 7387 ba3c 0935 c03d 5062 b9bd
000000b0: e9f0 57bd 6e38 103d e612 a03c f98d 5ebd
000000c0: b6d8 f3bc a0b5 babd 4882 93bc 6e3e 5a3d
000000d0: b134 f5bd 1c93 0ebd 4256 23bd 45a8 1cbe
000000e0: 3918 2d3e cd19 b9bd d3d0 87bd 18cb e5bc
000000f0: 08f8 433d 5155 37bd a72c 073e a759 d23d
00000100: 4aab 04be 4cbc 87bd 267c 963b dc20 283d
00000110: 6fca cd3d fb8e f23d 196d 3e3e bec5 3cbd
00000120: 9e16 823d f0a1 dd3d b34b e4bb 130c 083d
00000130: 8bab 3dbd 54b0 c8bd d0d0 8a3c 7770 b5bc
00000140: 9618 62bd 4779 503d 7090 c0bc 16ee 36be
00000150: 936e 903d 1c2c bdbc 386a 463d 806f 1fbe
00000160: c35c e53d 86e5 873d 3f18 5e3a 4a42 2ebd
00000170: ebdf 26bd 9d84 ab3d 6bd8 2c3d 437f 783d
00000180: eb1f 6a3d 543b 0c3e 51f4 e3bd 6cfd d8bd
00000190: 020c b73d 7aa1 e43d e763 0d3e c010 ae3c
000001a0: af81 8c3d defb d3bd 782d a9bc 139d f1bd
000001b0: d42b b23d 7d6d 31bc ac45 1cbc 4f3c ac3d
000001c0: 06e1 a83d 8494 89bc 1277 d83c 6594 153e
000001d0: 0443 8bbd d74a f5bd cbb8 de3d 1a6c 92bd
000001e0: 79ad b53b 3004 b03d 9328 f13b a7d4 163d
000001f0: 3136 6ebb 03fd ebbd c433 dbbd d348 02be
00000200: 5c24 dc3d bc1d 7fbc eb2d 88bd 8056 1bbe
00000210: 4234 e3bc b1fb e53d 6be0 90be 1784 1fbe
00000220: 4ccc e03b f4ee 373e 91fd 3dbb d610 12bd
00000230: cc9c 303e 62c4 f23d 6c79 933d 237b 45be
00000240: 9191 b1bd 85cb 283e 9613 453d bc2e 5e3e
00000250: 923b fe3d c6a8 723c 0275 753e 6f3b 00bd
00000260: 201e d8bc c3fb f4bd 0f99 9cbd 13bd bbbc
00000270: d8d2 a63d 6cf7 c83c e31c 8fbd 41ec 36be
00000280: a127 8d3c 5fe3 1c3e f299 8abe 05b8 66be
00000290: d98d 97bd b5d3 df3d d736 263e 7d89 c73d
000002a0: 68c7 34be 77c1 933b aff4 a53d 4fa3 54be
000002b0: a832 7bbd e454 993c 212e 303c 9af5 1fbe
000002c0: cac8 823d 321d 853d 06b5 bebd 2e2e e6bc
000002d0: 4b4d 983d 7431 8a3e 7620 63bc 1b03 c63d
000002e0: 11bd 513d 7c1a 6bbc d612 843e 4798 24be
000002f0: d5b2 8e3c 7e4f b53d d0b3 cdbc 9445 e23d
00000300: 60d5 673c d72e cbbd 8841 ee3d 7113 be3c
00000310: 173d 953d 9569 403d 57ca 683d 32e6 a2bd
00000320: 1a16 073d 859c cdbd 7efb c83d b093 df3d
00000330: cb81 01be 7b44 b23c 049b 19be 8d5e f33d
00000340: 8ec1 7c3b e10f 00be bc4f f0bd 564e 063d
00000350: 0909 7abc ca58 ca3d 1694 d4bd 688f 4b3e
00000360: b0ba c23d 60d5 db3d df69 a7bd 3b66 e73d
00000370: 28dd e03c 907e 4ebc d3a6 b9bb ec5e d83d
00000380: 77f3 09be 7956 8abd bbf5 bb3d bd13 c03d
00000390: 573a 103e 4ef6 35bd bdaa dcbd 8703 243e
000003a0: 9fb7 103c bfe2 0d3e a9a2 cb3c afe9 f23d
000003b0: 1705 353e 5d6c b9bc 4ead 4dbd fdd7 533d
000003c0: 965d 4fbd 3824 ef3d 36fd 6fbd aa4c 61bd
000003d0: 9422 7cbd 4b8c dbbd d925 07be 3950 9bbd
000003e0: 82f6 473d cfcc b93d 1ce1 17be 7a02 94bd
000003f0: bdbf b8bc 37a2 113d 7ccb 073d d3d9 e03d
-0.11567474 -0.11374554 0.040342763 0.16036838 -0.026830653 0.08084807 -0.053172342 0.05743169
0.118686214 0.021963596 0.07120851 -0.017392907 0.029970393 -0.068271294 -0.03784829 -0.034728095
-0.024613233 0.08399082 -0.018315367 -0.08831472 0.08739326 -0.19072013 0.029599762 0.11697845
0.028080152 -0.02363948 0.020867346 0.0559142 -0.076123185 0.11640784 0.08503121 -0.060644496
0.018626362 -0.02482975 -0.088274814 -0.05325902 0.091725 -0.0658849 -0.10568681 0.09514938
-0.09224174 0.022769665 0.09385116 -0.09051955 -0.052719984 0.035210066 0.019540261 -0.054334614
-0.029766422 -0.091166735 -0.018006459 0.053282194 -0.11972941 -0.034808263 -0.039877184 -0.15298565
0.16903771 -0.09038124 -0.06631627 -0.028050944 0.047843963 -0.0447591 0.13200627 0.10271006
-0.12955967 -0.06627712 0.0045924364 0.041046962 0.10048377 0.118436776 0.18596305 -0.04608702
0.0635197 0.10821903 -0.006967032 0.03321464 -0.046306174 -0.09799257 0.016945273 -0.022148354
-0.05519923 0.05089691 -0.023506373 -0.1786426 0.0705234 -0.023092322 0.04844114 -0.15569878
0.111993335 0.06635575 0.0008472241 -0.042543687 -0.04074089 0.08374903 0.04219858 0.06066824
0.057159346 0.13694507 -0.11130584 -0.105952114 0.08937837 0.11163612 0.13807641 0.021248221
0.06860673 -0.10350774 -0.020651564 -0.11797538 0.08699766 -0.010829327 -0.009538095 0.084099405
0.08246045 -0.01679445 0.026423965 0.1460739 -0.067998916 -0.11977165 0.1087509 -0.07149525
0.005544361 0.08594549 0.007359573 0.036823895 -0.0036348219 -0.115228675 -0.10703233 -0.12723093
0.107491225 -0.015571054 -0.06649383 -0.15169716 -0.02773488 0.11229647 -0.28296217 -0.15577732
0.0068602916 0.17962247 -0.0028990249 -0.035660587 0.17247313 0.11853863 0.07200894 -0.19285254
-0.08670343 0.16483887 0.04811438 0.21697515 0.12413706 0.014810747 0.23970416 -0.03130668
-0.026381552 -0.11962082 -0.07646381 -0.022917306 0.08145684 0.024532042 -0.069879316 -0.17863561
0.01723081 0.1532111 -0.27070576 -0.22531135 -0.07400102 0.10929052 0.16231857 0.09743021
-0.17654192 0.004509147 0.0810331 -0.20765422 -0.061327606 0.018717237 0.0107531855 -0.15621033
0.06385954 0.06499709 -0.09311871 -0.028098192 0.074366175 0.26990855 -0.01386272 0.09668561
0.0512057 -0.014349576 0.2579562 -0.16073714 0.017419258 0.088530526 -0.025110155 0.11048427
0.014149994 -0.09921043 0.11633593 0.02320263 0.072870426 0.04697569 0.05683359 -0.079540625
0.032980062 -0.10039619 0.09813593 0.10916841 -0.12647168 0.02176117 -0.1500054 0.118832685
0.0038567516 -0.12506057 -0.11733958 0.03278955 -0.015260943 0.098802164 -0.10379808 0.19878924
0.09508264 0.107340574 -0.0817449 0.11298796 0.027449206 -0.012603417 -0.005665639 0.1056498
-0.1347178 -0.067547746 0.09177729 0.09378765 0.14084755 -0.044424348 -0.10774753 0.1601697
0.008832841 0.13856028 0.024857836 0.11860978 0.17677723 -0.02263468 -0.050214104 0.051719654
-0.05062636 0.1167683 -0.05859109 -0.055004753 -0.061556414 -0.10720118 -0.13198031 -0.07583661
0.048819073 0.09072267 -0.14831966 -0.07227035 -0.022552365 0.03555509 0.033153042 0.10979047

model.10.bias f4 [64]
00000000: ffb8 bc3d e570 15bc 8a6d 3abd f058 91bd
00000010: 45a4 18bd 5a8d e93d 0212 2cba c606 7abd
00000020: 3ac5 babd d2f4 983d 7d22 833d 9a72 3c3d
00000030: b813 cc3b 684b 803c eef9 793d d464 ecbd
00000040: 8f6d f9bd d901 0b3e 5d1e 96bd 80db 92bd
00000050: e34a f53d e1b3 dcbd a136 c63d ab12 8f3c
00000060: ab19 b43d 2c07 793d 6b2d 003e 8bac 523d
00000070: 3f29 b93d 9e87 a13d ceed fbbc c3a4 823d
00000080: 3e2a 003e 35ec 103c fdbe 093d 5c32 a73c
00000090: f9a8 d63b fa21 f7bd 6bb2 00bd b97d 8f3d
000000a0: 265c 5e3d 17eb 783d f217 ca3d 3b2a b13d
000000b0: d917 483d e9e9 f3bd 96ee bebc 1552 35bd
000000c0: a940 823d d97b 98bc 10e3 ae3d 78e4 8d3c
000000d0: 3fb2 913c 93bb e53d 6851 c5bd 5437 4f3c
000000e0: ab6b 88bd b5e3 04be 1cd6 9e3d 7316 523c
000000f0: 1d70 7fbd 6f0e 98bd 00e9 77bc 5d58 f0bd
0.09214973 -0.009121154 -0.04551462 -0.070970416 -0.037266035 0.11403914 -0.00065639627 -0.061041616
-0.09119649 0.07468571 0.064030625 0.04600773 0.0062279366 0.015660957 0.061029367 -0.11542669
-0.121791 0.13574924 -0.0733001 -0.071707726 0.11977174 -0.10776497 0.096783884 0.017464956
0.08793958 0.060797855 0.12517326 0.05143408 0.0904107 0.07887195 -0.030753043 0.06379082
0.12516114 0.008845379 0.033629406 0.020409755 0.006550905 -0.120670274 -0.031420153 0.070064016
0.0542871 0.060771074 0.098678485 0.08650633 0.048850868 -0.11909849 -0.023307126 -0.044267733
0.06359989 -0.018613743 0.085394025 0.017320856 0.01778519 0.112174176 -0.09634668 0.012647469
-0.06661161 -0.12977488 0.07755682 0.012822735 -0.06236278 -0.07424628 -0.015131235 -0.11735604

model.12.weight f4 [3, 64]
00000000: fdc0 e0bd a2d4 8b3d b759 df3d df9e fcbd
00000010: 7412 e73d 6675 10bd ac29 a33d 9a9c bb3d
00000020: 249d ca3d 4ffb f5bd af2e 2fbd 790e e2bd
00000030: b78f 05be a96b de3d 91a8 133d dc8f 8ebc
00000040: be2c d03d a619 38bd e012 0f3d 3766 dabd
00000050: 0c2d c23c 9526 08bc 653f fabb 28dd ccbc
00000060: e636 38bc 890c 953c 36cf adbd efed 92bb
00000070: 2ee8 773d f441 283e 75af 7b3d 4cc2 0bbe
00000080: c436 553e 4b39 62bd bc19 d43d af91 903c
00000090: ad55 71bd 1f46 bbbd 136b 2bbe eed9 38be
000000a0: f6a9 a13d cac4 fb3d 84f2 dd3c e6e6 babd
000000b0: 8b3e 01be 6c16 0c3d e432 0bbe 2caf 50be
000000c0: bbe0 383e 7f91 a1bd ff08 12be 0efa 183e
000000d0: 42e9 173a 6a2c da3d c9ff 44bc bf11 cbbd
000000e0: eeaf b13d 9b26 373d 562d 0cbd da72 08be
000000f0: e2f0 cb3b a94d d6bd 7004 3dbc 11f3 12be
00000100: da56 343c 40fb ae3d 5249 1fbd 7b8f ae3c
00000110: fe87 eabd da23 e13d 4184 8dbd bd66 6c3d
00000120: 58b7 8abd 2b5a fe3c 579d 073d c762 c5bc
00000130: 6260 21bb 43d4 e4bd 8e4b c23d af69 693d
00000140: a185 0cbc 594d b8bd 6a86 1dbd 698e aebd
00000150: 85fa 27bd accf 923d 65b1 3bbd 9315 a6bc
00000160: 8e21 1ebd 3e57 af3d 63e4 07be 9a54 bd3b
00000170: 2e50 46bd 1ad0 e1bd eb89 a13d 7a29 863d
00000180: fb52 093b 945c 00be e18f b2bc 24fb e03c
00000190: 5529 a3bc ff94 d4bd 3bf7 b33d a926 b53d
000001a0: b4eb f8bc 7226 af3b 9d99 89bd 06f2 9e3d
000001b0: 8162 523c 920f e0bd 9215 14bd e754 82bc
000001c0: 5cd7 93bc 9dcb cfbd dca4 b93d 8eb8 f2bc
000001d0: 32a1 05be 60ba 8ebc 4b17 69bb e81f 003d
000001e0: 8027 51bd 3d32 62bd 3fb6 36bd c1b7 6d3d
000001f0: 918e e93d cf17 e8bc 0aba 27bc 9bf4 a83c
00000200: 2943 12be cf76 8bbb bb83 60be 54f1 333e
00000210: 0e7e a2bd 0a0a 03bd e891 e8bc b46b 0c3e
00000220: 8594 763d e253 3fbc 4eae 13be 678f c0be
00000230: 1156 30be 0eca 05bd 02ac 08be 64a5 e53d
00000240: fe61 0c3e fcfd 78bd c93c e93d 513e 7d3d
00000250: b1ba 49be 73e5 c6bc 8545 debd 861a c9bd
00000260: 60a1 a0bd 8719 27be 7aad 773d 1ec9 5fbe
00000270: c537 263d 5e85 6ebd edfc 16be 2ea6 55bd
00000280: 0df8 1fbe af10 ff3d 89ab f2bd 8dd2 8e3c
00000290: b026 29be c317 84bd 0668 fe3c 041b 4abb
000002a0: a702 f13c 16d1 c039 c4c7 42bc 2d4f 91bd
000002b0: f0fd 393d 5273 0fbd 6e4a dd3c 8cf2 79be
000002c0: 86a3 413d 01d4 b93d 4b0e 883d 9bf8 a03c
000002d0: 28e5 afbd 806c 913d f409 b9bd bdab 283d
000002e0: 5fe1 10be ce16 363d 24b3 18be 1b86 013e
000002f0: b3ca 27be 951e 983d 9146 7c3e 7961 fdbd
-0.109743096 0.06827666 0.109057836 -0.1233499 0.112828165 -0.03526821 0.07966933 0.09160729
0.098932534 -0.12010824 -0.04276913 -0.11037917 -0.13043104 0.10860378 0.03604943 -0.017402582
0.10164784 -0.044946335 0.03493011 -0.10664027 0.02370312 -0.00830998 -0.0076369517 -0.0250078
-0.011243558 0.018194454 -0.08486788 -0.0044839303 0.06052416 0.16431409 0.061446626 -0.13648337
0.20821673 -0.05523042 0.10356471 0.017647592 -0.058919597 -0.09144234 -0.16740064 -0.18051884
0.078937456 0.12293394 0.02709318 -0.09126072 -0.12621514 0.03420107 -0.13593632 -0.20379323
0.18054478 -0.07889079 -0.14261244 0.14939138 0.0005794951 0.106530026 -0.012023875 -0.09915494
0.08676134 0.04471455 -0.034222923 -0.13325062 0.006223784 -0.10464031 -0.0115367025 -0.14350535
0.011007035 0.08544016 -0.038888283 0.021308651 -0.1145172 0.10993166 -0.06909991 0.057715166
-0.06773251 0.031048855 0.033109035 -0.024094952 -0.00246241 -0.11173298 0.09487067 0.056985553
-0.0085767815 -0.08999128 -0.038458265 -0.08523256 -0.0410104 0.071685165 -0.045823473 -0.02027396
-0.03860622 0.08561562 -0.13270716 0.0057779076 -0.04841631 -0.1102602 0.07887634 0.0655088
0.0020954001 -0.12535316 -0.021797122 0.027463503 -0.01991717 -0.10379981 0.0878739 0.088452645
-0.03038583 0.005345159 -0.067187525 0.07761006 0.012840868 -0.1094047 -0.036153384 -0.015909625
-0.018047027 -0.10146258 0.090646476 -0.029629018 -0.13049772 -0.017422855 -0.0035566862 0.03128043
-0.05106306 -0.055223692 -0.044607397 0.05803657 0.114041455 -0.028331665 -0.010237226 0.02062445
-0.14283432 -0.0042561064 -0.21925251 0.17572528 -0.07934199 -0.031991996 -0.028389886 0.1371296
0.060200233 -0.011677714 -0.1442196 -0.37609407 -0.17220332 -0.032663397 -0.13346866 0.112131864
0.13709256 -0.060789093 0.11388547 0.061827008 -0.19700123 -0.024279332 -0.108531035 -0.09819512
-0.0784328 -0.16318332 0.060468175 -0.21854064 0.04058053 -0.058232658 -0.14744921 -0.052160434
-0.15621968 0.12454354 -0.11849124 0.017434383 -0.16518664 -0.06449845 0.031055462 -0.0030838856
0.02942021 0.00036776875 -0.011888448 -0.0709518 0.04540819 -0.035022087 0.02701303 -0.2440893
0.04727509 0.0907364 0.06643351 0.019649794 -0.0858863 0.07100773 -0.090351015 0.041179407
-0.14148472 0.044455342 -0.14912087 0.12648813 -0.16385917 0.07427708 0.24636294 -0.12372107

model.12.bias f4 [3]
00000000: a31d 643c 93a6 aabd 36a6 d2bd
0.013923082 -0.08332553 -0.102856085
