pinn_ns/conversion/snnmodel_cali32.pth (torch, 90392 bytes, 14 tensors)

model.0.weight f4 [64, 3]
-0.7318339 -0.08102674 -0.09853823 -0.2509552 0.42116684 0.8062198 0.4752089 0.19174834
-0.051505957 -0.31641057 0.4934334 -0.4280315 0.00035907349 0.036725953 -0.4722205 -0.07395196
-0.32563123 0.549594 -0.00989002 0.12932871 0.43564835 0.19780254 0.17495458 -0.7500041
0.21679464 0.08873465 -0.34772044 -0.31012788 0.11379548 -0.6790751 -0.48332438 -0.4061757
0.051010314 0.44936824 -0.007910056 -0.20813648 0.77409744 0.09206356 -0.16379277 -0.16724415
-0.5638102 -0.35435644 0.34808207 -0.17299885 0.15439898 -0.4988935 0.072185606 -0.22311513
0.17880572 -0.5035423 -0.0074432213 -0.45995316 -0.10336672 -0.12607504 -0.26206103 0.13413467
-0.66574734 -0.3636454 -0.07648623 -0.16289061 -0.31706074 0.4811192 -0.2855402 0.092065334
-0.49647474 -0.5717594 0.4922061 -0.058810208 0.52841955 0.14840412 0.63306564 -0.3137655
0.06527698 0.59668535 -0.89453757 0.052464984 -0.49771214 -0.53471094 0.05575326 -0.14266083
0.70316756 -0.2783097 -0.10976555 0.5944488 0.27000308 0.4057397 -0.7944288 -0.2548163
-0.68250227 -0.54903543 -0.07775524 -0.17574744 -0.3689901 0.40666273 -0.29814205 -1.0381292
0.71688586 -0.23185144 -0.73550916 -0.24660152 0.337482 0.34586316 0.17341296 0.16148949
0.40212536 0.37315598 0.611139 0.3225195 0.02595183 -0.6374876 -0.6321974 -0.04970261
-0.7418267 0.18355003 0.53371346 0.36731294 0.58909744 0.22302194 -0.52546597 0.1704268
-0.37846017 0.1267844 -0.12434063 -0.6816383 -0.032159917 -0.29220504 0.30555725 0.5026304
-0.0075621577 -0.7984051 -0.008648805 0.36646503 -0.57834005 0.6292612 -0.4025773 0.42527243
-0.27726483 0.20431307 -0.49662897 -0.05051825 -0.5775569 0.31227013 -0.36118504 0.43649447
-0.28853086 -0.6935289 -0.39923018 0.20995256 -0.2615576 0.5731572 -0.7212107 -0.015410312
0.42016935 0.675676 -0.21411574 0.22199196 0.054102134 -0.3197526 0.5225625 -0.2053984
0.030366436 0.42947927 0.813843 -0.68983024 -0.30689305 -0.19505179 -0.23123011 0.33239585
-0.38033032 0.24297027 0.17262305 0.32934514 0.3327851 0.80217963 -0.66034496 0.07064919
-0.04320587 -0.54261816 0.662337 0.2594889 -0.17028968 0.44913384 0.17964457 -0.28394017
-0.47901562 -0.008330419 -0.09046926 0.027404852 -0.36497775 -0.018291561 0.020490972 0.40630087
00000000: 7759 3bbf 59f1 a5bd 69ce c9bd 337d 80be
00000010: 2ea3 d73e 6c64 4e3f 954e f33e ad59 443e
00000020: e9f7 52bd 9100 a2be 4da3 fc3e f226 dbbe
00000030: 0742 bc39 f46d 163d e3c6 f1be 2074 97bd
00000040: 23b9 a6be 31b2 0c3f c009 22bc bf6e 043e
00000050: 4d0d df3e c08c 4a3e 4b27 333e 4500 40bf
00000060: 6aff 5d3e 83ba b53d 6a08 b2be 15c9 9ebe
00000070: 9b0d e93d ded7 2dbf 4b76 f7be 43f6 cfbe
00000080: 31f0 503d 9813 e63e 2e99 01bc bb21 55be
00000090: 402b 463f d28b bc3d 4bb9 27be 0d42 2bbe
000000a0: de55 10bf 356e b5be d037 b23e 9c26 31be
000000b0: c41a 1e3e f86e ffbe 0cd6 933d 4b78 64be
000000c0: d918 373e 26e8 00bf 44e6 f3bb fb7e ebbe
000000d0: eeb1 d3bd d119 01be dd2c 86be 995a 093e
000000e0: 6b6e 2abf bb2f babe d0a4 9cbd cccc 26be
000000f0: c955 a2be 4155 f63e 5332 92be c08c bc3d
00000100: f031 febe d35e 12bf 7002 fc3e f9e2 70bd
00000110: 8146 073f 40f7 173e 9710 223f dfa5 a0be
00000120: f0af 853d 5fc0 183f 6a00 65bf 86e5 563d
00000130: 20d4 febe d1e2 08bf 885d 643d ae15 12be
00000140: ca02 343f 9c7e 8ebe c3cc e0bd cc2d 183f
00000150: d83d 8a3e 1dbd cf3e b05f 4bbf 4877 82be
00000160: 78b8 2ebf 968d 0cbf 243e 9fbd 23f7 33be
00000170: 45ec bcbe 1936 d03e 13a6 98be 6be1 84bf
00000180: d585 373f 776a 6dbe 544a 3cbf 1c85 7cbe
00000190: 71ca ac3e fa14 b13e 2b93 313e 805d 253e
000001a0: 60e3 cd3e 4d0e bf3e 9b73 1c3f 4721 a53e
000001b0: ef98 d43c 6332 23bf b0d7 21bf f794 4bbd
000001c0: 5be8 3dbf 8af4 3b3e 72a1 083f 7110 bc3e
000001d0: 17cf 163f dd5f 643e f084 06bf 5d84 2e3e
000001e0: 88c5 c1be c5d3 013e 4da6 febd d97f 2ebf
000001f0: 1eba 03bd e69b 95be 0072 9c3e 63ac 003f
00000200: facb f7bb 4764 4cbf b8b3 0dbc 4ea1 bb3e
00000210: 180e 14bf 4317 213f 9d1e cebe 4fbd d93e
00000220: a8f5 8dbe 7237 513e 2746 febe 39ec 4ebd
00000230: c5da 13bf dfe1 9f3e 3fed b8be 347c df3e
00000240: 51ba 93be 1c8b 31bf e667 ccbe cefd 563e
00000250: e1ea 85be 6eba 123f 44a1 38bf 897b 7cbc
00000260: 7020 d73e 1af9 2c3f 2841 5bbe dc51 633e
00000270: 339a 5d3d 9db6 a3be a8c6 053f f553 52be
00000280: 08c3 f83c b5e4 db3e 0458 503f b798 30bf
00000290: 1621 9dbe a8bb 47be 96c7 6cbe ca2f aa3e
000002a0: a8ba c2be 33cd 783e 19c4 303e ed9f a83e
000002b0: cf62 aa3e a55b 4d3f 5e0c 29bf 86b0 903d
000002c0: a3f8 30bd 06e9 0abf eb8e 293f bbdb 843e
000002d0: 6b60 2ebe dff4 e53e bff4 373e 9b60 91be
000002e0: 8941 f5be 4f7c 08bc f347 b9bd 2480 e03c
000002f0: 5dde babe 2fd8 95bc afdc a73c ab06 d03e

model.0.bias f4 [64]
-0.53254837 0.286695 -0.3282389 -0.075399525 -0.2967408 -0.1856991 0.51431733 0.36373955
-0.057135377 0.04382255 -0.054392863 0.03624046 -0.4882254 -0.54406905 0.02569262 0.22309887
0.14828263 -0.046688166 0.23726584 -0.3209801 0.054022793 0.053927224 0.12752694 0.2420419
0.19634253 0.028014915 -0.16628775 0.047286388 0.044661794 0.31586844 -0.31203368 0.057264797
0.31645414 0.043128777 -0.46157742 -0.041587822 0.41104925 0.5774409 -0.21787553 -0.32836908
0.17369214 0.49745315 -0.4496878 0.44089332 -0.25441873 0.43682963 0.3652797 0.35136637
0.019476552 -0.026877329 -0.4249435 0.5778012 0.12601891 -0.100818425 -0.20287785 -0.56213784
-0.11339316 -0.044627704 -0.5224701 0.21466188 0.18180984 0.3590412 -0.45945674 0.5351485
00000000: 1755 08bf b0c9 923e ee0e a8be 116b 9abd
00000010: 69ee 97be e827 3ebe 4daa 033f 123c ba3e
00000020: c906 6abd 467f 333d 0dcb 5ebd e070 143d
00000030: aef8 f9be 1c48 0bbf 5479 d23c 0874 643e
00000040: 67d7 173e 173c 3fbd d1f5 723e 8157 a4be
00000050: 0147 5d3d cbe2 5c3d 6c96 023e d5d9 773e
00000060: 040e 493e 897f e53c 5647 2abe 5faf 413d
00000070: 49ef 363d 82b9 a13e e1c2 9fbe 7e8e 6a3d
00000080: 4706 a23e cda7 303d e053 ecbe fe57 2abd
00000090: 0c75 d23e 2bd3 133f c31a 5fbe fe1f a8be
000000a0: 5adc 313e 2eb2 fe3e 7b3d e6be c5bc e13e
000000b0: 2c43 82be 22a8 df3e f105 bb3e 4be6 b33e
000000c0: 4a8d 9f3c d82d dcbc 3292 d9be c8ea 133f
000000d0: 1a0b 013e e479 cebd 36bf 4fbe 44e8 0fbf
000000e0: ac3a e8bd 8acb 36bd 9ac0 05bf 53d0 5b3e
000000f0: 5c2c 3a3e 40d4 b73e ea3d ebbe 7eff 083f

model.2.weight f4 [64, 64]
-0.23025325 0.2949386 0.15729855 -0.040508308 -0.06523419 0.021035967 -0.029909924 0.16930093
-0.10733267 -0.03164474 -0.049213514 0.10486432 -0.14102235 -0.25734943 0.12608542 -0.19127929
-0.079447515 -0.17797902 -0.16335468 0.14989488 -0.038860656 -0.07939208 0.089381754 0.018314192
-0.12697126 -0.076775506 -0.053139925 0.089306735 -0.11865687 0.1664138 -0.07975102 -0.26898316
-0.17115633 -0.118858 0.14984395 0.12257037 -0.1051617 0.042082895 0.22983292 0.09129038
-0.16761504 0.32447684 -0.026302585 -0.16234219 0.0040713404 0.07637148 -0.23789918 0.15244417
-0.108030386 0.093331374 0.15748142 0.14031094 0.0027988583 -0.14339118 -0.14656633 0.1044149
0.006665855 0.041322228 0.06345081 -0.12055775 -0.04713759 0.006900265 -0.047878917 0.047479838
0.21828996 -0.22759847 -0.14003654 0.14108154 -0.05719291 -0.105673306 -0.0019459543 -0.07943936
0.12305743 -0.118713066 -0.02438244 -0.044669528 0.11249908 0.42168775 -0.034796815 0.13757949
0.112450674 0.15680481 0.10405735 -0.10296869 0.050519172 0.064939216 -0.010561957 0.04275724
0.009622666 0.123176254 -0.06945192 -0.05132984 -0.17336541 -0.038220827 0.020766048 0.20814687
-0.05216035 -0.025281215 -0.07182353 -0.1379624 0.14146757 -0.108055055 -0.10665579 -0.005122144
0.112276524 -0.3758227 0.13331917 0.22789605 -0.07163622 0.008903311 0.18740785 -0.14335671
0.16144493 -0.097692035 -0.18565202 -0.15432334 -0.03451718 -0.080820605 -0.04057399 0.04157338
0.04633303 0.27631807 -0.12653038 0.0075591756 0.1691328 -0.01438218 0.024242206 0.05968108
-0.13692315 -0.19667627 0.15755913 -0.081959225 -0.01215362 -0.050774295 0.13006096 -0.047274
0.09118955 -0.058204748 -0.10350728 -0.12080808 0.27561593 -0.26803052 0.015877865 -0.24355718
0.08015286 0.017751515 -0.076856986 -0.03428314 -0.093435824 -0.101809844 0.15590493 0.045250855
-0.024366716 -0.07386112 -0.0101174135 -0.102546945 -0.040070802 -0.10927023 -0.07952432 0.22276063
0.057910305 -0.02161399 0.16926023 0.07445227 -0.01124493 0.026435435 0.04369788 0.122141846
-0.15256782 -0.19013017 0.1713156 -0.29638228 -0.053181157 0.13188678 -0.20919566 0.01897752
-0.15579307 0.07152271 -0.19215527 0.28183305 0.027407251 -0.027383558 0.116545364 0.049093258
-0.12961143 0.21470235 -0.1480196 -0.016098741 -0.06948509 -0.1225907 -0.042091057 -0.055349316
-0.01131511 -0.100136735 0.02656554 -0.025702422 -0.115943216 -0.21912262 0.2061389 -0.07764613
0.16984938 0.08292831 0.10251248 -0.20399393 0.09353389 0.056332517 0.053435847 0.009148027
0.08578545 0.07226449 -0.13259405 -0.03487367 0.016849075 -0.109751195 0.09110221 -0.18677138
-0.31354368 -0.07434138 -0.2671948 -0.049579445 -0.32129872 -0.037981972 0.0180194 -0.2224991
-0.1130579 0.024259262 0.08320726 0.006621852 -0.058384344 0.048863407 0.02839889 0.11144708
-0.0068188296 0.054856185 0.2037563 0.21727122 -0.0984545 -0.15952148 -0.012416631 0.19896911
-0.11530606 -0.075203784 0.08655627 -0.023732986 -0.092062086 -0.19060303 0.04177565 0.03589389
0.03425016 0.1223769 0.018658362 -0.09269029 0.07574702 -0.0884166 -0.016813278 0.07761581
00000000: 82c7 6bbe 3102 973e df12 213e 0aec 25bd
00000010: 8199 85bd 9f53 ac3c a805 f5bc 395d 2d3e
00000020: 3bd1 dbbd ea9d 01bd 1c94 49bd 1bc3 d63d
00000030: 2a68 10be 4ec3 83be 891c 013e b8de 43be
00000040: 61b5 a2bd 2240 36be 7346 27be 0b7e 193e
00000050: 5a2c 1fbd 5198 a2bd c80d b73d a507 963c
00000060: c104 02be 7a3c 9dbd 40a9 59bd 73e6 b63d
00000070: 6002 f3bd 6168 2a3e 8154 a3bd 29b8 89be
00000080: 9b43 2fbe d36b f3bd b170 193e 2d06 fb3d
00000090: 045f d7bd 1d5f 2c3d 5259 6b3e 73f6 ba3d
000000a0: 47a3 2bbe d421 a63e 8578 d7bc 083d 26be
000000b0: e168 853b a768 9c3d d89b 73be 531a 1c3e
000000c0: 093f ddbd 8524 bf3d cf42 213e acad 0f3e
000000d0: 0d6d 373b 23d5 12be 7c15 16be 7bd7 d53d
000000e0: 3f6d da3b 7f41 293d 80f2 813d fbe6 f6bd
000000f0: 5813 41bd 9e1b e23b af1c 44bd 387a 423d
00000100: 6787 5f3e 930f 69be bd65 0fbe ae77 103e
00000110: 1d43 6abd 3f6b d8bd 640f ffba 1ab1 a2bd
00000120: 8905 fc3d d61f f3bd afbd c7bc 65f7 36bd
00000130: eb65 e63d 75e7 d73e 1b87 0ebd a3e1 0c3e
00000140: 8a4c e63d 7191 203e 051c d53d 40e1 d2bd
00000150: 31ed 4e3d dafe 843d 0f0c 2dbc 3722 2f3d
00000160: 63a8 1d3c d543 fc3d cf3c 8ebd 3d3f 52bd
00000170: b486 31be 718d 1cbd 8f1d aa3c 7424 553e
00000180: 17a6 55bd 8d1a cfbc 3718 93bd 0446 0dbe
00000190: e0dc 103e f84b ddbd 5a6e dabd a8d7 a7bb
000001a0: 3cf1 e53d d56b c0be d284 083e 955d 693e
000001b0: 03b6 92bd 31df 113c d8e7 3f3e 1acc 12be
000001c0: d251 253e c312 c8bd 901b 3ebe f006 1ebe
000001d0: e361 0dbd 4685 a5bd ea30 26bd d948 2a3d
000001e0: b4c7 3d3d 9079 8d3e 2e91 01be f6b2 f73b
000001f0: 2631 2d3e 3ca3 6bbc 9797 c63c 2674 743d
00000200: 9535 0cbe 8165 49be 2e57 213e 3dda a7bd
00000210: fa1f 47bc b5f8 4fbd b32e 053e 62a2 41bd
00000220: 96c1 ba3d 1a68 6ebd a0fb d3bd 3a6a f7bd
00000230: 881d 8d3e 4c3b 89be 4c12 823c 0e67 79be
00000240: 2f27 a43d a06b 913c 3267 9dbd 7a6c 0cbd
00000250: 485b bfbd ae81 d0bd 8ba5 1f3e f658 393d
00000260: b59c c7bc 8044 97bd 82c3 25bc 2204 d2bd
00000270: 4821 24bd 12c9 dfbd a6dd a2bd 5d1b 643e
00000280: 5b33 6d3d d30f b1bc 8e52 2d3e 6f7a 983d
00000290: a83c 38bc 208f d83c 8cfc 323d 8125 fa3d
000002a0: bd3a 1cbe 7cb1 42be 5b6d 2f3e 6bbf 97be
000002b0: 7cd4 59bd 540d 073e 6337 56be be76 9b3c
000002c0: 3888 1fbe 807a 923d 5ac4 44be 6c4c 903e
000002d0: 2c85 e03c 7c53 e0bc 56af ee3d 0316 493d
000002e0: dcb8 04be efda 5b3e 7392 17be 82e1 83bc
000002f0: 334e 8ebd d510 fbbd ac67 2cbd f7b5 62bd
00000300: 0363 39bc 7d14 cdbd fa9f d93c e38d d2bc
00000310: a373 edbd ae61 60be 1316 533e ef04 9fbd
00000320: ffec 2d3e 51d6 a93d 10f2 d13d c9e3 50be
00000330: b28e bf3d edbc 663d 8cdf 5a3d 9be1 153c
00000340: 48b0 af3d 68ff 933d bcc6 07be b2d7 0ebd
00000350: 1207 8a3c 3cc5 e0bd cc93 ba3d ff40 3fbe
00000360: cc88 a0be 4b40 98bd c2cd 88be d113 4bbd
00000370: 4481 a4be fc92 1bbd 6c9d 933c ced6 63be
00000380: e68a e7bd 5cbb c63c 9168 aa3d 1ffc d83b
00000390: 6c24 6fbd ff24 483d caa4 e83c 5e3e e43d
000003a0: 7d70 dfbb e1b0 603d 7ea5 503e 597c 5e3e
000003b0: 83a2 c9bd 9959 23be 206f 4bbc 8fbe 4b3e
000003c0: 9525 ecbd 7104 9abd 6a44 b13d ae6b c2bc
000003d0: 0c8b bcbd 712d 43be f21c 2b3d 7905 133d
000003e0: e549 0c3d bda0 fa3d 6cd9 983c 68d4 bdbd
000003f0: 4121 9b3d c313 b5bd 00bc 89bc 0af5 9e3d

model.2.bias f4 [64]
0.048885137 -0.06411772 0.039761677 -0.10143215 -0.08370422 -0.041460004 0.085067794 -0.014757369
0.06822006 0.1449166 -0.11462774 0.015643192 0.018920336 -0.0022272363 -0.11380076 -0.073548615
-0.10639437 0.046620186 0.042893063 0.106298454 -0.13563634 0.02868835 0.0034030888 0.08537269
0.22328259 0.04201065 -0.03094716 -0.06734308 -0.14555016 -0.047766957 0.048094943 -0.10052381
0.052399807 -0.05807594 -0.18527378 0.046566058 -0.0050039836 0.034126204 -0.0076576048 0.080455
0.028716363 0.040771063 -0.101371124 -0.07507797 -0.087539084 0.07335162 -0.097907975 0.008149487
-0.014459695 0.04349393 0.0027678171 0.0211082 -0.07002093 0.08235819 0.017688442 -0.058275927
-0.14097542 -0.013848819 -0.09738452 0.05567689 0.08138485 -0.002761588 -0.0048573078 0.019026915
00000000: c83b 483d 2750 83bd 24dd 223d a9bb cfbd
00000010: 1e6d abbd f7d1 29bd 0638 ae3d e4c8 71bc
00000020: f5b6 8b3d 0465 143e f3c1 eabd 2726 803c
00000030: d2fe 9a3c d3f6 11bb 5f10 e9bd a8a0 96bd
00000040: 4be5 d9bd cff4 3e3d a3b0 2f3d 01b3 d93d
00000050: 41e4 0abe d503 eb3c 5b06 5f3b e0d7 ae3d
00000060: 31a4 643e 5c13 2c3d e684 fdbc 2beb 89bd
00000070: 1a0b 15be 49a7 43bd 34ff 443d 6ddf cdbd
00000080: 2ea1 563d 09e1 6dbd 69b8 3dbe 0dbc 3e3d
00000090: 75f8 a3bb ebc7 0b3d a5ec fabb 97c5 a43d
000000a0: 943e eb3c 8fff 263d aa9b cfbd 7bc2 99bd
000000b0: b147 b3bd 6039 963d fa83 c8bd 6d85 053c
000000c0: 5be8 6cbc b126 323d 4464 353b 1beb ac3c
000000d0: 2267 8fbd 69ab a83d 5ae7 903c bdb2 6ebd
000000e0: dc5b 10be 28e6 62bc 8971 c7bd 730d 643d
000000f0: 1aad a63d c2fb 34bb 0d2a 9fbb 55de 9b3c

model.4.weight f4 [64, 64]
-0.04952097 -0.0908435 0.14193086 0.08587497 0.09690971 -0.044849824 -0.16745451 -0.031994905
0.106892526 0.1411881 0.04695153 0.075083226 0.00921755 0.05588846 -0.007044345 0.012550365
0.0041145626 0.16549177 0.11252565 0.07092954 -0.04542324 0.13048658 -0.065638155 0.100048356
-0.11426787 -0.009034976 0.013279625 -0.045693036 -0.115816526 0.029948795 -0.07460583 0.03836321
0.16978264 -0.08569187 0.04376728 -0.1054134 0.0006129946 -0.033780787 -0.07917183 0.022476848
0.04048738 0.033500988 0.1560499 0.086613424 -0.1657705 0.03394865 -0.010532624 -0.20156474
0.014070984 -0.071046755 0.015163787 -0.073688544 -0.07971575 0.09756551 0.090540536 -0.04242903
0.023890415 0.09792336 -0.050846107 -0.08045719 -0.0722486 -0.038126353 -0.03505434 -0.08405352
0.20386401 -0.17751665 0.13635918 -0.13092828 -0.035241645 -0.008348559 -0.15600386 0.12676811
-0.09288205 -0.10640565 -0.1069683 -0.09636766 0.023615826 -0.12998708 0.051056743 -0.1647185
-0.051867224 -0.18403347 0.22560908 -0.11674579 0.05132673 -0.045916334 0.04755246 -0.100435734
0.24962218 -0.05779211 -0.14356363 0.14780383 0.14794806 -0.18572311 0.080591775 0.06189002
-0.0126925465 -0.17390503 0.078010164 0.03049035 0.038931344 0.014488154 -0.0035063636 0.10945443
0.0774312 -0.06455651 -0.028087782 -0.106937505 -0.19988571 0.059569113 -0.063701436 0.09262391
-0.041560445 0.100721985 0.03510055 0.10884307 0.19959886 -0.262179 0.07773844 0.020315481
0.023813937 -0.09211345 0.018465003 -0.025815058 0.0711632 0.088354595 -0.11546893 0.08066566
-0.16257282 0.07356416 0.12806813 0.13192086 0.17134742 0.11806358 0.06917037 -0.05320581
0.04434383 -0.13054273 0.036674015 0.3459902 0.028192993 -0.11967692 -0.11280212 0.03491279
0.13684392 0.18404928 -0.09511287 -0.16445546 0.08165692 -0.010869331 0.026137332 -0.17825742
0.42670965 -0.00080682465 0.4482607 -0.17813475 0.012805408 -0.03862912 -0.15878077 -0.04664604
0.08042202 -0.31885806 -0.18251349 -0.21638328 0.041243166 0.09380671 0.13490799 -0.15519616
-0.05472798 0.265845 -0.008026868 -0.054008916 0.21751924 -0.054282807 -0.020907536 0.08241097
-0.13864212 -0.041924898 -0.080527954 0.034602027 -0.033527557 -0.08245841 0.044711135 0.003544507
-0.05538767 -0.017433029 -0.04602504 0.07394733 -0.13651104 -0.023581386 0.15627316 0.005257008
0.25741795 -0.19332202 0.54911983 0.019323505 0.1049748 0.0672925 0.059477925 0.22959368
0.17151666 0.15422969 0.0069135325 -0.22093125 -0.010716972 0.019009477 0.05047866 -0.1790412
0.23896632 0.063123435 0.15843341 0.038004924 0.111397855 -0.09971288 0.07520459 0.1303553
-0.048271365 0.08298937 -0.16527021 -0.019511728 0.09726477 -0.2409582 0.20773256 -0.1325092
-0.019658333 0.14503717 0.096601315 0.11577003 -0.03829704 0.026513055 -0.054332893 -0.079462536
0.054910358 -0.19557047 -0.02719152 0.13543254 -0.39984167 -0.00010521047 0.021044236 0.008975725
-0.046363402 -0.11841881 0.13797899 0.11429096 0.014455933 0.00467034 -0.00073445827 -0.16578582
0.033839855 0.073580086 0.15696558 -0.09686727 -0.056487165 0.080957234 -0.0063161445 -0.12991755
00000000: 80d6 4abd 280c babd 5356 113e 37df af3d
00000010: 9978 c63d 73b4 37bd 3279 2bbe 170d 03bd
00000020: 78ea da3d 9d93 103e 3f50 403d 3cc5 993d
00000030: 3505 173c 4ceb 643d 40d4 e6bb 0ca0 4d3c
00000040: 74d3 863b ad76 293e d973 e63d 8243 913d
00000050: b80d 3abd 469e 053e 4c6d 86bd 27e6 cc3d
00000060: 4605 eabd 7007 14bc c992 593c 9f28 3bbd
00000070: 3731 edbd 2d57 f53c f1ca 98bd be22 1d3d
00000080: 80db 2d3e 387f afbd 5245 333d fbe2 d7bd
00000090: 5fb1 203a b95d 0abd d724 a2bd 5e21 b83c
000000a0: 18d6 253d 5538 093d 8ccb 1f3e 6162 b13d
000000b0: bebf 29be bd0d 0b3d 0791 2cbc fd66 4ebe
000000c0: fc89 663c f680 91bd 8871 783c 05ea 96bd
000000d0: 0342 a3bd 6dd0 c73d 516d b93d 10ca 2dbd
000000e0: d5b5 c33c 0b8c c83d 0244 50bd bdc6 a4bd
000000f0: 13f7 93bd 612a 1cbd 2495 0fbd 4024 acbd
00000100: bac1 503e edc6 35be bea1 0b3e 1012 06be
00000110: 8b59 10bd 65c8 08bc 7abf 1fbe 80cf 013e
00000120: f238 bebd 35eb d9bd 3212 dbbd 685c c5bd
00000130: fa75 c13c 551b 05be e020 513d f7ab 28be
00000140: ba72 54bd 4573 3cbe 1106 673e 6b18 efbd
00000150: fa3b 523d c412 3cbd 5ec6 423d 40b1 cdbd
00000160: f59c 7f3e 6bb7 6cbd 5802 13be e359 173e
00000170: b27f 173e 332e 3ebe 4d0d a53d 6480 7d3d
00000180: 66f4 4fbc 2914 32be cbc3 9f3d e6c6 f93c
00000190: 7976 1f3d b95f 6d3c 05cb 65bb a529 e03d
000001a0: 4094 9e3d 3436 84bd 5918 e6bc 0d02 dbbd
000001b0: d7ae 4cbe befe 733d e675 82bd 9bb1 bd3d
000001c0: 493b 2abd 5447 ce3d 98c5 0f3d 1ee9 de3d
000001d0: a563 4c3e 533c 86be 5535 9f3d a76c a63c
000001e0: 7215 c33c faa5 bcbd eb43 973c 1a7a d3bc
000001f0: 03be 913d 41f3 b43d f97a ecbd 0a34 a53d
00000200: 7d79 26be cea8 963d 4b24 033e 4316 073e
00000210: b375 2f3e 51cb f13d 32a9 8d3d 56ee 59bd
00000220: e0a1 353d feac 05be 7e37 163d a125 b13e
00000230: fef4 e63c 2c19 f5bd cc04 e7bd b700 0f3d
00000240: d020 0c3e 6a77 3c3e 89ca c2bd 0367 28be
00000250: be3b a73d 4715 32bc f51d d63c 1d89 36be
00000260: b079 da3e 1681 53ba 6d82 e53e f568 36be
00000270: c6cd 513c 9139 1ebd 6d97 22be eb0f 3fbd
00000280: 4db4 a43d 5d41 a3be d1e4 3abe 9493 5dbe
00000290: 98ee 283d bb1d c03d 5225 0a3e beeb 1ebe
000002a0: 722a 60bd d61c 883e 2083 03bc 7438 5dbd
000002b0: 5dbd 5e3e a657 5ebd 4846 abbc 15c7 a83d
000002c0: 33f8 0dbe 71b9 2bbd d7eb a4bd dbba 0d3d
000002d0: 3154 09bd f4df a8bd 0623 373d f64a 683b
000002e0: 2ede 62bd b6cf 8ebc c184 3cbd b371 973d
000002f0: 8dc9 0bbe c02d c1bc 1206 203e fb42 ac3b
00000300: 49cc 833e 35f6 45be 1e93 0c3f 544c 9e3c
00000310: 07fd d63d a6d0 893d 209f 733d 9b1a 6b3e
00000320: 10a2 2f3e 63ee 1d3e ea8a e23b cd3b 62be
00000330: 3d96 2fbc c3b9 9b3c b6c2 4e3d 9456 37be
00000340: 96b3 743e dc46 813d 5e3c 223e 0dab 1b3d
00000350: 8f24 e43d 4436 ccbd dd04 9a3d dc7b 053e
00000360: 32b8 45bd 55f6 a93d 983c 29be 0fd7 9fbc
00000370: c032 c73d bfbd 76be d8b7 543e 7eb0 07be
00000380: 830a a1bc a084 143e e9d6 c53d d618 ed3d
00000390: 5bdd 1cbd e831 d93c 2b8c 5ebd 41bd a2bd
000003a0: afe9 603d a043 48be c0c0 debc d4ae 0a3e
000003b0: 0cb8 ccbe 71a4 dcb8 f664 ac3c eb0e 133c
000003c0: 8de7 3dbd 9085 f2bd 5d4a 0d3e 6111 ea3d
000003d0: 94d8 6c3c a709 993b a988 40ba c2c3 29be
000003e0: a99b 0a3d 28b1 963d 96bb 203e 5962 c6bd
000003f0: 165f 67bd e8cc a53d a9f7 cebb 1b09 05be

model.4.bias f4 [64]
-0.024900855 0.02603708 0.06642481 0.046508547 -0.060193866 -0.07985082 -0.026955048 0.09588074
0.117783986 0.1019047 0.10669842 0.03756928 0.12363743 -0.013663291 -0.12182749 -0.02373722
0.08114179 -0.05833182 0.012234767 -0.09976519 -0.09184671 -0.14189973 -0.05574867 0.028266843
0.09418486 -0.021131575 0.0062717316 -0.02433986 0.14404778 -0.067569725 -0.051314615 -0.035255183
0.031851135 0.09152079 -0.12717532 -0.05091839 -0.0725007 -0.07900384 -0.06593395 -0.11095872
0.01004622 0.039978802 -0.07216829 -0.080630936 -0.037249506 -0.039121836 -0.021155735 -0.102926455
0.106585965 -0.071433105 0.042433094 -0.038614463 -0.11984626 0.0780713 0.11024383 -0.08689253
-0.079912566 -0.047498822 -0.023050424 0.036557287 -0.081977986 -0.024961544 0.0028635478 0.07252713
00000000: e1fc cbbc b74b d53c bb09 883d bf7f 3e3d
00000010: d88d 76bd d488 a3bd d5d0 dcbc 1f5d c43d
00000020: bb38 f13d 69b3 d03d b484 da3d 3fe2 193d
00000030: 9f35 fd3d ffdb 5fbc b180 f9bd 8f74 c2bc
00000040: ab2d a63d 59ed 6ebd 5574 483c b151 ccbd
00000050: 211a bcbd 2a4e 11be b858 64bd de8f e73c
00000060: fee3 c03d 201c adbc 1983 cd3b 6364 c7bc
00000070: 4381 133e ff61 8abd 462f 52bd bd67 10bd
00000080: 5676 023d 406f bb3d 3f3a 02be cd8f 50bd
00000090: 3f7b 94bd c4cc a1bd 6108 87bd 533e e3bd
000000a0: e798 243c d0c0 233d f8cc 93bd d521 a5bd
000000b0: f092 18bd 383e 20bd cb4e adbc 1bcb d2bd
000000c0: be49 da3d 854b 92bd 53ce 2d3d 332a 1ebd
000000d0: f571 f5bd d9e3 9f3d 84c7 e13d b6f4 b1bd
000000e0: 33a9 a3bd 208e 42bd 3ed4 bcbc 18bd 153d
000000f0: 13e4 a7bd 277c ccbc 5caa 3b3b 1b89 943d

model.6.weight f4 [64, 64]
0.072895855 0.22017269 0.07965585 0.31926382 -0.03712327 0.12210316 0.17300813 -0.17655301
-0.19434738 0.20404471 0.14337167 -0.16135168 0.18012188 0.18939173 -0.16777118 -0.03587414
-0.18745576 0.16710462 -0.0015450612 -0.11861431 -0.091878675 -0.12008952 -0.14107603 -0.1359523
0.075466745 -0.17229536 -0.033314332 -0.17642376 -0.11586133 -0.16908 -0.21788104 0.17324367
-0.092646465 0.15496306 -0.16062275 -0.21464951 0.16333105 -0.16144273 -0.21907532 -0.1470306
-0.1002708 0.12781617 -0.22744894 0.19281447 -0.16587669 -0.18218224 -0.22624514 -0.13149983
-0.11315475 0.09172393 -0.107148275 0.18311392 0.16100745 0.18047956 -0.09676148 -0.15875697
-0.118681766 0.03920721 -0.11145086 -0.019847745 -0.12702708 0.10542324 0.17130543 0.18875864
-0.1240877 0.04697199 -0.028170345 -0.030486407 -0.121178485 0.058609877 0.027467504 -0.07176879
-0.110367425 0.27337754 -0.027985364 -0.100283764 -0.056809228 -0.16610694 -0.06267688 0.005839976
-0.18968897 0.07555091 0.069525294 -0.08009199 0.024364134 0.038089503 -0.011987795 0.077584185
-0.011556492 0.07741653 -0.12015134 0.19216385 0.07664174 -0.07136176 0.065163575 -0.013621122
-0.13321254 -0.02303152 0.022190126 0.045391362 0.05400682 -0.1445529 -0.10050598 0.15728523
0.009187714 0.06238835 0.17061703 -0.0126838405 0.038962446 -0.0104670795 -0.03261534 0.04251021
-0.075639345 -0.036949225 0.07724975 -0.047569636 0.09556498 0.0015732592 0.10922461 0.0073141414
-0.04874166 -0.04482956 -0.102020174 0.03120245 -0.10254894 0.13534752 -0.06291711 0.09777863
-0.028979903 -0.009585764 0.029913612 0.027506208 0.11504118 0.019149492 -0.006998225 -0.078208014
-0.050923478 -0.16928974 -0.08766475 0.0013770292 -0.05345302 0.085771896 -0.07197225 -0.07765649
0.058976844 0.003484935 -0.027548209 -0.03635874 -0.039018303 0.09442738 0.037259094 0.019462405
-0.069078684 0.054930534 -0.02594361 0.09413307 -0.11050237 -0.051295914 -0.07130795 0.0038717391
-0.04709389 -0.043224208 -0.02238675 0.095129505 -0.010934559 0.042039316 0.31954205 0.00912844
0.0018581024 0.06679044 0.15877086 -0.07484392 -0.066950016 0.07139667 0.21365629 0.0047903834
-0.014073243 0.07891853 0.0785517 0.03859479 0.046329934 0.00084739167 0.04124207 -0.048814647
0.054689 0.027298704 -0.10779504 -0.040896904 0.06048075 0.039530925 0.01716538 -0.0030376688
-0.026927475 0.051638518 0.052331567 -0.079199284 0.036758974 0.0131071415 0.0044743037 0.04696645
-0.09518628 0.019015586 0.05859497 0.0140153915 0.0698988 0.010524989 0.05642013 0.007971948
-0.03253144 -0.008632705 0.10792761 0.022862932 0.047880977 0.082468845 -0.062457852 -0.01518423
-0.059913564 -0.061196122 -0.07496599 -0.08807553 0.10156888 0.03480613 -0.12367331 0.054268293
0.08662235 0.01647447 0.0901322 -0.14533776 -0.076798424 -0.038279895 -0.1384964 0.0022198693
-0.08178641 -0.05996545 -0.009154471 0.1041285 0.013340253 -0.07532371 0.074964955 0.058559958
-0.05246959 -0.08446368 -0.022562454 -0.048831925 0.029926144 0.102386944 -0.009058042 0.10021704
-0.023080047 0.031861052 0.08014001 -0.035100944 -0.039677296 -0.057450674 0.07017724 -0.056156736
00000000: 6c4a 953d f374 613e 9b22 a33d 8c76 a33e
00000010: 920e 18bd 3911 fa3d 0b29 313e 50ca 34be
00000020: 0003 47be 19f1 503e 06d0 123e 6039 25be
00000030: df71 383e e8ef 413e 35cc 2bbe c3f0 12bd
00000040: 67f4 3fbe 791d 2b3e a783 caba 0fec f2bd
00000050: e32a bcbd 7ff1 f5bd 3c76 10be 1437 0bbe
00000060: 4f8e 9a3d 326e 30be 9c74 08bd 6ea8 34be
00000070: b448 edbd 4f23 2dbe 351c 5fbe ca66 313e
00000080: 6ebd bdbd a3ae 1e3e 4a7a 24be 15cd 5bbe
00000090: 4140 273e 3e51 25be 4855 60be 318f 16be
000000a0: c75a cdbd 3ee2 023e 60e8 68be 2871 453e
000000b0: 94db 29be fb8d 3abe ceac 67be e4a7 06be
000000c0: adbd e7bd c1d9 bb3d 8e70 dbbd 3782 3b3e
000000d0: 23df 243e a2cf 383e e22a c6bd 3091 22be
000000e0: 6d0f f3bd bd97 203d 5940 e4bd bd97 a2bc
000000f0: 6313 02be 24e8 d73d b16a 2f3e f249 413e
00000100: b121 febd b465 403d 7fc5 e6bc a1be f9bc
00000110: 6d2c f8bd e910 703d 8803 e13c 84fb 92bd
00000120: 5108 e2bd 24f8 8b3e 9041 e5bc 9361 cdbd
00000130: cbb0 68bd f017 2abe bc5c 80bd 455d bf3b
00000140: d33d 42be 6fba 9a3d 4763 8e3d 4507 a4bd
00000150: 4b97 c73c bd03 1c3d 7568 44bc 75e4 9e3d
00000160: 7157 3dbc 8f8c 9e3d e811 f6bd 9ac6 443e
00000170: 58f6 9c3d 1d26 92bd 7b74 853d 202b 5fbc
00000180: de68 08be 99ac bcbc 11c8 b53c 4bec 393d
00000190: 4136 5d3d ad05 14be 14d6 cdbd 610f 213e
000001a0: 1188 163c ed8a 7f3d 3bb6 2e3e e2cf 4fbc
000001b0: 1697 1f3d 1d7e 2bbc aa97 05bd 301f 2e3d
000001c0: cde8 9abd 1258 17bd 1e35 9e3d 61d8 42bd
000001d0: 92b7 c33d d235 ce3a 27b1 df3d 77ab ef3b
000001e0: 56a5 47bd 339f 37bd f4ef d0bd 489c ff3c
000001f0: 2e05 d2bd 8a98 0a3e b0da 80bd 2a40 c83d
00000200: 4367 edbc 9c0d 1dbc 640d f53c b354 e13c
00000210: b69a eb3d 65df 9c3c 5e51 e5bb 862b a0bd
00000220: 2395 50bd 4a5a 2dbe 9489 b3bd 6f7d b43a
00000230: 8ef1 5abd 2da9 af3d 3066 93bd 5e0a 9fbd
00000240: b491 713d 8263 643b c8ac e1bc e7ec 14bd
00000250: a8d1 1fbd 2463 c13d fe9c 183d 9f6f 9f3c
00000260: 2079 8dbd d7fe 603d b287 d4bc d7c8 c03d
00000270: 114f e2bd aa1b 52bd e709 92bd 01bd 7d3b
00000280: 86e5 40bd de0b 31bd 6b64 b7bc 42d3 c23d
00000290: dd26 33bc 6b31 2c3d 049b a33e 748f 153c
000002a0: 928b f33a 6dc9 883d d494 223e c547 99bd
000002b0: 171d 89bd 6b38 923d b7c8 5a3e a6f8 9c3b
000002c0: 7693 66bc 0aa0 a13d b7df a03d 9215 1e3d
000002d0: 75c4 3d3d 7e23 5e3a 72ed 283d def1 47bd
000002e0: 9301 603d 88a1 df3c a5c3 dcbd 8383 27bd
000002f0: aaba 773d 2eeb 213d 699e 8c3c a013 47bb
00000300: 0297 dcbc e982 533d a059 563d 3c33 a2bd
00000310: 9490 163d 56bf 563c 2e9d 923b e45f 403d
00000320: 06f1 c2bd 93c6 9b3c 4701 703d d0a0 653c
00000330: 1a27 8f3d 0171 2c3c cb18 673d c69c 023c
00000340: b03f 05bd 3070 0dbc 2709 dd3d 0b4b bb3c
00000350: d81e 443d 6de5 a83d ced3 7fbd 47c7 78bc
00000360: ed67 75bd c9a8 7abd c587 99bd f260 b4bd
00000370: 5803 d03d df90 0e3d 6f48 fdbd 6e48 5e3d
00000380: 0f67 b13d 78f5 863c 3b97 b83d 6cd3 14be
00000390: 7e48 9dbd 61cb 1cbd 00d2 0dbe 3a7b 113b
000003a0: a27f a7bd 559e 75bd a2fc 15bc 5341 d53d
000003b0: 1491 5a3c 5143 9abd 3a87 993d 91dc 6f3d
000003c0: 5aea 56bd 4bfb acbd e5d4 b8bc fc03 48bd
000003d0: ac27 f53c 3fb0 d13d 2f68 14bc 973e cd3d
000003e0: 5e12 bdbc bc80 023d 7220 a43d 02c6 0fbd
000003f0: a984 22bd 6651 6bbd 16b9 8f3d 9b04 66bd

model.6.bias f4 [64]
-0.014484469 -0.09993481 -0.06546891 0.07243235 -0.07830143 -0.14011583 0.006314732 0.077063456
0.030590467 -0.008424088 0.012287235 0.14311995 -0.10774956 0.075564556 0.17138445 -0.07932404
0.085173786 -0.022425324 -0.02088901 0.008763711 -0.016539937 -0.08510407 0.0677715 -0.059602436
0.013651596 -0.10709417 -0.12796983 -0.0024447145 -0.0070093903 0.01214073 0.048387766 0.10760095
0.12078251 -0.071261205 0.07948878 0.082817584 -0.08987051 -0.052909367 0.12307176 0.06786601
0.1131311 0.074191116 0.0077489833 -0.078329645 -0.056305807 -0.13585368 -0.01511995 0.090522185
-0.015567899 -0.060661484 0.07411344 0.15480396 -0.07049852 -0.10299206 0.057632007 -0.157145
-0.09428758 -0.05968392 0.038769536 -0.060985707 -0.021559857 0.15325196 0.088240184 0.051016375
00000000: 4450 6dbc 9faa ccbd 9014 86bd 6957 943d
00000010: 805c a0bd 867a 0fbe d0eb ce3b 72d3 9d3d
00000020: dc98 fa3c 3005 0abc 6650 493c 098e 123e
00000030: cdab dcbd 97c1 9a3d 687f 2f3e a474 a2bd
00000040: 986f ae3d 50b5 b7bc 6e1f abbc ab95 0f3c
00000050: c37e 87bc 0b4b aebd c9cb 8a3d af21 74bd
00000060: f2aa 5f3c 3054 dbbd 860a 03be 8137 20bb
00000070: 07af e5bb eae9 463c 4032 463d e35d dc3d
00000080: d25c f73d 65f1 91bd 03cb a23d 449c a93d
00000090: 080e b8bd 7eb7 58bd 0c0d fc3d 56fd 8a3d
000000a0: 47b1 e73d 83f1 973d 2feb fd3b 4b6b a0bd
000000b0: eba0 66bd 3a1d 0bbe abb9 77bc b263 b93d
000000c0: 8010 7fbc 2d78 78bd cac8 973d ee84 1e3e
000000d0: 8761 90bd 80ed d2bd 8a0f 6c3d 9eea 20be
000000e0: d919 c1bd 2077 74bd cecc 1e3d 26cc 79bd
000000f0: 4c9e b0bc 15ee 1c3e 45b7 b43d 8cf6 503d

model.8.weight f4 [64, 64]
-0.04140611 -0.05177959 0.025872134 -0.08791711 -0.023415804 0.012906674 -0.0764357 -0.039146084
0.08044267 -0.018896123 0.0715215 0.0450466 0.03437174 0.039061647 -0.02545454 -0.11749507
-0.054334126 0.0045957933 -0.05662305 -0.0102435835 -0.07301423 -0.09716986 -0.014288555 -0.06767475
0.09393843 0.0049555684 0.07379942 0.032373082 -0.054523937 0.04029352 -0.022258352 -0.060033377
0.0146086095 -0.11095816 0.08554802 -0.0073788124 -0.058269475 0.09583589 0.039708618 0.09020024
0.04803785 -0.030827865 -0.03061933 0.07005007 0.07690287 -0.09034332 -0.032963667 -0.027649935
-0.072770044 -0.011401226 -0.030753098 0.030154988 0.058738947 -0.065127514 -0.082666844 -0.0058131204
0.08074395 0.062396936 -0.09085763 -0.03653293 -0.072138675 4.432188e-05 0.021397222 0.06528256
0.1545107 0.015518105 0.035450343 0.020324085 -0.011316753 -0.0076977746 -0.08641231 -0.005695316
0.055309474 0.008277093 -0.04812926 0.0013576862 0.014182913 0.014568129 -0.015663946 -0.0072759436
0.014548057 -0.04720258 7.216345e-05 0.1325403 -0.017223582 0.013084406 -0.0082717175 -0.026114706
0.003707221 0.07169787 -0.021103859 0.016167242 0.050184917 -0.026595471 0.005670302 -0.025077906
0.019553632 -0.099730976 0.073196106 -0.037867356 -0.014833476 0.04979438 0.050346002 -0.055151086
0.079443894 0.016916528 -0.06124811 -0.0707415 0.040425308 -0.009297167 0.014686338 0.04159763
0.024285799 -0.043841794 -0.01335649 0.11794742 -0.06444286 -0.014069754 -0.032693457 -0.07710212
-0.20243947 0.03591166 -0.13987033 -0.03203317 -0.054433543 0.030071892 0.04082254 0.041611798
-0.0041959714 -0.10265985 0.03411746 0.021171965 -0.027865577 0.055024125 0.15513545 0.04752548
-0.020723594 -0.05922114 0.07334511 0.059654992 -0.03772877 -0.00083248643 0.070865884 -0.07806561
-0.0283395 0.088330306 -0.05118531 0.1057639 0.060403988 0.026404407 0.026026782 -0.0033129374
0.02653819 -0.10154583 -0.023760134 0.035585567 0.02072563 0.016081572 -0.07391463 -0.028148122
0.03616375 0.075921044 -0.0050050765 0.0769324 0.023922317 0.026552454 -0.017644057 -0.09218833
-0.13092734 0.0966986 -0.17231199 -0.109799184 0.18431531 -0.10442817 0.0014487113 -0.015049622
-0.008531486 0.029587902 0.04730475 -0.019483618 -0.056773685 0.1850219 -0.035152905 0.08584284
-0.19871928 0.044960067 -0.053886563 0.037799887 0.016310064 0.05875712 -0.09216005 0.012338435
0.12574603 0.030000336 -0.089865655 0.084364556 0.043607835 0.018320322 0.11597464 -0.046596058
-0.043854196 -0.10965796 0.075814866 0.022565573 -0.06949849 -0.09625819 0.037450656 0.06377019
-0.1138295 0.045570116 0.022177372 -0.0378591 -0.01852571 0.044842307 -0.056404375 -0.0863365
-0.048706505 0.0023403352 0.027225688 0.035019785 0.108866625 -0.022972202 -0.09208087 -0.039305903
-0.0066466257 0.05025664 0.055702504 -0.001388531 0.036065813 -0.07524302 0.07680132 -0.21163635
0.09119275 0.03821047 -0.05671023 -0.09908322 6.853127e-05 0.044501655 -0.064154744 -0.008607735
0.0084858965 -0.10389955 0.069541395 -0.110186666 -0.050738774 -0.015962306 0.06334652 0.09115428
-0.17528825 -0.061637264 -0.0074001607 -0.02145227 0.008928367 0.02147517 -0.10503856 0.059904147
00000000: 7499 29bd d616 54bd ccf1 d33c e30d b4bd
00000010: 80d2 bfbc 8476 533c 528a 9cbd a557 20bd
00000020: 20bf a43d 0bcc 9abc dd79 923d c982 383d
00000030: 62c9 0c3d 1bff 1f3d 0a86 d0bc 41a1 f0bd
00000040: 768d 5ebd 4f98 963b 92ed 67bd b4d4 27bc
00000050: 7c88 95bd fe00 c7bd 8b1a 6abc 0f99 8abd
00000060: cb62 c03d 5262 a23b 2624 973d a399 043d
00000070: 7e54 5fbd d10a 253d 2657 b6bc 8fe5 75bd
00000080: f358 6f3c 083e e3bd cd33 af3d f7c9 f1bb
00000090: f9ab 6ebd 9b45 c43d 81a5 223d e7ba b83d
000000a0: 56c3 443d b88a fcbc 64d5 fabc 6976 8f3d
000000b0: 407f 9d3d eb05 b9bd e904 07bd 1e82 e2bc
000000c0: 7608 95bd 35cc 3abc eced fbbc 9807 f73c
000000d0: 4098 703d 9361 85bd 3c4d a9bd fd7b bebb
000000e0: 165d a53d ee93 7f3d 9113 babd 8ea3 15bd
000000f0: 71bd 93bd 42e6 3938 3a49 af3c ddb2 853d
00000100: 0e38 1e3e a63f 7e3c 6134 113d b27e a63c
00000110: e769 39bc 9d3d fcbb f0f8 b0bd c69f babb
00000120: 308c 623d a59c 073c 3023 45bd 64f4 b13a
00000130: 735f 683c 29af 6e3c ad51 80bc 0a6b eebb
00000140: f95a 6e3c 7e57 41bd 7556 9738 a5b8 073e
00000150: 7818 8dbc fa5f 563c 1986 07bc 82ee d5bc
00000160: d9f4 723b 55d6 923d 00e2 acbc 2a71 843c
00000170: b38e 4d3d bfde d9bc f1cd b93b 2e70 cdbc
00000180: f02e a03c c13f ccbd d7e7 953d cd1a 1bbd
00000190: 1c08 73bc 31f5 4b3d 9c37 4e3d 1be6 61bd
000001a0: 7bb3 a23d 8894 8a3c 4cdf 7abd ebe0 90bd
000001b0: 0295 253d 2553 18bc f79e 703c 4762 2a3d
000001c0: 03f3 c63c 7493 33bd 2ed5 5abc 6b8e f13d
000001d0: 9efa 83bd d384 66bc 93e9 05bd b7e7 9dbd
000001e0: 4b4c 4fbe 1b18 133d 2b3a 0fbe 3735 03bd
000001f0: b5f5 5ebd 5459 f63c 8935 273d 2271 2a3d
00000200: 5c7e 89bb 543f d2bd c0be 0b3d d470 ad3c
00000210: 5a46 e4bc fa60 613d d4db 1e3e 14aa 423d
00000220: 87c4 a9bc de91 72bd f635 963d cb58 743d
00000230: 7c89 1abd 383b 5aba 2222 913d dde0 9fbd
00000240: 3d28 e8bc 85e6 b43d b0a7 51bd be9a d83d
00000250: 2c6a 773d 0e4e d83c 1e36 d53c de1d 59bb
00000260: 9e66 d93c 43f7 cfbd 9da4 c2bc 2cc2 113d
00000270: ccc8 a93c 80bd 833c 8e60 97bd e496 e6bc
00000280: 7120 143d 7e7c 9b3d a001 a4bb bc8e 9d3d
00000290: bcf8 c33c 8884 d93c 458a 90bc 3ccd bcbd
000002a0: d111 06be ea09 c63d 8e72 30be 65de e0bd
000002b0: 27bd 3c3e 70de d5bd afe2 bd3a b192 76bc
000002c0: a5c7 0bbc 5462 f23c a0c2 413d 1c9c 9fbc
000002d0: 868b 68bd 6276 3d3e 7efc 0fbd 5fce af3d
000002e0: 117d 4bbe 0c28 383d 28b8 5cbd 0ed4 1a3d
000002f0: af9c 853c 4eab 703d 69be bcbd 2627 4a3c
00000300: 91c3 003e 44c3 f53c 7c0b b8bd 53c7 ac3d
00000310: 219e 323d 8014 963c 1d84 ed3d 82db 3ebd
00000320: 75a0 33bd 5a94 e0bd d344 9b3d 70db b83c
00000330: 3955 8ebd 0423 c5bd dc65 193d f299 823d
00000340: 711f e9bd bba7 3a3d 52ad b53c 2512 1bbd
00000350: 3bc3 97bc 91ac 373d 4608 67bd 31d1 b0bd
00000360: 7980 47bd 4f60 193b 6808 df3c e870 0f3d
00000370: 77f5 de3d 3330 bcbc e594 bcbd 3aff 20bd
00000380: f0cb d9bb e8d9 4d3d 4f28 643d 5eff b5ba
00000390: bfb9 133d 0319 9abd 034a 9d3d 33b7 58be
000003a0: 44c3 ba3d 9582 1c3d fc48 68bd 25ec cabd
000003b0: 72b8 8f38 5e47 363d 9063 83bd 7507 0dbc
000003c0: 6e08 0b3c 4ac9 d4bd b86b 8e3d 8ca9 e1bd
000003d0: 76d3 4fbd 62c3 82bc d2bb 813d 18af ba3d
000003e0: c37e 33be 5b77 7cbd 0c7d f2bb acbc afbc
000003f0: 4948 123c b2ec af3c 751e d7bd 0d5e 753d

model.8.bias f4 [64]
0.04418793 -0.112567686 -0.07114232 -0.10502256 0.06896793 -0.028608017 -0.04380075 0.04445371
-0.18727194 0.03683662 0.091730185 0.11357395 0.015481115 0.04423401 -0.0031814822 -0.19615151
-0.090919636 0.06909059 -0.016070798 -0.12186021 -0.123505965 0.014017204 -0.061951865 0.052646592
-0.014163307 -0.111451514 0.084383026 0.0964685 0.087122925 0.075375736 -0.06664135 -0.12240053
-0.035038263 0.07555458 -0.059766944 -0.021250635 -0.06483272 -0.035049804 -0.10680399 0.013639156
-0.07360487 -0.04869013 0.062133294 0.08775242 -0.0352881 -0.009648734 -0.11143594 -0.13211337
-0.08903806 0.056317344 0.079662375 0.044252943 -0.08340051 -0.056149602 -0.06979687 -0.00043096152
-0.04505815 0.024357561 0.11958987 0.082260236 0.012536199 -0.09251949 -0.012542809 0.017162586
00000000: 67fe 343d e389 e6bd 11b3 91bd 1116 d7bd
00000010: 0f3f 8d3d 5c5b eabc 6a68 33bd 1815 363d
00000020: 37c4 3fbe ffe1 163d 09dd bb3d 7699 e83d
00000030: 81a4 7d3c b92e 353d 6a80 50bb f1db 48be
00000040: 1334 babd 5e7f 8d3d e8a6 83bc d991 f9bd
00000050: b2f0 fcbd 6aa8 653c 3dc1 7dbd f4a3 573d
00000060: 370d 68bc b140 e4bd 02d1 ac3d 4791 c53d
00000070: 816d b23d 985e 9a3d 437b 88bd 21ad fabd
00000080: 4884 0fbd 5cbc 9a3d 2fce 74bd d015 aebc
00000090: 04c7 84bd 6290 0fbd 0dbc dabd c476 5f3c
000000a0: 26be 96bd 4d6f 47bd 7b7f 7e3d 8ab7 b33d
000000b0: 418a 10bd b915 1ebc 8738 e4bd ba48 07be
000000c0: 9659 b6bd 04ad 663d 0726 a33d 9342 353d
000000d0: e3cd aabd 20fd 65bd a9f1 8ebd adf2 e1b9
000000e0: e58e 38bd 8289 c73c 89eb f43d 0e78 a83d
000000f0: a164 4d3c dc7a bdbd 5b80 4dbc 8d98 8c3c

model.10.weight f4 [64, 64]
0.026251206 -0.038945686 0.053605504 -0.07660818 0.051538758 0.036761567 0.017278101 0.028324649
0.08102486 -0.057332445 0.04426288 0.014318427 -0.08808464 -0.06431372 0.11782536 -0.023587411
-0.06308174 -0.08512339 -0.065516986 0.12823641 0.063456915 0.052659765 -0.034516793 0.06592728
0.014534291 -0.05484091 0.03979019 0.018306822 -0.06962326 0.08735707 -0.07902092 0.058439434
0.06395825 -0.000444717 -0.005841066 0.04115017 -0.020042276 0.034256607 0.021416407 0.04193285
0.08250494 -0.10753827 0.12213109 -0.042963732 -0.050010312 0.060341455 0.03257771 -0.0249717
0.051349994 0.026126597 -0.0022787005 0.05804149 -0.0093900375 0.018850729 0.04454 -0.08529914
0.035397436 0.022906307 0.074845895 0.0748242 0.04855596 0.017307734 -0.03142888 0.07842891
-0.07707583 -0.039791886 0.053928018 0.002072552 -0.057087217 0.02857263 0.017741505 -0.09511497
0.12035479 0.02818853 -0.031293426 0.03054611 0.022658205 0.028955486 0.008978111 -0.07456672
-0.0031690497 -0.037614454 -0.03863119 0.089372404 0.08984081 0.0239221 0.018296028 0.0022284559
-0.026784414 0.010705398 -0.032630157 -0.009868311 0.04424608 0.068459 -0.0114622135 -0.05395332
-0.10835065 0.06217007 0.01944865 -0.024763769 -0.07134549 0.05472903 0.02185373 0.01959442
-0.09356308 -0.011773491 0.0198728 -0.08501267 -0.09448599 0.027958218 0.026696261 0.0700321
-0.019073002 -0.036650777 -0.1039424 0.05923117 -0.040360704 0.026989669 0.079518385 -0.06850706
0.018148853 0.09887341 0.024764476 -0.021572925 -0.007868943 0.0046868427 0.016973581 0.022132188
-0.030852422 -0.082408495 -0.030681245 0.00621425 -0.04895634 0.023818001 0.06598451 -0.024799576
0.1247804 -1.7860768e-05 -0.01592007 0.020961476 -0.0135827325 -0.064160764 0.06849874 0.021295814
-0.015683258 -0.10121802 0.023568733 0.13123664 0.05626585 0.07488564 -0.008879363 -0.007929525
-0.021795778 0.07010159 -0.063227765 -0.0074224654 -0.06688454 0.030422406 -0.05313795 0.07088946
0.08755683 0.047826853 0.05203637 0.028737152 -0.066969015 0.0644705 -0.03419881 0.0059386375
0.041909914 -0.17779489 0.028346296 0.08444408 -0.034358174 0.060882125 -0.011209963 0.08065287
0.05035155 -0.060245138 -0.15088518 0.076838695 -0.02748033 -0.05734183 0.075930476 -0.05792138
0.06995028 0.026725044 -0.047353238 -0.04810995 -0.059311938 0.039871674 -0.06012382 0.030248804
0.04804267 0.014929361 0.028975295 -0.08577378 0.010124998 -0.015656158 -0.07459408 0.103937075
-0.005094569 0.0033735284 0.052555572 0.0411368 0.019101465 -0.007794871 0.05074743 0.03817792
0.008270204 0.06373977 0.038005777 0.03784831 -0.10239504 -0.016808609 -0.03899057 -0.021416081
0.012261579 -0.04148193 0.0048450916 -0.010031265 -0.00043704637 0.07142573 -0.051368415 0.028644333
0.16348739 -0.057832103 0.024271192 0.06823709 0.055805385 0.05120937 -0.011656415 0.048225272
-0.042042397 -0.12824894 0.005909155 -0.013971596 0.08938042 -0.0042445743 -0.027693901 0.009184622
-0.067698225 0.08330014 0.16070141 0.044285934 0.078052856 0.048012365 -0.023963537 0.07610294
-0.047284096 -0.009106617 0.09514948 0.070362106 0.052672483 -0.0708841 -0.0030124476 0.088617645
00000000: c50c d73c 8385 1fbd 7291 5b3d c0e4 9cbd
00000010: 4e1a 533d 4c93 163d ce8a 8d3c 1809 e83c
00000020: 5df0 a53d 6dd5 6abd fe4c 353d d697 6a3c
00000030: b865 b4bd e9b6 83bd 6c4e f13d 633a c1bc
00000040: 0031 81bd 2c55 aebd c52d 86bd 6850 033e
00000050: b3f5 813d c4b1 573d 7b61 0dbd e204 873d
00000060: 3c21 6e3c dda0 60bd 0afb 223d 30f8 953c
00000070: a496 8ebd 43e8 b23d b8d5 a1bd 305e 6f3d
00000080: 8bfc 823d e828 e9b9 6a66 bfbb 158d 283d
00000090: b32f a4bc a850 0c3d 7671 af3c c8c1 2b3d
000000a0: 5af8 a83d 063d dcbd dd1f fa3d bdfa 2fbd
000000b0: 9dd7 4cbd 9a28 773d 3470 053d 7391 ccbc
000000c0: 5f54 523d 7207 d63c 4056 15bb eabc 6d3d
000000d0: acd8 19bc d86c 9a3c 936f 363d 51b1 aebd
000000e0: e7fc 103d 02a6 bb3c ce48 993d 6e3d 993d
000000f0: 9de2 463d f3c8 8d3c 92bb 00bd 569f a03d
00000100: efd9 9dbd d1fc 22bd a0e3 5c3d a7d3 073b
00000110: 49d4 69bd 2611 ea3c a256 913c a3cb c2bd
00000120: 927c f63d a2eb e63c 892d 00bd d63b fa3c
00000130: b39d b93c 0e34 ed3c ed18 133c 70b6 98bd
00000140: d5af 4fbb 9d11 1abd bd3b 1ebd e108 b73d
00000150: 75fe b73d 48f8 c33c 8de1 953c 490b 123b
00000160: fd6a dbbc b265 2f3c 33a7 05bd b2ae 21bc
00000170: 613b 353d 3b34 8c3d 02cc 3bbc 28fe 5cbd
00000180: f2e6 ddbd 0ba6 7e3d c652 9f3c 63dd cabc
00000190: 961d 92bd 8c2b 603d 9806 b33c 7a84 a03c
000001a0: 009e bfbd 9ae5 40bc 48cc a23c 1f1b aebd
000001b0: df81 c1bd a208 e53c 1eb2 da3c fd6c 8f3d
000001c0: fc3e 9cbc 201f 16bd c1df d4bd 629c 723d
000001d0: 4451 25bd 7019 dd3c 89da a23d 6e4d 8cbd
000001e0: e7ac 943c 247e ca3d dfde ca3c b4b9 b0bc
000001f0: bdec 00bc 1694 993b 2e0c 8b3c 904e b53c
00000200: 38be fcbc c9c5 a8bd 3c57 fbbc e8a0 cb3b
00000210: 7186 48bd f81d c33c e322 873d 7b28 cbbc
00000220: de8c ff3d b5d3 95b7 cf6a 82bc 67b7 ab3c
00000230: 1c8a 5ebc b866 83bd 1149 8c3d 8f74 ae3c
00000240: 2d7a 80bc 654b cfbd 3713 c13c e662 063e
00000250: 0577 663d a45d 993d bf7a 11bc d7ea 01bc
00000260: 0f8d b2bc 6c91 8f3d 8f7d 81bd 2738 f3bb
00000270: c3fa 88bd 6938 f93c 2ea7 59bd 7e2e 913d
00000280: ff50 b33d 17e6 433d 1724 553d 2d6a eb3c
00000290: 0d27 89bd 1c09 843d 0d14 0cbd e798 c23b
000002a0: bba9 2b3d dd0f 36be 7e36 e83c 05f1 ac3d
000002b0: 28bb 0cbd 895f 793d fea9 37bc 552d a53d
000002c0: 6d3d 4e3d 9bc3 76bd a581 1abe 9b5d 9d3d
000002d0: 6e1e e1bc 44df 6abd 7081 9b3d f83e 6dbd
000002e0: 1842 8f3d 7bee da3c 78f5 41bd f00e 45bd
000002f0: 13f1 72bd 7b50 233d 6544 76bd 57cc f73c
00000300: 64c8 443d 479a 743c 995d ed3c 2aaa afbd
00000310: 52e3 253c 5841 80bc c8c4 98bd f6dc d43d
00000320: 58f0 a6bb 6a16 5d3b 8344 573d 107f 283d
00000330: ad7a 9c3c 1e6c ffbb 8adc 4f3d 7360 1c3d
00000340: c07f 073c ff89 823d f2ab 1b3d d406 1b3d
00000350: 7eb4 d1bd 35b2 89bc 93b4 1fbd c770 afbc
00000360: cae4 483c f5e8 29bd 93c3 9e3b 2d5a 24bc
00000370: 5f23 e5b9 a747 923d b067 52bd 85a7 ea3c
00000380: 3d69 273e 5be1 6cbd 61d4 c63c e3bf 8b3d
00000390: 3094 643d ebc0 513d 8cfa 3ebc dd87 453d
000003a0: a634 2cbd b153 03be 96a1 c13b 1fe9 64bc
000003b0: 150d b73d 1216 8bbb 52de e2bc 197b 163c
000003c0: 5ea5 8abd 4499 aa3d e98e 243e 2b65 353d
000003d0: 2dda 9f3d 9da8 443d 2e4f c4bc dcdb 9b3d
000003e0: f8ac 41bd ec33 15bc bbdd c23d 021a 903d
000003f0: 1abf 573d af2b 91bd 7c6c 45bb 2b7d b53d

model.10.bias f4 [64]
0.049028035 -0.03463138 0.017159142 0.052966513 -0.097181864 -0.0016912399 0.10448715 -0.04015152
-0.10389181 -0.114884384 -0.06769233 0.063687295 -0.078119606 -0.037355725 0.067041874 -0.10425779
-0.021860775 0.117646724 0.11614512 -0.007882307 -0.008495485 0.066398986 0.11253132 -0.077202015
-0.07858562 -0.12719618 -0.011840382 0.023180813 0.09280233 0.0045014895 0.054011513 -0.026441084
-0.09955422 -0.092261024 -0.03187724 0.089107364 -0.10367719 -0.07294076 0.032670747 0.0704177
-0.08951251 -0.056614216 0.054806992 0.062310077 -0.022377646 0.10728006 0.10070157 0.021467162
0.08627178 -0.11828422 -0.018216435 0.09592842 0.036211777 0.062692724 0.0022995826 0.08023503
-0.0048581176 -0.09158401 0.094947815 -0.124151774 0.10765819 -0.038946446 0.013474355 0.07191311
00000000: 9fd1 483d a2d9 0dbd 5491 8c3c 6af3 583d
00000010: 4907 c7bd 98ac ddba 5cfd d53d ec75 24bd
00000020: 3bc5 d4bd 8148 ebbd 47a2 8abd 7c6e 823d
00000030: 2cfd 9fbd 5102 19bd 404d 893d 1c85 d5bd
00000040: 5e15 b3bc c4f0 f03d 7edd ed3d cb24 01bc
00000050: a630 0bbc 31fc 873d d276 e63d 171c 9ebd
00000060: 7ff1 a0bd b73f 02be 29fe 41bc b0e5 bd3c
00000070: 260f be3d 3b81 933b 2d3b 5d3d f99a d8bc
00000080: 15e3 cbbd 59f3 bcbd b591 02bd ec7d b63d
00000090: b554 d4bd f761 95bd c3d1 053d 2837 903d
000000a0: 5652 b7bd 4fe4 67bd 4c7d 603d da38 7f3d
000000b0: 5351 b7bc a6b5 db3d a03c ce3d e7db af3c
000000c0: 42af b03d ff3e f2bd a23a 95bc 1f76 c43d
000000d0: cd52 143d 0b65 803d 98b4 163b 4352 a43d
000000e0: d830 9fbb 6690 bbbd 0074 c23d 4943 febd
000000f0: e67b dc3d 4f86 1fbd 8bc3 5c3c 2e47 933d

model.12.weight f4 [3, 64]
-0.07904881 0.1189558 0.11468159 -0.11756347 -0.057273433 0.06732947 0.104885146 -0.06610817
-0.09156996 0.11016329 0.02749724 -0.08210088 -0.048844527 0.12872328 -0.09333264 -0.09868888
-0.10803321 -0.06400399 0.0789904 0.10053963 0.12347412 0.10821163 -0.13100305 0.1513027
0.087694444 0.16572414 -0.07804786 -0.11010871 0.10247457 0.09298115 -0.106342405 0.12822013
-0.05620461 -0.13964672 0.120439924 -0.08336228 -0.09679556 -0.10808281 0.109702066 0.06571266
0.12759449 -0.1190887 -0.06405179 0.0016246195 -0.044130977 -0.104213126 0.07117947 0.12774092
-0.05751085 -0.08552458 0.14975011 -0.06507277 0.017536957 0.12194225 -0.101068676 0.12750822
-0.115202606 -0.03253061 -0.14211988 0.13031104 -0.06090711 -0.05876033 -0.065061085 0.049882613
0.15447764 0.053124387 0.10791182 0.13063572 0.09425757 -0.04201136 -0.07334883 -0.15281057
0.1127107 -0.064039506 0.117507346 -0.1393725 0.1333151 -0.10683683 -0.112160064 0.10605687
0.14299625 -0.11019944 0.13755909 -0.11451836 -0.12213835 -0.14166634 0.11785192 -0.09754594
-0.089967504 -0.08150907 -0.14336602 -0.067874625 -0.07024475 0.118629605 -0.0824676 -0.046081785
-0.07425204 -0.116263084 -0.13439946 -0.12836173 -0.13406393 0.11442713 -0.14240648 -0.14647129
-0.05755431 -0.12992495 -0.1349916 0.1459738 -0.037790135 -0.104792796 -0.14995141 -0.09000335
-0.09792984 -0.12822826 -0.098518714 -0.15698099 -0.13164444 0.12804736 0.1272427 0.04244396
0.12807415 0.13951738 -0.042276945 0.1524547 -0.08603053 -0.130466 0.14334846 -0.12556222
-0.032939218 -0.020252634 -0.08839848 0.06985766 -0.061779324 0.055870164 0.04130249 -0.10713214
-0.020638313 0.13705908 -0.10610512 -0.002339176 0.05627767 0.08345603 -0.11444974 -0.07902533
-0.076580085 -0.106574744 0.027198456 -0.12050162 0.049338095 0.1370456 0.039459668 -0.019031413
0.10871043 -0.054071575 0.12631884 -0.0773532 0.00046840357 0.12612015 -0.13695963 0.13649635
0.09121558 -0.0216609 0.075901166 0.14477198 0.10646217 0.003636545 0.012685573 0.040250022
-0.034984834 0.014809202 0.062643304 0.097749084 -0.04682482 0.13525298 -0.11387503 -0.03957746
-0.0739769 0.022336688 -0.018798742 0.10338135 0.12499323 0.07098029 -0.039701898 -0.10004807
0.088923156 -0.07517845 0.023195645 0.017689833 -0.14083976 -0.12914419 0.12480625 0.032378115
00000000: 58e4 a1bd 199f f33d 2ede ea3d 1ec5 f0bd
00000010: 8c97 6abd 08e4 893d 06ce d63d b863 87bd
00000020: 0889 bbbd 4a9d e13d e441 e13c 8224 a8bd
00000030: 3311 48bd 09d0 033e 2f25 bfbd 651d cabd
00000040: 8440 ddbd 8614 83bd b8c5 a13d b9e7 cd3d
00000050: 00e0 fc3d 0f9e dd3d aa25 06be 18ef 1a3e
00000060: 2599 b33d 97b3 293e 8ed7 9fbd ad80 e1bd
00000070: 30de d13d e76c be3d 0cca d9bd 234c 033e
00000080: ce36 66bd 8dff 0ebe 35a9 f63d d8b9 aabd
00000090: c03c c6bd 855a ddbd 7aab e03d 5c94 863d
000000a0: 21a8 023e c7e4 f3bd 962d 83bd 2ff1 d43a
000000b0: afc2 34bd b16d d5bd 8bc6 913d 84ce 023e
000000c0: 7f90 6bbd 8327 afbd 1858 193e df44 85bd
000000d0: aaa9 8f3c dcbc f93d 18fd cebd 8491 023e
000000e0: 58ef ebbd d13e 05bd e087 11be 4270 053e
000000f0: bc79 79bd acae 70bd bf3e 85bd b651 4c3d
00000100: 632f 1e3e f598 593d df00 dd3d 5fc5 053e
00000110: 1d0a c13d 1b14 2cbd e937 96bd 607a 1cbe
00000120: ded4 e63d 2527 83bd b1a7 f03d aab7 0ebe
00000130: c183 083e 45cd dabd 2db4 e5bd 5834 d93d
00000140: 9c6d 123e 3eb0 e1bd 4adc 0c3e 9a88 eabd
00000150: ac23 fabd fb10 11be 595c f13d 2ac6 c7bd
00000160: e240 b8bd 3aee a6bd 8bce 12be da01 8bbd
00000170: 7bdc 8fbd 14f4 f23d c6e4 a8bd 41c0 3cbd
00000180: 7411 98bd 571b eebd 03a0 09be 4271 03be
00000190: 0e48 09be c558 ea3d 01d3 11be 92fc 15be
000001a0: 11be 6bbd 0c0b 05be 3d3b 0abe 287a 153e
000001b0: d4c9 1abd 9b9d d6bd dd8c 19be ad53 b8bd
000001c0: 718f c8bd 454e 03be 2ec4 c9bd a0bf 20be
000001d0: cdcd 06be d91e 033e e94b 023e b8d9 2d3d
000001e0: df25 033e a5dd 0e3e 972a 2dbd 161d 1c3e
000001f0: c630 b0bd e198 05be f0c9 123e 6293 00be
00000200: 46eb 06bd dae8 a5bc 430a b5bd 8811 8f3d
00000210: 510c 7dbd 1dd8 643d cd2c 293d 1868 dbbd
00000220: ae11 a9bc 3759 0c3e a44d d9bd dc4c 19bb
00000230: 6a83 663d ffea aa3d a064 eabd 08d8 a1bd
00000240: 05d6 9cbd dc43 dabd 4ccf de3c 8ec9 f6bd
00000250: be16 4a3d af55 0c3e 76a0 213d c4e7 9bbc
00000260: 93a3 de3d 287a 5dbd ba59 013e 5b6b 9ebd
00000270: 1094 f539 a425 013e 253f 0cbe b3c5 0b3e
00000280: 3ccf ba3d 3372 b1bc 1272 9b3d 1b3f 143e
00000290: d708 da3d 1a53 6e3b 26d7 4f3c 35dd 243d
000002a0: 424c 0fbd 4ca2 723c 224b 803d ac30 c83d
000002b0: 62cb 3fbd c27f 0a3e 5037 e9bd fa1b 22bd
000002c0: 3381 97bd 6efb b63c d2ff 99bc 9ab9 d33d
000002d0: 73fc ff3d 1d5e 913d 759e 22bd 01e6 ccbd
000002e0: 581d b63d 29f7 99bd cb04 be3c 45ea 903c
000002f0: 4c38 10be 603e 04be 6b9a ff3d ea9e 043d
