pinn_ns/conversion/snnmodel32.pth (torch, 90302 bytes, 14 tensors)

model.0.weight f4 [64, 3]
00000000: 1577 5ebf 92c3 cbbd 9656 86be 80f3 a8be
00000010: 27d0 0e3f 974e 8c3f fe45 093f d228 4e3e
00000020: 05a5 ddbd 1356 b5be e765 113f b3c4 fbbe
00000030: a86f cf3b 0ca0 503d 78bf 19bf 03ba 97bd
00000040: 75fd a5be 3864 0d3f 5cf3 90bc d856 723e
00000050: 8113 563f 9ca4 4b3e deaf 353e da93 40bf
00000060: 7a02 663e 1191 b83d 7073 b1be 58cb afbe
00000070: bbbf 0a3e fd44 3dbf 93e2 05bf 1c25 e7be
00000080: 3eab 523d 1df8 e43e a6a5 0fbc 95b0 5dbe
00000090: e9fd 5e3f 103f c23d 2d3c 8dbe dbe1 60be
000000a0: 144c 40bf 7f06 21bf c06b b13e 7c29 39be
000000b0: 79f9 203e f601 02bf 5057 9b3d 2554 58be
000000c0: 8ffd 463e 6c43 08bf 2f14 403c 385c f0be
000000d0: 8119 e4bd 476c 0bbe 99f3 86be 19cd 0d3e
000000e0: 6a36 2cbf 6e47 e8be 0f2a d2bd 8515 6fbe
000000f0: 5434 afbe 0f76 043f af10 9cbe 2294 d63d
00000100: 1340 0abf 9f58 1fbf b600 193f 529c 9abd
00000110: cd6f 263f fa42 323e 5fa7 2f3f c7a5 9ebe
00000120: 8a02 9d3d ef5f 293f 3948 77bf 9457 773d
00000130: 6d66 0bbf ff26 16bf f863 643d 480f 15be
00000140: 4002 363f 6f0a a3be afba f8bd e40c 253f
00000150: e243 9b3e 85e8 e73e c6f0 5ebf 8cfe 90be
00000160: b621 3fbf 62a4 0ebf 86a0 d1bd 30f6 73be
00000170: 13d3 f2be e8f7 f33e f89c acbe 3141 96bf
00000180: 78ea 4c3f 193c 88be d5a2 46bf 6dae 87be
00000190: 0134 b33e 2a7e bb3e 9c59 3b3e 42ba 2d3e
000001a0: 4fb1 ce3e 4c87 dc3e 5eea 303f 5a50 b73e
000001b0: 651c 133d 30bd 2fbf 87bc 20bf 96d7 49bd
000001c0: 5939 62bf 16b2 b63e 90e0 143f 0f23 d53e
000001d0: b1b3 1e3f c250 7f3e 5967 11bf ae5c 0c3e
000001e0: 07f8 bfbe 5dc1 023e bf02 f4bd a718 3fbf
000001f0: 22a7 04bd cf97 65be f23b ac3e 15ea 133f
00000200: b3a6 b8bd 8b6a 67bf 4d21 00bc 7ffa fc3e
00000210: da7d 2abf 5ffd 3c3f ab49 07bf e675 0f3f
00000220: 642e b9be 098e bd3e f279 02bf 8595 5abd
00000230: 3541 13bf 34ac d03e 18cd f9be 9775 213f
00000240: b1d5 acbe ed0d 49bf 1853 e8be 1afd 663e
00000250: a450 96be 59bb 1b3f 2fbc 52bf 4487 babc
00000260: 801d c33e 0526 573f de85 6abe 0ef9 de3e
00000270: efca 7a3d 9ad2 c6be aad3 183f c3ce 4abe
00000280: d457 f93c 9efd d63e 31de 6d3f 5f1d 48bf
00000290: 3b2f c8be 4084 7bbe 5e80 94be ae5e 9e3e
000002a0: 5802 c3be 9f26 813e c35e 313e ceeb c23e
000002b0: 9b9a c93e 3011 673f 4ecf 4dbf 7c66 823d
000002c0: b6cd 4abe 0676 1dbf b149 3d3f c0a3 ad3e
000002d0: 4f63 45be 5e29 f93e a061 5f3e 4a96 9ebe
000002e0: 2787 07bf a619 383d 23b0 17be 9c3d 453d
000002f0: bd97 1bbf 4264 17bd e1e9 223d 3b37 523f
-0.86900455 -0.099494115 -0.26237935 -0.32998276 0.55786365 1.0961484 0.53622425 0.20132759
-0.108224906 -0.35417232 0.56796116 -0.49173507 0.006330449 0.050933883 -0.60057783 -0.07408526
-0.32419935 0.55231047 -0.017694168 0.23665941 0.8362351 0.19887012 0.1774287 -0.75225604
0.22461882 0.09012044 -0.34658384 -0.34334826 0.13549702 -0.7393339 -0.5229885 -0.451455
0.05143284 0.44720545 -0.008767521 -0.21649392 0.87106186 0.094846845 -0.27584973 -0.21961157
-0.75116086 -0.6290054 0.3465252 -0.18082231 0.15720166 -0.5078424 0.07585013 -0.21125849
0.19432662 -0.5322788 0.011723562 -0.46945357 -0.11137677 -0.13615523 -0.26357725 0.1384777
-0.6727053 -0.45366997 -0.10261928 -0.23348053 -0.3421961 0.51742643 -0.3048148 0.10477473
-0.5400402 -0.622446 0.5976671 -0.07549347 0.65014344 0.17408362 0.68614763 -0.30985853
0.076665 0.6616201 -0.9659458 0.060386255 -0.54453164 -0.58653253 0.0557594 -0.1455661
0.71097183 -0.31843898 -0.12144982 0.64472795 0.30325228 0.45294586 -0.8708614 -0.28319204
-0.74660814 -0.5571958 -0.102356955 -0.23824382 -0.47426662 0.47650075 -0.33713508 -1.1738645
0.8004527 -0.2660835 -0.7759221 -0.26500264 0.35000613 0.36619693 0.18295902 0.16965583
0.4036965 0.43071973 0.69107616 0.3580349 0.03591575 -0.6864805 -0.6278767 -0.049277864
-0.88368756 0.35682744 0.58155155 0.4162831 0.6199294 0.2493315 -0.5679832 0.1370723
-0.37493917 0.12769075 -0.11914586 -0.7464699 -0.032385953 -0.22421192 0.33639485 0.57779056
-0.0901617 -0.90396947 -0.0078204395 0.49409863 -0.66598284 0.73824114 -0.52846783 0.56039274
-0.36168206 0.37022427 -0.50967324 -0.05336525 -0.57521373 0.4075638 -0.48789287 0.6307005
-0.33756784 -0.78536874 -0.45375896 0.22557488 -0.293584 0.60832745 -0.82318395 -0.022769578
0.38108444 0.8404239 -0.22902629 0.4354939 0.06122869 -0.3883255 0.59697974 -0.19805436
0.030437388 0.4199037 0.9291716 -0.78169817 -0.39098534 -0.24562168 -0.29004186 0.3093161
-0.38087726 0.25224778 0.17321305 0.3807053 0.39375767 0.902606 -0.80394447 0.063672036
-0.19805035 -0.61508214 0.7394057 0.33913994 -0.19276164 0.48664373 0.21814585 -0.30974036
-0.529406 0.044946335 -0.14813285 0.04815446 -0.6077841 -0.036960848 0.039773826 0.82115525

model.0.bias f4 [64]
00000000: 1755 08bf b0c9 923e ee0e a8be 116b 9abd
00000010: 69ee 97be e827 3ebe 4daa 033f 123c ba3e
00000020: c906 6abd 467f 333d 0dcb 5ebd e070 143d
00000030: aef8 f9be 1c48 0bbf 5479 d23c 0874 643e
00000040: 67d7 173e 173c 3fbd d1f5 723e 8157 a4be
00000050: 0147 5d3d cbe2 5c3d 6c96 023e d5d9 773e
00000060: 040e 493e 897f e53c 5647 2abe 5faf 413d
00000070: 49ef 363d 82b9 a13e e1c2 9fbe 7e8e 6a3d
00000080: 4706 a23e cda7 303d e053 ecbe fe57 2abd
00000090: 0c75 d23e 2bd3 133f c31a 5fbe fe1f a8be
000000a0: 5adc 313e 2eb2 fe3e 7b3d e6be c5bc e13e
000000b0: 2c43 82be 22a8 df3e f105 bb3e 4be6 b33e
000000c0: 4a8d 9f3c d82d dcbc 3292 d9be c8ea 133f
000000d0: 1a0b 013e e479 cebd 36bf 4fbe 44e8 0fbf
000000e0: ac3a e8bd 8acb 36bd 9ac0 05bf 53d0 5b3e
000000f0: 5c2c 3a3e 40d4 b73e ea3d ebbe 7eff 083f
-0.53254837 0.286695 -0.3282389 -0.075399525 -0.2967408 -0.1856991 0.51431733 0.36373955
-0.057135377 0.04382255 -0.054392863 0.03624046 -0.4882254 -0.54406905 0.02569262 0.22309887
0.14828263 -0.046688166 0.23726584 -0.3209801 0.054022793 0.053927224 0.12752694 0.2420419
0.19634253 0.028014915 -0.16628775 0.047286388 0.044661794 0.31586844 -0.31203368 0.057264797
0.31645414 0.043128777 -0.46157742 -0.041587822 0.41104925 0.5774409 -0.21787553 -0.32836908
0.17369214 0.49745315 -0.4496878 0.44089332 -0.25441873 0.43682963 0.3652797 0.35136637
0.019476552 -0.026877329 -0.4249435 0.5778012 0.12601891 -0.100818425 -0.20287785 -0.56213784
-0.11339316 -0.044627704 -0.5224701 0.21466188 0.18180984 0.3590412 -0.45945674 0.5351485

model.2.weight f4 [64, 64]
00000000: d79a 3ebe c85e 553e 9aef 1a3d b7ba 4dbd
00000010: c23b 08be 2483 bb3d ac05 f23c a7ca 53be
00000020: 76d2 d93c 4180 94be 3920 033b beec 993d
00000030: be76 43bd fed3 7abe 0141 083e 4bf6 31be
00000040: c53d d6bc 5064 9abd 263f 1dbe 44fc 43ba
00000050: a5c8 e4bd a368 8bbd 9cc9 4f3e 34e6 603c
00000060: f159 c3bd 9a64 8ebd bfc2 293e e0e5 adbc
00000070: b52f c6bc 7f2e 88bd ad53 55be f868 3fbe
00000080: 540c 19be d1bb ad3d 9c2e 193e 7c4f 203d
00000090: e6cf 3ebd 3ad0 04bd 0109 ba3d ad8b a53d
000000a0: c296 cdbd 99b0 17be 37d7 abbc 4aa5 59bb
000000b0: 36a6 913c fa7f f43d 011e 56be 4e09 713c
000000c0: ab48 10bc bbad 113e a4a6 bd3d e928 0b3e
000000d0: 125c 9eba ab04 65bc d2b0 0fbe c0e1 803d
000000e0: 3937 c93d 4074 643e 2a71 71bd 8f45 813d
000000f0: d5c6 103e a0d5 db3d 2589 01be bf24 043e
00000100: d346 c6bc 82b2 10be 45f6 47bd ccbd 203e
00000110: 7976 34bd e559 14be 4259 4ebd 526c 2dbd
00000120: 623f d0b8 0f89 4a3e d31a 17bd 0ca0 d73c
00000130: baa2 54bd 116f e93d 4132 8fbd a5fb 5c3d
00000140: b0fa b03d 849b 663e ce86 ba3c a9cb 2f3d
00000150: 4bd1 e93c 4d95 7b3d 3316 04be 9e9b fcbd
00000160: 1abe b5bc 5ba5 1e3e c5b1 efbd 6a26 643d
00000170: b3fb ce3d 7973 ff3d 12ba 883d 6388 e33d
00000180: 1f26 a23d b8f5 00be aa42 aa3b c060 abbc
00000190: 978c bc3d e483 1bbe 3527 8fbb 00d9 643d
000001a0: 4069 ddbd 69d7 c83c f00a bdbd 6d3e 6dbb
000001b0: e9cb 69bc df49 d2bd 3eed 67bd a6e8 89bd
000001c0: 30e3 633d 81e3 c1bd f7df af3d 9c18 273c
000001d0: 5d19 a9bb 4893 9abd 0c2d 15bd 7b82 b73d
000001e0: 1c21 8b3d 9ce1 81be a03c 84bc 7f78 00be
000001f0: 3779 d23c 9896 e9bc ba7c af3d 6924 a03c
00000200: 4982 0cbe f925 a7bd 1ac4 3e3e 2a2a 68bd
00000210: 24d0 4a3c 1349 c0bd 93a8 9e3d 8ff6 8bbd
00000220: a5ca d73d 9fdd 05be c46a 7fbe 76da 033e
00000230: 612c 7f3e 9466 b5bd 88f3 c73d d97e 80be
00000240: 5f2f 383d 84b0 b1be 88c4 00be 2e35 593c
00000250: d56b 6abd 17a9 89bd 4378 773e d66d 243e
00000260: dc84 003d e124 98bd f975 ba3c bf87 46be
00000270: 2f7d 3f3c e499 e5bd 7285 d1bd 414c fa3d
00000280: 866f 4e3e a35f c7bd dade 4a3e aa4f 3d3e
00000290: ea3a 05bd 10a9 003e beeb a23e 7c79 0a3e
000002a0: c5ce 35be 10f7 78be 7ecc 0c3d 4b16 86be
000002b0: 37b3 9cbd fda3 bd3d cfe6 5bbe 9f5d c63c
000002c0: 90dc 42be 222f 103e d59b babd 994c 133e
000002d0: aa21 273e 1358 83bd 11fb de3d 20a4 743d
000002e0: b63e 3fbe 09f4 6c3e 5c27 21be e4ea 1ebe
000002f0: 6c31 e1bd a92f f7bb c1a7 26bd 5257 76bd
00000300: 5a48 f23c e8fa 5bbd 12bb 833d ff01 82bd
00000310: 3862 99bd 93f9 8d3e 9663 be3d 3bcd 82be
00000320: 7c49 33be c526 253d a278 843d a115 44be
00000330: f264 913d 1172 4f3d e66d 6d3d 9e9a d53d
00000340: f338 003d 8a85 583c 2e3f 22bd e5b5 a1bc
00000350: ce3e 843d a021 c2bd deae 693d 7a4c 9dbb
00000360: 2542 21be edc1 813d f067 03bc 43f4 d43d
00000370: 4dba 31be 00ff 75be 917d d63c a30d 4f3d
00000380: 07d2 20bd f1d8 a7bc d414 9a3d e43f a93d
00000390: 64d1 2fbe 166b 9ebd 9488 063e 10e9 b13d
000003a0: a3f7 ec3d c096 f83d 5ff4 7cbc 1142 3a3d
000003b0: fb42 24be 3484 88bd 0a49 b83d e9b4 d73c
000003c0: 9841 c1bd 303c 1c3e fc76 ce3d c36f c13d
000003d0: 0311 8ebc d87e a73d e326 6bbc 34c2 dfbd
000003e0: 5b3d 05bc de1c ae3b 5e54 863d e295 06bd
000003f0: 595c 9d3b 7dbd ae3d 1426 76bc 92e4 eabc
-0.18613754 0.20836937 0.037826158 -0.050226893 -0.13304046 0.091558725 0.02954372 -0.20682774
0.026589613 -0.290041 0.002000822 0.07515858 -0.047720663 -0.24494931 0.13306047 -0.1737911
-0.0261525 -0.07538664 -0.1535612 -0.000747625 -0.111710824 -0.06807067 0.20291752 0.01372676
-0.09538639 -0.06952782 0.16578196 -0.021227777 -0.02419267 -0.066494934 -0.20832701 -0.18692386
-0.14946109 0.08483089 0.14959186 0.039138302 -0.046584986 -0.032425143 0.090837486 0.08083282
-0.100385204 -0.1481346 -0.020976646 -0.0033210092 0.01777945 0.11938472 -0.20909883 0.014711691
-0.008806388 0.14226429 0.092603 0.13589825 -0.0012081882 -0.013978164 -0.14032295 0.062930584
0.09824986 0.22309971 -0.058945812 0.063120954 0.14138348 0.10734105 -0.12649973 0.12904643
-0.024203693 -0.14130595 -0.048818845 0.15697402 -0.044058297 -0.14487417 -0.05037809 -0.04233963
-9.930019e-05 0.19778846 -0.036890816 0.026321433 -0.051913 0.11398137 -0.06992007 0.053950924
0.08641565 0.22520262 0.022769358 0.042918835 0.028542181 0.06142168 -0.12899093 -0.12334369
-0.022185374 0.15492766 -0.11703829 0.055700697 0.101066016 0.124731965 0.06676115 0.11109998
0.07917427 -0.12593734 0.0051959353 -0.020920157 0.09206503 -0.15187031 -0.0043686875 0.05587101
-0.108110905 0.024516778 -0.09230602 -0.0036200539 -0.014269807 -0.10267996 -0.056622736 -0.06733827
0.055636585 -0.09467221 0.0858764 0.010198738 -0.0051604942 -0.07547623 -0.036419913 0.08960434
0.067934245 -0.2536744 -0.01614219 -0.12545966 0.025692565 -0.028514192 0.085687116 0.019548612
-0.13721575 -0.081615396 0.18629494 -0.056680836 0.012378726 -0.09388938 0.07746997 -0.06834137
0.10536698 -0.13072823 -0.24943072 0.12876305 0.24919273 -0.08857456 0.09763247 -0.25096777
0.04496705 -0.34704983 -0.1257497 0.013257308 -0.057231743 -0.067217045 0.2416697 0.16057524
0.031376705 -0.07428909 0.022761332 -0.1938772 0.011687561 -0.11210993 -0.10230531 0.122215755
0.2015973 -0.09735038 0.19811574 0.1848742 -0.032526888 0.12564492 0.31820482 0.13522905
-0.17754658 -0.24312997 0.034374706 -0.26188883 -0.0765137 0.09259794 -0.21474765 0.024214564
-0.1902945 0.1408048 -0.09111754 0.14384688 0.16321436 -0.06413283 0.10887731 0.059726834
-0.18676266 0.23139967 -0.1573767 -0.15519291 -0.109957546 -0.0075435233 -0.040687326 -0.06014187
0.029575516 -0.05370608 0.06432165 -0.06348037 -0.07489437 0.27729473 0.09296338 -0.25547203
-0.17508501 0.040320177 0.064683214 -0.19148876 0.07099332 0.05064589 0.057966135 0.104298815
0.03130431 0.013215432 -0.039611034 -0.019740054 0.064572915 -0.0947907 0.057051532 -0.0048003765
-0.15747888 0.063358165 -0.008020386 0.10398152 -0.17356224 -0.24023056 0.026182922 0.050550114
-0.039262798 -0.020489188 0.07523504 0.08264139 -0.1716972 -0.07735269 0.13138038 0.08687031
0.115706705 0.12138128 -0.015439122 0.045473162 -0.16041176 -0.06665841 0.08998306 0.026331382
-0.09436339 0.15257335 0.10081288 0.09445145 -0.017342096 0.081784904 -0.014352533 -0.10925713
-0.008132304 0.0053135 0.065590605 -0.032857783 0.0048022685 0.08532236 -0.015023727 -0.028673444

model.2.bias f4 [64]
00000000: c83b 483d 2750 83bd 24dd 223d a9bb cfbd
00000010: 1e6d abbd f7d1 29bd 0638 ae3d e4c8 71bc
00000020: f5b6 8b3d 0465 143e f3c1 eabd 2726 803c
00000030: d2fe 9a3c d3f6 11bb 5f10 e9bd a8a0 96bd
00000040: 4be5 d9bd cff4 3e3d a3b0 2f3d 01b3 d93d
00000050: 41e4 0abe d503 eb3c 5b06 5f3b e0d7 ae3d
00000060: 31a4 643e 5c13 2c3d e684 fdbc 2beb 89bd
00000070: 1a0b 15be 49a7 43bd 34ff 443d 6ddf cdbd
00000080: 2ea1 563d 09e1 6dbd 69b8 3dbe 0dbc 3e3d
00000090: 75f8 a3bb ebc7 0b3d a5ec fabb 97c5 a43d
000000a0: 943e eb3c 8fff 263d aa9b cfbd 7bc2 99bd
000000b0: b147 b3bd 6039 963d fa83 c8bd 6d85 053c
000000c0: 5be8 6cbc b126 323d 4464 353b 1beb ac3c
000000d0: 2267 8fbd 69ab a83d 5ae7 903c bdb2 6ebd
000000e0: dc5b 10be 28e6 62bc 8971 c7bd 730d 643d
000000f0: 1aad a63d c2fb 34bb 0d2a 9fbb 55de 9b3c
0.048885137 -0.06411772 0.039761677 -0.10143215 -0.08370422 -0.041460004 0.085067794 -0.014757369
0.06822006 0.1449166 -0.11462774 0.015643192 0.018920336 -0.0022272363 -0.11380076 -0.073548615
-0.10639437 0.046620186 0.042893063 0.106298454 -0.13563634 0.02868835 0.0034030888 0.08537269
0.22328259 0.04201065 -0.03094716 -0.06734308 -0.14555016 -0.047766957 0.048094943 -0.10052381
0.052399807 -0.05807594 -0.18527378 0.046566058 -0.0050039836 0.034126204 -0.0076576048 0.080455
0.028716363 0.040771063 -0.101371124 -0.07507797 -0.087539084 0.07335162 -0.097907975 0.008149487
-0.014459695 0.04349393 0.0027678171 0.0211082 -0.07002093 0.08235819 0.017688442 -0.058275927
-0.14097542 -0.013848819 -0.09738452 0.05567689 0.08138485 -0.002761588 -0.0048573078 0.019026915

model.4.weight f4 [64, 64]
00000000: c3e4 fabd 2d81 bebd b689 163e 5461 1dbe
00000010: 5287 f83d 9885 d73b de43 efbc e694 e2bd
00000020: 5e7c a23d d81a 943d 3a0d cd3d 7ad7 08bd
00000030: 9d36 e5bb b497 b23d eb12 343d 0d6b 183c
00000040: 7e3d 04be 4e8b b43d 2cad e73d 158d 163d
00000050: 0283 93bd b594 853d 5302 fc3b 5404 2f3d
00000060: a78e 7fbd 58fc e5bd 8092 d13b 1d03 9e3c
00000070: e377 d1bd ad48 45bd 49e3 5fbd 40ce 033d
00000080: d5f9 413e df80 9ebc d06b 4fbd 7d73 d4bc
00000090: a8f3 29bd 4908 b6bc d43b 72bd 4fb7 213d
000000a0: e3bd a83a 6083 15bd 9ec4 533e 920a bbbd
000000b0: f623 46be 46b3 433b 80d3 aebd 7360 e8bd
000000c0: ccee 04bd c22a 06be f62c 893d 3578 c6bd
000000d0: ba19 ccbd 5ce4 903d 9b1a 373e e2ed 1e3c
000000e0: d8ad d7bc 8ed6 743d be99 b0bd d757 dabd
000000f0: 1404 82bd 77aa 573d a216 a43c 2bcb c4bd
00000100: 9903 613e 1044 e5bc 975a 453e b056 053e
00000110: 3f8e 16bd a404 a13d 63d0 02be 497a 343d
00000120: 199e 24be df3f d33c c9c9 3bbe 9dbc 85bd
00000130: 92ed 0b3d cae6 34be 3a4c ed3d 9102 00be
00000140: 995c 993d cab2 8ebc 7efd 1d3e ff39 98bc
00000150: 8493 cdbc c8b9 43bd deca 88bb 950a f5bd
00000160: 0f57 923d a071 85bd 99ef b8bd b96f 39bd
00000170: 306e 2a3e 8ff2 cf3c 28f3 b03d f054 acbd
00000180: 5872 44be efcf efbd db45 c6bc e4cc 50bd
00000190: 323c 013d 3294 69bc 5249 52bc f135 633e
000001a0: c512 fd3d 70c7 edbc 41c7 50bd 430e 313c
000001b0: 2b9b 16be ca1e 0d3e dc60 f03c 7af2 073e
000001c0: 7ea6 12be 2466 e63d cfd5 1a3d 6031 4b3d
000001d0: a572 5cbe 1cf4 83be bd28 adbb da30 09be
000001e0: 4a6a 063d 85d7 dabd 6d0c abbc 3f9d 7a3d
000001f0: 5a51 093e e8b6 103e b4ea 37bb f655 08bd
00000200: 9697 f2bb d7ba 043d 97f8 093e 9e1a 643e
00000210: 15e5 093e 7be2 4abb a8aa 923d a4fd 9f3d
00000220: 4504 a1bd 8605 823d 4743 a9bc 5813 b43d
00000230: ae20 81bd 84ab c43b 11cd 9bbd fade 9a3d
00000240: c1ab b1bd 93ec a7bc ca89 3dbd b1ff 163e
00000250: c722 49bc b676 3f3d 4de3 e3bd 96c0 4cbd
00000260: 8482 513e 3a4d e0bb 0e97 f93d 1be4 8dbd
00000270: b003 633d d897 c43d 67a8 44be 8675 35bd
00000280: c470 99bd 14b4 60bb fa13 3dbe 2cc6 38bd
00000290: 225d 383e c3a5 253d 570a d83c 1632 a0bd
000002a0: 3409 00bd 0fd5 cc3c 5d0d 34bd d34d 89bd
000002b0: a9ec c6bd d774 3b3d d2c3 53bd d7e4 823d
000002c0: 57ea 3cbd 9456 efbc e8a2 0ebe b847 fe3d
000002d0: 681e afbc c6b0 efbd 6a5f 0f3e 5f8a 253e
000002e0: fefd f3bd a808 813c 91be ffbd 0a55 05bd
000002f0: 8449 29bd ab12 fd3d 9504 c3bc 041f cebc
00000300: 3816 a53e 372f 3abe 8c70 013f c2e1 05be
00000310: 4bd0 40bd 2118 90bb 6887 8d3d b60c e43c
00000320: f011 0c3e 135a 0c3d edfb ed3c fcfd 5ebd
00000330: 4119 70bd b082 de3d 31be 89bd 93a8 aebe
00000340: 7e7e 42bd 1511 453d b398 e33d 801c f23d
00000350: acf9 a3bb ae07 9bbd bf18 0d3e b179 893d
00000360: dd98 b23b 1a7a d8be 5908 e8bd afcc 6bbe
00000370: fb51 bf3c 1496 1abe 9f38 2a3e 4beb 8bbc
00000380: 624f ae3c 3333 e73d 18af b73d b4d1 2b3e
00000390: 1813 3ebe b3ef 743d 8e2c 4dbe d2a5 aabd
000003a0: 29bc 323d e085 a7bd c2cb c6bd e8c7 c93d
000003b0: 4abc c0be 246a a63d bad8 85bb 4cfc 8fbd
000003c0: c607 dc3c b5a4 bebd d365 b13d 4abb d13d
000003d0: 83c8 98bd b23c 8bbd ba85 64be f297 0fbe
000003e0: b720 cf3d d6f5 e23d b999 583e 217d 613d
000003f0: 27e5 28bc 7a1e 1c3e 6917 ae3d 132e 89bd
-0.12250664 -0.09301982 0.1470097 -0.15369159 0.12135185 0.006577205 -0.029207166 -0.110635564
0.079338774 0.072316825 0.100122884 -0.03340862 -0.006995036 0.08720341 0.043963354 0.009302867
-0.12914082 0.08815633 0.11312327 0.03675564 -0.07202722 0.06522504 0.0076907068 0.042728737
-0.062391903 -0.112297714 0.006395638 0.019288594 -0.10227945 -0.048165012 -0.054660115 0.032179117
0.1894296 -0.01934856 -0.050639927 -0.025933975 -0.041492134 -0.022220748 -0.059139088 0.039481457
0.0012873973 -0.036502242 0.20680472 -0.091328755 -0.19349656 0.0029861494 -0.08536434 -0.11346521
-0.032454297 -0.13102248 0.06698029 -0.096908964 -0.099658445 0.07074806 0.17881243 0.00970027
-0.026328012 0.059774928 -0.08623074 -0.10661285 -0.06348434 0.052652802 0.020030323 -0.09609064
0.21974029 -0.027986556 0.19272839 0.1302135 -0.03675675 0.07862213 -0.12774806 0.044061933
-0.16075934 0.025787292 -0.18338694 -0.06530116 0.03416211 -0.17666164 0.11586805 -0.12500979
0.07488365 -0.017419238 0.15428731 -0.018582342 -0.025094755 -0.047784597 -0.0041745743 -0.11964909
0.07145511 -0.06515813 -0.090300746 -0.045272563 0.16643596 0.025384216 0.086401284 -0.08414638
-0.19184244 -0.11709582 -0.024203232 -0.05097665 0.031551547 -0.014256524 -0.012834864 0.22188546
0.12357096 -0.029025763 -0.050971273 0.010806623 -0.1470763 0.13781276 0.029343061 0.13276091
-0.14321324 0.112499505 0.03780156 0.049607635 -0.21528108 -0.25772178 -0.0052843974 -0.13397542
0.03281621 -0.10685638 -0.020879949 0.061185118 0.1340994 0.14132273 -0.0028063478 -0.033285104
-0.0074033244 0.032404747 0.13473736 0.22275779 0.13466294 -0.0030957747 0.07161456 0.0781205
-0.078621425 0.0634871 -0.020661963 0.08792752 -0.06305061 0.0060018916 -0.07607473 0.07562061
-0.086753376 -0.02049855 -0.046273984 0.14745976 -0.012276358 0.04674407 -0.111273386 -0.04998835
0.20459944 -0.0068451436 0.121870145 -0.06928273 0.05542344 0.095992744 -0.19204865 -0.044301532
-0.074922115 -0.0034287022 -0.18464652 -0.045110866 0.18004277 0.040441286 0.026372118 -0.07822053
-0.031258777 0.025003938 -0.043958057 -0.06704297 -0.09713108 0.045765724 -0.05170042 0.06391304
-0.04612192 -0.029216088 -0.13929331 0.12416023 -0.021376804 -0.11703639 0.14001241 0.16166066
-0.119136795 0.015751198 -0.124875195 -0.032551803 -0.041329876 0.12357076 -0.023805896 -0.025161274
0.32243514 -0.18182074 0.5056236 -0.13074401 -0.047073644 -0.0043974076 0.06910592 0.027838092
0.13678718 0.03426559 0.029050792 -0.054441437 -0.058617834 0.108647704 -0.06725729 -0.34112987
-0.047483914 0.048111994 0.111131094 0.11821842 -0.0050041284 -0.07569824 0.13778971 0.06712664
0.0054503516 -0.42280656 -0.11329717 -0.230273 0.023354521 -0.15096313 0.16623162 -0.01707997
0.021278087 0.11289062 0.08968943 0.16779214 -0.18561971 0.059798907 -0.20036528 -0.08332409
0.043636475 -0.081798315 -0.097068325 0.09852582 -0.37643653 0.081257135 -0.0040846737 -0.07030544
0.026859175 -0.09308759 0.086619996 0.10240801 -0.074601196 -0.06798686 -0.22316638 -0.14022806
0.10113662 0.11082046 0.2115239 0.055050973 -0.01030854 0.15246001 0.08500559 -0.06698241

model.4.bias f4 [64]
00000000: e1fc cbbc b74b d53c bb09 883d bf7f 3e3d
00000010: d88d 76bd d488 a3bd d5d0 dcbc 1f5d c43d
00000020: bb38 f13d 69b3 d03d b484 da3d 3fe2 193d
00000030: 9f35 fd3d ffdb 5fbc b180 f9bd 8f74 c2bc
00000040: ab2d a63d 59ed 6ebd 5574 483c b151 ccbd
00000050: 211a bcbd 2a4e 11be b858 64bd de8f e73c
00000060: fee3 c03d 201c adbc 1983 cd3b 6364 c7bc
00000070: 4381 133e ff61 8abd 462f 52bd bd67 10bd
00000080: 5676 023d 406f bb3d 3f3a 02be cd8f 50bd
00000090: 3f7b 94bd c4cc a1bd 6108 87bd 533e e3bd
000000a0: e798 243c d0c0 233d f8cc 93bd d521 a5bd
000000b0: f092 18bd 383e 20bd cb4e adbc 1bcb d2bd
000000c0: be49 da3d 854b 92bd 53ce 2d3d 332a 1ebd
000000d0: f571 f5bd d9e3 9f3d 84c7 e13d b6f4 b1bd
000000e0: 33a9 a3bd 208e 42bd 3ed4 bcbc 18bd 153d
000000f0: 13e4 a7bd 277c ccbc 5caa 3b3b 1b89 943d
-0.024900855 0.02603708 0.06642481 0.046508547 -0.060193866 -0.07985082 -0.026955048 0.09588074
0.117783986 0.1019047 0.10669842 0.03756928 0.12363743 -0.013663291 -0.12182749 -0.02373722
0.08114179 -0.05833182 0.012234767 -0.09976519 -0.09184671 -0.14189973 -0.05574867 0.028266843
0.09418486 -0.021131575 0.0062717316 -0.02433986 0.14404778 -0.067569725 -0.051314615 -0.035255183
0.031851135 0.09152079 -0.12717532 -0.05091839 -0.0725007 -0.07900384 -0.06593395 -0.11095872
0.01004622 0.039978802 -0.07216829 -0.080630936 -0.037249506 -0.039121836 -0.021155735 -0.102926455
0.106585965 -0.071433105 0.042433094 -0.038614463 -0.11984626 0.0780713 0.11024383 -0.08689253
-0.079912566 -0.047498822 -0.023050424 0.036557287 -0.081977986 -0.024961544 0.0028635478 0.07252713

model.6.weight f4 [64, 64]
00000000: 37bc c3bd 5f72 113e 353d e53d 8ffc 153e
00000010: 0098 ef3c 321e b53d f2f4 8a3d e5e1 2ebe
00000020: d0d5 34be 3e46 b4bc 0604 c23d cece 2fbe
00000030: 0ccc 5f3e 966d 253e 4fb1 aa3d 557b 33bd
00000040: c92c 03bc b600 ca3d 646a ad3d fbc5 79bd
00000050: 187c 5a3d 98d3 4abd 178d 47be 41a6 c3bd
00000060: 28ea c2bd a3f2 31be c880 1bbd 76bc b9bd
00000070: ea70 99bc 3d89 8fbd 65d6 ccbe 8165 163e
00000080: cfa1 c03c 08fb 6c3e 4de6 0bbe 6e4b f9bd
00000090: 9a33 723c 2982 08be b92c 76be 2d9a 3bbe
000000a0: 6427 ce3d 1efe a43d 1de6 e2be 59a8 a23e
000000b0: 8a82 febd f9c8 a0bd 7ac8 96be c2d0 46be
000000c0: b578 22be 7f90 083e a55e a9bd 2dbb 2c3e
000000d0: a1ae f33c 8163 92bd 4611 38be 0f21 53be
000000e0: 39f2 48be 6484 c83d b856 173d 87e5 4fbd
000000f0: 8d34 9a3d ba68 f83c 4544 573d 3fc2 903d
00000100: 9d59 b0bd 6e48 a03d c770 c03c 9d41 18be
00000110: 424f 183d f7b5 353e 69bb 91bd 80f2 80bd
00000120: f750 3abe 8bd6 ea3d a3da 9bbc 7034 18be
00000130: 296a 3dbd f7e4 c5bd 07f8 bebc 0700 5bbb
00000140: 129a 03be 3cd3 893d ff38 b63d 27fc fabd
00000150: fcc7 df3d 483f 3c3d ef23 83bb f1c4 033d
00000160: f697 82bd 5a5d 4c3d b1d1 d0bd 6898 443e
00000170: b3cf 803b 1097 c9bd 3a24 c33d 87ee fc3c
00000180: 5ec0 fbbd d526 153d 5609 acbc 054b df3d
00000190: 0b82 b13d 5758 3fbe 4598 d2bd 54e0 233e
000001a0: 1417 9b3d b7d7 54bd 2b30 de3d 34d2 e53b
000001b0: 2a01 793d 2b48 adbd f5cd 9d3c 58cc 2d3d
000001c0: cdc7 2cbc f1d8 8c3c 58e2 5e3d 4e44 72bd
000001d0: 564c bb3d 66d6 a23d a70e e03d 78db 42bc
000001e0: 266b 43bc d554 d7bd e389 67be 903d afbd
000001f0: 09ee 03be 24c3 173e dd19 2e3c 6b85 213e
00000200: 68ef c13c af69 aabd 071e 13bd cfb1 823d
00000210: 599b 7d3d 42dc a5bd 70d7 4a3d 9004 9e3a
00000220: 3adc 8a3d 7332 ffba 0062 f2bd 09cf 73bd
00000230: fe42 06be 7b93 c9bd 535f e6bd 1d2e e6bd
00000240: 698a 393d 2916 41bc 74ce bdbd 905d adbc
00000250: 8fa7 03be e9ac 253e f09c f43c 7fd9 2fbd
00000260: 33b7 57bc ba61 253e 7084 e8bd 711d d03b
00000270: 23f6 97bc f4be 053d e432 4c3d e55d 3dbd
00000280: de10 9a3d c002 debd d2bb 5bbd e2d1 cfbc
00000290: 2eed 953d dc04 243e 0f40 b93c 666a c1bc
000002a0: 68f8 d1bb 26a9 00bc e4d6 093d 888a 5fbe
000002b0: 40ba d7bd f737 b03d 9b4f fb3d 3153 9a3d
000002c0: 6084 963d 876e 19bd 60a8 593e 5363 f7bd
000002d0: 4b68 0d3e f137 593c 3dc7 383d fbf6 fcbc
000002e0: 0858 043e d06f 16be bbf3 e5bd 790f 4a3d
000002f0: de20 a9bb 8b34 2ebd d40a 95bc a37a 163e
00000300: d000 d8bc 97fb 333d 37f3 8b3d 1336 8fbd
00000310: 3de9 e93d 9bec 19bd 5474 86bb 04f6 e13c
00000320: ad9c 06be 214c 7cbb dd9b 153d 960e a73c
00000330: a366 c73d 64c4 aebc fc17 b43c 5d28 f5bc
00000340: 3a19 2cbc 2f92 07bc baa1 dc3d ba62 7cbc
00000350: 6045 813d 9a44 e43d c4d9 00bd 8f02 ac3c
00000360: 8388 b0bd fa03 f4bd 3c5a 81bd c3d7 02bd
00000370: d95f a43d 23e1 523d 4dcd afbd 2e7d 8f3d
00000380: 15d7 f63d 5c02 23bd b3d8 ac3d 2cd5 07be
00000390: 699e ccbd 33dc d1bc d8f6 d9bd a3c1 4f3a
000003a0: dd09 05be ac08 4139 199b 603b 412d 073e
000003b0: 1f6e 673a bcab 81bd 711f aa3b 8fc6 6b3d
000003c0: 6f24 85bd 894e 0abd 54f2 6aba 672c c9bd
000003d0: f6d4 783d c70a bf3d c355 55bd a352 b83d
000003e0: 7284 a7bd ca9b c43d 6ea6 233c 1edb 2cbd
000003f0: 22c9 acbd 96a0 e3bd 2f69 8e3d f84a ba3b
-0.095573835 0.14203785 0.11193315 0.14647125 0.029247284 0.0884365 0.06785001 -0.1707836
-0.17659688 -0.02200615 0.09473424 -0.17168733 0.21855181 0.16155085 0.083346 -0.04381879
-0.008006283 0.09863417 0.08467558 -0.060979825 0.053341 -0.049518198 -0.19487415 -0.09553195
-0.09517318 -0.17377715 -0.037964612 -0.09069149 -0.0187306 -0.07008598 -0.4000732 0.14687158
0.023514656 0.23142636 -0.13662072 -0.1217259 0.014782811 -0.13330902 -0.24040498 -0.18320532
0.10066107 0.080562815 -0.44316188 0.31769064 -0.12427242 -0.078508325 -0.29449826 -0.19415572
-0.15866359 0.13336371 -0.08270005 0.16868277 0.029746355 -0.07147885 -0.1797534 -0.2061808
-0.1962365 0.097908765 0.036947936 -0.050756004 0.075295545 0.030323375 0.05255534 0.070682995
-0.086108424 0.07826315 0.023491276 -0.1486878 0.03718496 0.17745195 -0.07115824 -0.06296253
-0.18194948 0.11466702 -0.019025153 -0.14863753 -0.04624382 -0.09662812 -0.023311628 -0.0033416764
-0.12851742 0.06729743 0.0889759 -0.122551255 0.10926816 0.045958787 -0.0040020864 0.03217024
-0.063766405 0.049893714 -0.101962455 0.19198763 0.0039310097 -0.09843266 0.09528394 0.030875457
-0.122925505 0.036413986 -0.021000545 0.10902981 0.08667382 -0.18686043 -0.10282949 0.16003543
0.07572761 -0.051963534 0.10849031 0.0070135836 0.060792126 -0.084610306 0.019263247 0.042431206
-0.010545683 0.01719329 0.054415077 -0.05914717 0.09145419 0.079510495 0.10940295 -0.011893146
-0.011927402 -0.10514227 -0.22611193 -0.08556664 -0.12883772 0.14820534 0.0106262835 0.15773551
0.023673728 -0.08320939 -0.03591731 0.063815705 0.06191573 -0.080986515 0.049521863 0.0012055803
0.06780286 -0.0019469991 -0.11835098 -0.059523616 -0.13111493 -0.09842583 -0.112486504 -0.11239264
0.045298014 -0.011785069 -0.092678934 -0.021162778 -0.12856887 0.16179241 0.02985999 -0.04293203
-0.013166237 0.16150561 -0.113533854 0.006351166 -0.018549984 0.03265281 0.04985322 -0.046232123
0.075227484 -0.10840368 -0.053645916 -0.025368635 0.07320629 0.16017479 0.022613553 -0.023610305
-0.006407786 -0.007852828 0.0336522 -0.21830189 -0.10533571 0.086044244 0.12271043 0.07535399
0.07349467 -0.037458923 0.21255636 -0.120794915 0.13809316 0.013257966 0.045111883 -0.030879488
0.12924206 -0.1469109 -0.112281285 0.049331162 -0.005161389 -0.042530578 -0.01819364 0.1469522
-0.026367575 0.043941107 0.06833499 -0.06992736 0.1142144 -0.03757916 -0.004103223 0.02758313
-0.13145705 -0.0038497525 0.036525596 0.020392697 0.09736373 -0.02133388 0.021984093 -0.029926473
-0.010504061 -0.008274599 0.107730344 -0.015404398 0.0631206 0.11145897 -0.031457677 0.020997314
-0.086197875 -0.11914821 -0.06316039 -0.031944048 0.08026094 0.05148424 -0.0858408 0.07006298
0.120527424 -0.039797172 0.084397696 -0.13264912 -0.09991152 -0.025617694 -0.10642785 0.00079252775
-0.12992044 0.00018409145 0.0034272133 0.13200857 0.000882836 -0.06331584 0.0051917364 0.057562407
-0.0650109 -0.033766303 -0.00089625013 -0.09822922 0.06074997 0.093282275 -0.052083742 0.09000137
-0.08179559 0.09600027 0.00998841 -0.042201154 -0.084368005 -0.11114614 0.06953656 0.0056852065

model.6.bias f4 [64]
00000000: 4450 6dbc 9faa ccbd 9014 86bd 6957 943d
00000010: 805c a0bd 867a 0fbe d0eb ce3b 72d3 9d3d
00000020: dc98 fa3c 3005 0abc 6650 493c 098e 123e
00000030: cdab dcbd 97c1 9a3d 687f 2f3e a474 a2bd
00000040: 986f ae3d 50b5 b7bc 6e1f abbc ab95 0f3c
00000050: c37e 87bc 0b4b aebd c9cb 8a3d af21 74bd
00000060: f2aa 5f3c 3054 dbbd 860a 03be 8137 20bb
00000070: 07af e5bb eae9 463c 4032 463d e35d dc3d
00000080: d25c f73d 65f1 91bd 03cb a23d 449c a93d
00000090: 080e b8bd 7eb7 58bd 0c0d fc3d 56fd 8a3d
000000a0: 47b1 e73d 83f1 973d 2feb fd3b 4b6b a0bd
000000b0: eba0 66bd 3a1d 0bbe abb9 77bc b263 b93d
000000c0: 8010 7fbc 2d78 78bd cac8 973d ee84 1e3e
000000d0: 8761 90bd 80ed d2bd 8a0f 6c3d 9eea 20be
000000e0: d919 c1bd 2077 74bd cecc 1e3d 26cc 79bd
000000f0: 4c9e b0bc 15ee 1c3e 45b7 b43d 8cf6 503d
-0.014484469 -0.09993481 -0.06546891 0.07243235 -0.07830143 -0.14011583 0.006314732 0.077063456
0.030590467 -0.008424088 0.012287235 0.14311995 -0.10774956 0.075564556 0.17138445 -0.07932404
0.085173786 -0.022425324 -0.02088901 0.008763711 -0.016539937 -0.08510407 0.0677715 -0.059602436
0.013651596 -0.10709417 -0.12796983 -0.0024447145 -0.0070093903 0.01214073 0.048387766 0.10760095
0.12078251 -0.071261205 0.07948878 0.082817584 -0.08987051 -0.052909367 0.12307176 0.06786601
0.1131311 0.074191116 0.0077489833 -0.078329645 -0.056305807 -0.13585368 -0.01511995 0.090522185
-0.015567899 -0.060661484 0.07411344 0.15480396 -0.07049852 -0.10299206 0.057632007 -0.157145
-0.09428758 -0.05968392 0.038769536 -0.060985707 -0.021559857 0.15325196 0.088240184 0.051016375

model.8.weight f4 [64, 64]
00000000: 2877 ff3c d027 a5bd 4cb0 f33c 23f7 c8bd
00000010: 1af3 a0bd e70a 923d 4645 efbd f83a 8cbd
00000020: 0cae 133e 0ab0 d1bd 7160 853d e4c0 773d
00000030: afbf 173c 61b5 9a3d 0e08 5dbd ec67 eabd
00000040: 1214 9ebd dd55 fc3c ad06 b1bd 7378 afba
00000050: 3f57 4ebd d4e1 16be ceb9 ef3c 5d28 61bd
00000060: 5d00 1b3e 7da0 8c3d 09b8 e23d 94f9 573d
00000070: 83a1 bbbd a0b3 7e3d 2af6 6c3b ed7b 2bbd
00000080: a262 c5bc 0bf2 e8bd 7af0 073e f23d 2f3d
00000090: 1c10 e3bd c58a ed3d 01a1 b53d dfea 443c
000000a0: 606f 953d ef97 a8bc 592f e5bc 4dfa eb3d
000000b0: dc18 413d f2d1 76bc cae5 003c b285 c9bc
000000c0: a544 95bd a477 57bd 01fe 8ebd 9c63 073d
000000d0: 944f bc3d 59ae 83bd 3199 e5bd 19bf dc3c
000000e0: 0e5d dd3d 5d48 d13d 8d14 e1bd 61b7 80bd
000000f0: 042e a5bd 5bd1 dbbd 75d5 ed3d 3e10 8d3d
00000100: d2aa 193e 4fc7 c33d a56a 423d df18 8ebd
00000110: e796 2a3c 1d9f 993d 8be2 53bd 3961 b73d
00000120: 3987 a93d 5138 893c 1095 54bd 33ac cfbd
00000130: c3d1 363c 4099 873d c87e febc 8b54 ea3b
00000140: dfcc 6d3d 5555 94bd 9fdb ba3d 33a9 1e3e
00000150: 1a8c 963d ed28 b73d fde6 b5bd 4b89 c4bd
00000160: b0c4 cabd ab30 6f3d cf09 12bd e8c6 0b3b
00000170: 4994 ec3c 5a69 ebbb 04dd 87bd 73f9 0c3c
00000180: cca0 8c3d 163f a4bd 976f e23d 02c3 513d
00000190: 8490 bdbd 86fc 9e3d f3dc cb3d 4439 8fbc
000001a0: 752a 323d f550 1cbd ce1d 9ebd 8305 92bd
000001b0: 766d 9e3d d148 00bd 1550 c3bc 6d06 ac3d
000001c0: e127 e63d b261 98bd 0eaf 4d3d b13f d13d
000001d0: 21a8 a5bd ac43 463b 2ce0 653c 09cc ddbd
000001e0: f789 0bbe 16d2 113e 5f9a f7bd 6554 8c3d
000001f0: 7288 073d d639 bc3d de43 ad3d dd18 883d
00000200: c307 b9bd 0484 d5bd 976b 873d cdff 02bc
00000210: 9d6b c23d 3112 163e 5a3f 1f3e 2bd8 eb3d
00000220: c9fe 10bd cded e4bd ccb4 d93d c391 203d
00000230: 75cb 7fbd 8933 d93c 9e41 6d3d f508 22be
00000240: 27c8 d1bd da95 1e3e 68d7 07be e56e a23d
00000250: 3bd1 c73d c144 763d 640d de3c 00c2 433d
00000260: 86b5 8c3a e8bc 20bd a259 63bc 2439 173c
00000270: d003 1d3e 731d 963d f297 08bd f079 bfbd
00000280: f796 2d3e f7fa ba3d 92be 81bd 1402 8ebd
00000290: cd54 0ebb 2196 973d 9ea6 57bd 84ba 3fbb
000002a0: b9af fbbd 7589 ec3d 90b3 bfbd 2a5a 49be
000002b0: 9665 dd3d 5380 e9bd 679c 143d 0764 d4bd
000002c0: d794 5a3d 80b6 0f3d 4c79 b13d 7a8e dd3a
000002d0: 1f58 e5bd 74e2 ea3d 84ec 843c ed85 ea3d
000002e0: 3ddd 1abe 9f74 3b3d 2c35 43bd 6758 443d
000002f0: 1b02 683d 394c b83d a901 e4bc d0f8 45bd
00000300: 2205 a03d c5a1 303d 2e77 23be 3c39 cf3d
00000310: 07a6 a63d eeab 4e3b 2ed4 d43d 33f2 45bc
00000320: 2380 23bd 64fd 07be 2acd 743d 54b7 8d3d
00000330: b3dc 02be c58e e4bd 75fa a03d 05df 753c
00000340: 17d9 efbd 1528 963d e4f9 14bd 32ab c4bd
00000350: 80f6 80bc 9203 823d 4b95 78bd b2f1 01be
00000360: 6999 9abd 5ad6 94bd bf64 803d 7e91 503d
00000370: 0f64 2e3e 9dc9 44bd 17fb c1bd 1a04 d0bd
00000380: b10d 78bd 4d10 bc3d 0e0b 6a3d 8da7 d3bd
00000390: 99e4 973b ac02 e2bd b6f7 843d d6d0 b1bd
000003a0: b88e 9b3d 79b9 5abd aaaa 2ebc bdba b1bd
000003b0: 2eb2 68bc 2d12 733d dad6 44bd f796 d9bc
000003c0: 6e49 993b 05a8 93bd 41e0 213d 470c 4cbe
000003d0: 169f 29bd 7949 10bd f7d8 2d3d f9f0 ea3d
000003e0: 22d7 34be fab6 37bc cf12 75bb 54bf a0bd
000003f0: 4a0a b83d e363 bc3d 4ad1 27be 943e 51bc
0.031184748 -0.08064234 0.02974715 -0.098127626 -0.07858868 0.07130986 -0.11683135 -0.06847185
0.14421862 -0.10238655 0.06512535 0.06048669 0.0092620095 0.075541265 -0.05396276 -0.11445603
-0.07718672 0.030802662 -0.086438514 -0.0013387337 -0.050376173 -0.14734584 0.029263403 -0.054970134
0.15136857 0.06866548 0.11070258 0.05272825 -0.09161665 0.062183022 0.0036157467 -0.04186623
-0.024094883 -0.11374291 0.13275328 0.042783685 -0.11087057 0.11598734 0.088686 0.012018888
0.07296634 -0.02058026 -0.027976679 0.115223505 0.04714285 -0.015064703 0.007867286 -0.024599884
-0.072884835 -0.052604333 -0.06982041 0.03305398 0.09194866 -0.064297386 -0.112108596 0.026946591
0.108087644 0.1021888 -0.10990248 -0.06284977 -0.080654174 -0.10733291 0.11612979 0.068878636
0.15006569 0.095594995 0.047464985 -0.069383375 0.0104119545 0.075010516 -0.05172972 0.089540906
0.08277745 0.016750487 -0.05189997 -0.10140266 0.0111584095 0.06621027 -0.031066313 0.0071511916
0.05805671 -0.07242838 0.09123921 0.15494232 0.07350941 0.08943353 -0.08881948 -0.09596499
-0.099007964 0.058396023 -0.035653885 0.0021328274 0.028879302 -0.0071841897 -0.06633952 0.008604395
0.06866607 -0.08019845 0.1105644 0.051211365 -0.0925608 0.07763009 0.09954252 -0.017483361
0.04349752 -0.038163144 -0.077205285 -0.071299575 0.07735722 -0.031319443 -0.023841897 0.08399663
0.11238075 -0.07440509 0.050215773 0.10217226 -0.08088709 0.0030252738 0.0140304975 -0.10829932
-0.13626848 0.14240298 -0.12089991 0.068520345 0.03308911 0.09190719 0.0846021 0.06645367
-0.090346836 -0.104255706 0.06612318 -0.007995558 0.09493182 0.14655377 0.1555151 0.1151584
-0.035399232 -0.111781694 0.106301874 0.03920151 -0.06244989 0.026513832 0.057923906 -0.1582373
-0.10243254 0.15486851 -0.13265765 0.07931308 0.097567044 0.060124163 0.027105995 0.047792435
0.001073525 -0.039242655 -0.013876351 0.009229932 0.15333486 0.07329836 -0.03334803 -0.093494296
0.1695212 0.09129899 -0.063351765 -0.0693399 -0.0021718026 0.07401682 -0.052649133 -0.002925546
-0.12289376 0.11549655 -0.09360421 -0.19663301 0.108103916 -0.11401429 0.03628197 -0.10370641
0.0533646 0.035086155 0.08665714 0.0016903423 -0.111984484 0.11468974 0.01622606 0.114513256
-0.15123458 0.045765515 -0.04765813 0.04793587 0.056642633 0.08998913 -0.027832823 -0.04833299
0.07813479 0.043123025 -0.15963432 0.101183385 0.08137136 0.0031535584 0.103920326 -0.012081671
-0.039917123 -0.13280255 0.059765972 0.06919733 -0.12779503 -0.111600436 0.07860271 0.015006785
-0.117113285 0.07331864 -0.036371127 -0.096029654 -0.01574254 0.06348337 -0.060689252 -0.12689856
-0.07548792 -0.07267447 0.06269216 0.050920002 0.17030357 -0.048043836 -0.0947172 -0.10157032
-0.060559932 0.091827966 0.05713945 -0.10334692 0.0046354053 -0.11035666 0.064925596 -0.086824104
0.07595581 -0.053399537 -0.010660807 -0.086781956 -0.014202638 0.059343506 -0.04805646 -0.026561243
0.004677943 -0.072097816 0.039520506 -0.19926558 -0.04141148 -0.03522632 0.042443242 0.11471743
-0.17660192 -0.011213059 -0.0037395244 -0.07848993 0.089863375 0.091987394 -0.16388431 -0.012771267

model.8.bias f4 [64]
00000000: 67fe 343d e389 e6bd 11b3 91bd 1116 d7bd
00000010: 0f3f 8d3d 5c5b eabc 6a68 33bd 1815 363d
00000020: 37c4 3fbe ffe1 163d 09dd bb3d 7699 e83d
00000030: 81a4 7d3c b92e 353d 6a80 50bb f1db 48be
00000040: 1334 babd 5e7f 8d3d e8a6 83bc d991 f9bd
00000050: b2f0 fcbd 6aa8 653c 3dc1 7dbd f4a3 573d
00000060: 370d 68bc b140 e4bd 02d1 ac3d 4791 c53d
00000070: 816d b23d 985e 9a3d 437b 88bd 21ad fabd
00000080: 4884 0fbd 5cbc 9a3d 2fce 74bd d015 aebc
00000090: 04c7 84bd 6290 0fbd 0dbc dabd c476 5f3c
000000a0: 26be 96bd 4d6f 47bd 7b7f 7e3d 8ab7 b33d
000000b0: 418a 10bd b915 1ebc 8738 e4bd ba48 07be
000000c0: 9659 b6bd 04ad 663d 0726 a33d 9342 353d
000000d0: e3cd aabd 20fd 65bd a9f1 8ebd adf2 e1b9
000000e0: e58e 38bd 8289 c73c 89eb f43d 0e78 a83d
000000f0: a164 4d3c dc7a bdbd 5b80 4dbc 8d98 8c3c
0.04418793 -0.112567686 -0.07114232 -0.10502256 0.06896793 -0.028608017 -0.04380075 0.04445371
-0.18727194 0.03683662 0.091730185 0.11357395 0.015481115 0.04423401 -0.0031814822 -0.19615151
-0.090919636 0.06909059 -0.016070798 -0.12186021 -0.123505965 0.014017204 -0.061951865 0.052646592
-0.014163307 -0.111451514 0.084383026 0.0964685 0.087122925 0.075375736 -0.06664135 -0.12240053
-0.035038263 0.07555458 -0.059766944 -0.021250635 -0.06483272 -0.035049804 -0.10680399 0.013639156
-0.07360487 -0.04869013 0.062133294 0.08775242 -0.0352881 -0.009648734 -0.11143594 -0.13211337
-0.08903806 0.056317344 0.079662375 0.044252943 -0.08340051 -0.056149602 -0.06979687 -0.00043096152
-0.04505815 0.024357561 0.11958987 0.082260236 0.012536199 -0.09251949 -0.012542809 0.017162586

model.10.weight f4 [64, 64]
00000000: 7fd6 8e3c fd1f 4cbd 58ce 9a3d 7e91 ffbd
00000010: 8a86 463d 65be c53d e4a6 cbba 4c93 243d
00000020: 40d4 273d 4ef1 cbbd ef79 3f3d 6069 d03d
00000030: 6663 c5bd a745 b8bd fb33 e73d dfe8 10bd
00000040: 4bb5 a7bd e456 e7bd a0f8 91bc 26d5 7e3e
00000050: 585d 5d3d eeb9 033d d878 e5bc d136 e43d
00000060: 4ff9 7c3d 669a 07be d1c9 2f3d 1d25 3e3d
00000070: e35a e2bd bda8 d23d a3ec b5bc f193 a13d
00000080: 1edd e03c 1c78 e93b eb8d 31bd 0806 0c3e
00000090: 91e3 2d3c 1d45 2f3c 3463 353c e5f5 cd3c
000000a0: 6c6c 083e 15ef 99bd e691 0b3e 6484 39bd
000000b0: 025d 8dbd 6878 a93d 2ab8 b93d d2bb a13c
000000c0: ad7b 533d f3ab 403c bb12 bcba fb8c d23d
000000d0: df5d 053b 5e0a a3bd b10d 523c f0b8 17be
000000e0: e315 acba 9a25 af3c 4be4 82ba b909 053e
000000f0: 7f52 a63d 32d7 fe3c d3f1 dd3c 68fb e33d
00000100: b17e 12be 4a26 81bd c781 903d 906d 3abd
00000110: d2df 15be 1ade cdbb 73ae 25bc e219 02be
00000120: c1d8 4c3e 5914 893d 42e9 5ebd 3dcd d23d
00000130: 526c 8d3d 7f52 3e3d d9f6 0bbd f852 f1bc
00000140: ca7b 44bb 6311 03bd f322 1abd 85b2 f53d
00000150: 58a0 303d 473d 2dbd b6fe 3b3d 9253 b339
00000160: 40a1 c6bd 54eb 77bb 8021 c1bc d816 8dbd
00000170: ce01 e03d 5c54 8e3d 2de8 31bd 14aa b1bd
00000180: e1fe e3bd d570 9e3d 6dc0 cabd cc50 3f3c
00000190: 9dc5 ccbd b2ae d13d f0bb 353d 1e75 e23c
000001a0: 88d9 bbbd 12be c53c da6f bd3c b182 b6bd
000001b0: 6233 e0bd 4fb1 663d c4b6 8e3d 3379 8b3d
000001c0: 0d45 ec3c d95f 93bc 18a6 58bc 3056 d33d
000001d0: 0c49 f6bc f8a9 b83c 10ef 123e 5767 45be
000001e0: 420b 77bd c924 733d 5fba fa3c 3952 01bd
000001f0: 9354 bd3d 5885 8bbd e530 f43c e2ae a53c
00000200: 87e9 dbbc f734 29be 9be4 c9bd 1773 e1bc
00000210: 901d dfbd 3688 5d3d 97d7 593d 43df 7dbc
00000220: 86cb 2e3e 9961 47bd 2b80 b9bb 4f97 bd3d
00000230: d721 e73c 2b87 dcbd 0496 933c e7c0 01bc
00000240: ef54 2c3b a797 32be 3b62 123d dd64 6e3e
00000250: 352c 043d cca3 bd3d e95c d9bc 97fd 763b
00000260: ee0a 35bd 679f d03d 6305 ecbd 2363 efbc
00000270: 88fa 4dbd 593a 493d c75a 99bd c5ab 9f3d
00000280: 5db2 a23a 7da8 903d 233c 98bc daff 173e
00000290: 7668 5abd 03ba e63d c14c d8bc cab2 1f3c
000002a0: a9b7 ca3d 0279 46be 995a 513d aed5 f13d
000002b0: b1f4 3bbc 3376 d53d 7c68 a03b d337 633b
000002c0: 876a 9f3d f479 8abd 7af7 44be 1b8e 083e
000002d0: b977 4dbd fa31 31be 77cb 423e ad67 36bc
000002e0: cb44 f83b 9535 673d 8129 81bd e553 acbd
000002f0: 1123 04be 033d c23d cf51 b9bd 6b2c 9a3d
00000300: a450 8dbc 4306 6abc 19e3 d73d a800 cbbd
00000310: bec1 6ebd e4fd 42bd f0a1 f6bd 4717 2e3e
00000320: 7e0d e6bc fe7c 2c3c e28f 743d 45b1 cc3d
00000330: 5f7b 913c c8dc 8d3c d12d 5e3d 3e78 79bc
00000340: e66f 133d aa73 8e3d a101 873d d639 6b3c
00000350: 2823 a9bc dec6 ccbc d02f b4bd 96fb 7bbd
00000360: 0f89 8a3d 3a2f 38bd 554f f5ba 2055 0c3d
00000370: fa8e ce3c 1a07 fa3d c900 33bd ad6d f93c
00000380: b7e4 3c3e 3c1e a9bd b3f4 283d bede ca3d
00000390: ef9c 663d 2377 fd3d 47b9 fd3b 1aa2 013d
000003a0: 0898 e9bd becb f3bd a396 81bd 3273 9bbd
000003b0: 06c0 943d 64c8 f43b 217f a2bc c829 10bd
000003c0: f040 b9bd 10af 833d 926e 063e f1ac 0f3d
000003d0: 0e59 ec3d 96e5 bf3d 5352 93bc ab10 8c3d
000003e0: 4823 1c3d eabd 743d 909a 113e df6b 063e
000003f0: a218 a53d 0727 aabd 1aff b7bc 48cb ec3d
0.017436264 -0.049835194 0.07558888 -0.12478922 0.04846815 0.096554555 -0.0015537408 0.040179536
0.0409739 -0.099581346 0.046747144 0.10176349 -0.09638099 -0.0899766 0.11289211 -0.035378333
-0.08188876 -0.1129587 -0.017818749 0.24885997 0.054044098 0.03215974 -0.028011724 0.11143268
0.061761197 -0.13242492 0.042917076 0.046422113 -0.110524915 0.102860905 -0.022207564 0.07889546
0.027449187 0.007124914 -0.043348234 0.13674176 0.010613338 0.01069763 0.011071015 0.025141666
0.1332261 -0.075163044 0.13629875 -0.045292273 -0.069025055 0.08274919 0.0906833 0.01974288
0.05163162 0.011759746 -0.0014348844 0.10280796 0.002035014 -0.07960962 0.012820647 -0.14816642
-0.0013129081 0.021380235 -0.000998625 0.1299199 0.08121204 0.031108472 0.02709285 0.11131936
-0.14306141 -0.06306131 0.07056003 -0.045514643 -0.14636162 -0.00628258 -0.010112393 -0.12705186
0.2000456 0.06693334 -0.05442167 0.10293052 0.06905426 0.046465393 -0.03417096 -0.029458508
-0.002998101 -0.031999003 -0.037630986 0.119969405 0.043121666 -0.042294767 0.04589721 0.00034203805
-0.09698725 -0.0037829475 -0.023575544 -0.06889123 0.10937844 0.06949684 -0.04343431 -0.08675018
-0.11132599 0.07736365 -0.098999836 0.011676978 -0.09998629 0.102383986 0.044368684 0.027643736
-0.0917235 0.024138484 0.023124624 -0.08911646 -0.109473005 0.05632144 0.069684535 0.06810226
0.02884152 -0.01799004 -0.013223194 0.10319173 -0.030064128 0.022541985 0.14349008 -0.19277702
-0.06031347 0.059361253 0.030606447 -0.031572554 0.09244647 -0.06812543 0.029808471 0.020224992
-0.026844753 -0.1652411 -0.09858056 -0.0275207 -0.108943105 0.05408498 0.053184118 -0.015495124
0.17069826 -0.04867706 -0.0056610308 0.092573754 0.028214378 -0.10767969 0.018015869 -0.007919527
0.0026295742 -0.17440663 0.03573821 0.23280664 0.03226872 0.092597574 -0.02653356 0.0037687772
-0.044199876 0.101866536 -0.11524465 -0.029222077 -0.050287753 0.04912791 -0.074880175 0.07796434
0.0012412776 0.070633866 -0.018583363 0.14843693 -0.053322278 0.11265948 -0.026403787 0.0097472165
0.09898312 -0.19382098 0.05111179 0.11808334 -0.011471913 0.10422935 0.004895268 0.0034670725
0.0778399 -0.06761542 -0.1923503 0.13335459 -0.050163005 -0.17304221 0.19022928 -0.011133117
0.00757656 0.056447584 -0.06306744 -0.08414439 -0.12904002 0.09484293 -0.09048807 0.07528003
-0.017250367 -0.0142837195 0.10541362 -0.099122345 -0.058290236 -0.04760541 -0.12042606 0.17001067
-0.028082605 0.010527847 0.05970753 0.09994749 0.017759023 0.01731719 0.054242913 -0.015226422
0.035995387 0.06955655 0.065921076 0.014357051 -0.020646647 -0.024997171 -0.08798182 -0.061519228
0.06764423 -0.044966914 -0.0018715659 0.03426087 0.02521466 0.12208386 -0.04370192 0.030447805
0.18446623 -0.0825772 0.04124899 0.09905766 0.056302007 0.12376239 0.007743034 0.031648733
-0.11405951 -0.11904095 -0.0632756 -0.07590331 0.07263188 0.0074701775 -0.01983601 -0.035196096
-0.09045589 0.06429875 0.13128117 0.03507704 0.11540423 0.09369962 -0.017983591 0.06839117
0.038119584 0.05975143 0.14219117 0.13127087 0.08061339 -0.08308225 -0.02246051 0.1156221

model.10.bias f4 [64]
00000000: 9fd1 483d a2d9 0dbd 5491 8c3c 6af3 583d
00000010: 4907 c7bd 98ac ddba 5cfd d53d ec75 24bd
00000020: 3bc5 d4bd 8148 ebbd 47a2 8abd 7c6e 823d
00000030: 2cfd 9fbd 5102 19bd 404d 893d 1c85 d5bd
00000040: 5e15 b3bc c4f0 f03d 7edd ed3d cb24 01bc
00000050: a630 0bbc 31fc 873d d276 e63d 171c 9ebd
00000060: 7ff1 a0bd b73f 02be 29fe 41bc b0e5 bd3c
00000070: 260f be3d 3b81 933b 2d3b 5d3d f99a d8bc
00000080: 15e3 cbbd 59f3 bcbd b591 02bd ec7d b63d
00000090: b554 d4bd f761 95bd c3d1 053d 2837 903d
000000a0: 5652 b7bd 4fe4 67bd 4c7d 603d da38 7f3d
000000b0: 5351 b7bc a6b5 db3d a03c ce3d e7db af3c
000000c0: 42af b03d ff3e f2bd a23a 95bc 1f76 c43d
000000d0: cd52 143d 0b65 803d 98b4 163b 4352 a43d
000000e0: d830 9fbb 6690 bbbd 0074 c23d 4943 febd
000000f0: e67b dc3d 4f86 1fbd 8bc3 5c3c 2e47 933d
0.049028035 -0.03463138 0.017159142 0.052966513 -0.097181864 -0.0016912399 0.10448715 -0.04015152
-0.10389181 -0.114884384 -0.06769233 0.063687295 -0.078119606 -0.037355725 0.067041874 -0.10425779
-0.021860775 0.117646724 0.11614512 -0.007882307 -0.008495485 0.066398986 0.11253132 -0.077202015
-0.07858562 -0.12719618 -0.011840382 0.023180813 0.09280233 0.0045014895 0.054011513 -0.026441084
-0.09955422 -0.092261024 -0.03187724 0.089107364 -0.10367719 -0.07294076 0.032670747 0.0704177
-0.08951251 -0.056614216 0.054806992 0.062310077 -0.022377646 0.10728006 0.10070157 0.021467162
0.08627178 -0.11828422 -0.018216435 0.09592842 0.036211777 0.062692724 0.0022995826 0.08023503
-0.0048581176 -0.09158401 0.094947815 -0.124151774 0.10765819 -0.038946446 0.013474355 0.07191311

model.12.weight f4 [3, 64]
00000000: 059b 413c 5245 e73d eca7 fc3d 8756 a6bd
00000010: cbc4 e5bd aa90 6dbd 35e5 f13d c4f9 3fbd
00000020: aca5 58bd 4c86 8e3d e3b6 ef3c 0d75 a33c
00000030: 77d0 17bd 4ee7 ed3d 8b3b 3abd 7f8d 44bd
00000040: 0650 43bd 4a3e 20bd 8767 683d b130 b63d
00000050: 7303 e23d 3900 1c3d a12d fbbd 4974 1d3e
00000060: 2738 30bc 2859 a53e 09fb 2bbd 96a7 20be
00000070: ed8c 983c a3ea b73d 6537 acbd 8375 8b3d
00000080: bedd c53c f35f f8bd 030c a93e 742f 79bd
00000090: e6a4 11bd 60ca 0ebe 4d24 903d 6196 113d
000000a0: 4335 d93d 3b6a 38bd e910 afbc 24aa 37bd
000000b0: ceb6 66be c794 8cbc 4dd5 b03c 2d90 433e
000000c0: f0d5 18be 0da3 a4bd c2f3 2a3e aee9 9abd
000000d0: 7635 b1ba 229a 433d 0293 e1bd 9bcd e83d
000000e0: 6a86 edbc d3e6 e5bc ea5a 3abe 7c12 ef3d
000000f0: 7883 41bd 6d01 913d f3ac 8ebb ec5b 163c
00000100: b38e d03d bcd6 403c ccb3 4a3d dbe0 093e
00000110: 101d d83d 3618 92bd 5155 84bc c487 ebbd
00000120: e4f9 1a3d 40ad 91bd def5 553d 38ae 49be
00000130: 04f2 c63d caa7 35bd ee20 19be abbc 963d
00000140: e8d8 263e a362 09be 7b4d 8f3d 5970 94bd
00000150: 544e 24be a3ac 0fbe 8d79 ed3d ba0c 94bd
00000160: cb90 88bd 3d6c debb 76d8 9fbd 60ed 0a3c
00000170: 2188 1cbd 6fa2 4d3d 96b7 53be ae54 8abc
00000180: fb53 a6bd 60de 0ebd 1f45 55be cefa 72be
00000190: 124d 4ebe 21d4 033e 7d5b f9bd 2f2a fbbd
000001a0: 7d0e b6bc ce7a cfbd ea71 cfbd ec3b 943e
000001b0: 9e5f 02be 5933 fabd e734 83bd 69a8 fabd
000001c0: 162c f8bd 2cd8 28be 0280 6bbd a925 1fbe
000001d0: 9516 36bd 60ed a73d c830 383e 2431 4e3b
000001e0: 5197 813d 1332 243e b20c 8dbc 88f5 533d
000001f0: 6a9d 67be 25d7 17be 4b78 6b3e dbb1 fcbd
00000200: af2b 8cbd 6c92 d53b 126f 60bd bf55 9f3d
00000210: c6e9 9cbd a024 e03d 249f 6bbc c9c8 34be
00000220: 2128 ef3c a428 2b3e b39d 3ebd faeb f8bd
00000230: 1192 e33b 38e9 e33d 1a15 f6bd 9ee2 2a3d
00000240: d97b 45bd ec61 3fbc 3f53 863d e2ae 12be
00000250: 5c42 1b3c 085f 3b3e 068a ddbd d1f8 85bc
00000260: 482f 0e3e 4b79 c0bd af99 0f3e 4c88 5dbd
00000270: 9765 c0bc 195b 023e 15ea 84be eb10 da3d
00000280: 2c9e e53d 2562 913c cec2 ce3d c91f 5f3e
00000290: dc95 d13d de9f 0a3d 4e3c 2a3c bcb6 34bc
000002a0: d9d1 a33c 9d20 1a3d c5b2 813d f207 16bc
000002b0: 3bf3 c839 9450 443e 04c6 10be 4d02 1bbe
000002c0: b625 33bd 6a89 d43b a928 48bd 2bdd 5a3d
000002d0: ae50 8c3d dd8c d33d 00a0 a4bd cd09 01be
000002e0: dfc5 3e3d 7637 c6bd 5e62 7a3d c9d4 7c3d
000002f0: e481 1fbe a040 41be 26df be3d 0978 193e
0.011816745 0.11292519 0.12336716 -0.081219725 -0.11219176 -0.05799929 0.11811296 -0.046869054
-0.052892372 0.06959209 0.029262012 0.019953275 -0.037064042 0.116163835 -0.04546694 -0.047986504
-0.04768374 -0.039121903 0.056739356 0.08896006 0.11035814 0.03808615 -0.122645624 0.1537639
-0.010755575 0.32294583 -0.041987453 -0.15688929 0.018621886 0.089803 -0.08409003 0.06809523
0.024153586 -0.12127676 0.33016977 -0.06083627 -0.03555765 -0.13944387 0.07038174 0.035543803
0.10605862 -0.045023184 -0.021370368 -0.044839993 -0.22530672 -0.017160786 0.021586085 0.19097967
-0.1492536 -0.08038912 0.16694549 -0.07564102 -0.0013519961 0.047754414 -0.11014368 0.11367341
-0.028994758 -0.028064167 -0.18198743 0.116734475 -0.04724452 0.0708035 -0.0043541132 0.009177189
0.10183468 0.011769947 0.049487874 0.13464682 0.10552418 -0.07133524 -0.016153963 -0.115005046
0.03783597 -0.07113123 0.05223643 -0.19695365 0.097141296 -0.04434947 -0.14953968 0.07360204
0.1629368 -0.13416533 0.069972 -0.07247991 -0.16045505 -0.140307 0.115954496 -0.0722899
-0.06668242 -0.0067878054 -0.078049585 0.008479446 -0.03821576 0.050203737 -0.20675501 -0.016886082
-0.08121487 -0.034880042 -0.20827149 -0.23728487 -0.20146587 0.1287389 -0.12175653 -0.12263905
-0.022223705 -0.10130845 -0.10129149 0.28951967 -0.12731788 -0.12216825 -0.06406575 -0.12239153
-0.12117784 -0.16488713 -0.057495125 -0.1554171 -0.04445513 0.081995726 0.17987359 0.0031462396
0.063276894 0.16034727 -0.017217968 0.05174783 -0.22618642 -0.14828165 0.22995107 -0.12338611
-0.068442695 0.006517699 -0.054793425 0.07780027 -0.07661776 0.10944486 -0.014381204 -0.17654718
0.02919394 0.16714722 -0.046537112 -0.12154384 0.0069449027 0.11128467 -0.120157436 0.041720025
-0.048213813 -0.011681061 0.06558847 -0.14324525 0.0094762705 0.1829797 -0.108173415 -0.016353996
0.13885224 -0.09398135 0.1402347 -0.05408506 -0.023485942 0.12730063 -0.2595984 0.10647758
0.112118095 0.017746994 0.1009575 0.21789469 0.102336615 0.033843867 0.010390354 -0.011029895
0.019997524 0.03762876 0.06332926 -0.009157168 0.00038328193 0.19171363 -0.14138037 -0.15137596
-0.043737136 0.0064861076 -0.0488669 0.05343358 0.06851326 0.10329602 -0.0803833 -0.12601395
0.046575423 -0.09678547 0.061128967 0.061726365 -0.15576893 -0.18872309 0.09319906 0.14987196
