parabola/conversion/snnmodel_cali64.pth (torch, 54796 bytes, 9 tensors)

model.0.weight f4 [64, 1]
00000000: 2c05 443f 171a 04bd bc5d 6abc 4287 afbe
00000010: 7827 d7be 2a20 21be 6166 53ba 7ca8 82be
00000020: 9a43 c4be a3de 37bf 9aa9 173f 801b 01bf
00000030: 22c2 623f 07ff 233d 87eb 303f 4af8 c4bc
00000040: ba9c 503f b0a4 ecbc 7f93 32bf 4544 0d3f
00000050: 48af 5d3f 4ba8 61bf be43 9bbd d84e 22bf
00000060: cc7e 4b3f ec8e 48bf c0d8 60be b944 f83d
00000070: 8e14 93be edba 523f 90f1 50bf 46da e3be
00000080: 0175 cfbe 0663 4dbf 8589 01bf 3c41 4fbf
00000090: 7fd3 bb3e 6a81 533f ad7c 00bd 097c 473e
000000a0: db5b 2ebe afc5 ac3d d869 fb3d 87f8 3abf
000000b0: 2d3f 40bd c032 6a3f 2c35 8f3e 63c6 3b3f
000000c0: e3ce 2fbf 1858 5ebf 5fae 6b3e ad2d 503f
000000d0: 8bfe 3abf b6bd 60bf ef38 4bbf 5607 53bf
000000e0: 6455 b2bd ee76 8a3d f472 b6be 5651 323f
000000f0: 4835 57bf ab74 49be 980b 533a bf17 94be
0.7657039 -0.032251444 -0.014304575 -0.3428288 -0.420223 -0.15734926 -0.0008064267 -0.25519168
-0.38332826 -0.7182409 0.59243166 -0.50432587 0.88577473 0.040038135 0.69109386 -0.024044175
0.81489146 -0.028887123 -0.6975631 0.55182296 0.8659558 -0.8814742 -0.0758128 -0.63401556
0.7949035 -0.7834308 -0.21957684 0.12122483 -0.2872662 0.82316476 -0.81618595 -0.44502467
-0.40518954 -0.8022922 -0.50600463 -0.80958915 0.36684796 0.82619345 -0.0313689 0.1948091
-0.17027228 0.08436143 0.122760475 -0.7303547 -0.04693525 0.9148369 0.27970254 0.7334959
-0.6867506 -0.8685317 0.23015736 0.81319696 -0.7304465 -0.87789476 -0.7938375 -0.8243307
-0.08707693 0.06760965 -0.35634577 0.6965536 -0.84065676 -0.19673412 0.0008050739 -0.28924367

model.0.bias f4 [64]
00000000: 968e 06bf 9999 54bf 93b1 0f3f 7dcb 8bbe
00000010: afb5 69bf 9be9 f1be 85c4 823f af2f 01bf
00000020: 3a98 6b3f b6e4 20bf 6807 c03d 4b25 8cbf
00000030: c9ad 3d3f 04a0 c03e e4bc 403f 0bce 993e
00000040: 6c12 17bf 093a 2abf 2b2e 52bf 918f c03d
00000050: 9d94 523f 9c35 703f 6fd8 a43e 3557 afbe
00000060: dafa 06bf 1e2b 743e 7aba 97be 6ae5 bcbe
00000070: c40b 45bf cad0 53be 8083 acbe 232f 693f
00000080: 9b99 623e 888e 82be e520 f93e 9e8b 163e
00000090: 78ac 60bf 2b7a 6abd bf7d 3a3f 1abe 363e
000000a0: bc2c 4f3e e6fc b03e cb66 e73e bb1e 453f
000000b0: 40e3 21bf 955a cbbe acb6 833e 6c34 963e
000000c0: 8d37 4ebf ae65 b1be 5312 0cbf b305 f03e
000000d0: e923 99be 45cb 11bf b96f a2bd ac18 153f
000000e0: 72fd c6be 789a e93e a280 2ebf 170c 16be
000000f0: 1b88 aabe e20a 073e 50be 753f e1ff 653f
-0.5256132 -0.8304687 0.5613033 -0.27303687 -0.9129285 -0.4724854 1.0216223 -0.50463384
0.92029154 -0.62848985 0.09376413 -1.0948881 0.740933 0.37622082 0.75288224 0.3004001
-0.59012485 -0.66494805 -0.82101697 0.09402383 0.82258016 0.938318 0.32196376 -0.3424622
-0.5272652 0.23844573 -0.29634458 -0.3689378 -0.7697108 -0.20685115 -0.33694077 0.9108755
0.22128908 -0.25499368 0.4865791 0.14701697 -0.87763166 -0.057245415 0.72848123 0.17845955
0.20231909 0.34567946 0.45195612 0.77000016 -0.6323738 -0.39717546 0.25725305 0.2933687
-0.80553514 -0.34647888 -0.5471546 0.46879348 -0.2991021 -0.5695079 -0.07931466 0.5824077
-0.38865238 0.45625663 -0.6816503 -0.1465305 -0.33306965 0.13187745 0.9599352 0.89843565

model.2.weight f4 [64, 64]
00000000: a231 36bd 467d 34bd 3a08 093a 1037 03bd
00000010: a880 4cbd 2f9f 983a 52d1 6dbd 4db3 1b3d
00000020: 2a5a 46bd d90f 82bc 1a96 f4bc 9eae 173b
00000030: b551 243d 3aa5 1bbd 3ead 79bb 3413 093d
00000040: 822d 30bd 3978 4a3d 51b8 63bd 4976 f1bc
00000050: c913 27bb a7f7 06bd 00c6 f33c 6ed1 073d
00000060: aa85 04bd e048 fa3c 0b99 01bc 3f36 02bd
00000070: 6b65 3cbc ae7b 2a3c afe1 a1bc 91ce 2f3d
00000080: 13dd d6bc a9d4 5ab9 ef8e e8bc 1391 42b9
00000090: 65cf 20bd 036e d13c 1c99 52bd 3de0 b6bc
000000a0: 3058 d73c 8446 013d fcdc 283d 7b92 4f3d
000000b0: 56cf ebbc babc 8bbb f311 0f3c 3527 21bc
000000c0: f055 d1bc 66d6 493a 0cec 1cbd abb0 133d
000000d0: ea38 debc a9be a7bc 7fcd 0cbd ce22 10bd
000000e0: 086d c4bc d67d 34bb f0cd 2b3d 8ca6 063d
000000f0: dbd3 4d3b e65f 6e3c f928 4a3d 7502 c73b
00000100: 8ade 34bd 3ea7 bfbc e227 3bbd 8a75 233b
00000110: fd35 80bd 7b64 273d e027 8cbd 5fce 5c3d
00000120: aefd 373c 62f4 3ebd d52d 02bc 696a 623d
00000130: a66a 453d 2e93 ffbb afbe 2c3d f402 04bd
00000140: cc03 89bd bdb0 4abc 65e3 63bd fd6d b3bb
00000150: a6ab 5f3d d21e 9f3d e15e 013c a2d0 1f3d
00000160: 41b0 38bd c0f1 f53c 1c24 2d3d b0f6 2e3b
00000170: ea2b 533d ce13 80bc aa99 6bbc ed52 08bc
00000180: 1e34 1dbd 676e f83c 157b 4dbd 1d53 f73c
00000190: 1f09 ae3c f9a4 943c f049 41bd 0cbc 32ba
000001a0: 0eeb 5e3c b9e6 2ebd dd1e 2fbd 75fc a83d
000001b0: 6b29 2fbb ae77 3dbc ee1b 27bd a32e 05bc
000001c0: 4576 45bd 791a 63bd 70a2 adbc 0863 583d
000001d0: 4fe7 e4bc 0140 85bd 8592 9f3a 0aab 673d
000001e0: 1739 333d 66c3 3a3c 5056 3a3d 99d5 9e3c
000001f0: e85f 52bd aedd cfbc 0f49 85bd 7644 1dbd
00000200: 9764 b13c ffcd 51bd fb96 3ebd 61ce 023c
00000210: 8bf0 603d 2d79 2dbd 9eb3 573d 5240 1fbd
00000220: c8bb 223d 1a12 593c b0f4 733c 28d0 373d
00000230: 5869 1fbd ad98 113d 71ea 4bbb 85f9 a23b
00000240: 2974 a6bc f942 323c 477a 053d a5fc 12bd
00000250: 6256 3dbd 25be 8aba 2974 e3bc 31fd 2e3d
00000260: d358 1dbd 577b fe3c c964 db3c 7085 773c
00000270: f826 d5bb 80cf 323c 5ac1 de3c 488d 283d
00000280: e66b ce3c 2d02 3bbd 70fc fbbc 44f4 4c3c
00000290: 948e a1bc 6ac8 1dbd f13e 093d 04b1 e4bc
000002a0: d0c3 22bc 4efc 8e3c b708 2fbd d664 53bd
000002b0: f377 3fbc f7aa 903c edf6 f13c 12f6 153d
000002c0: a008 f13b cd8f f0bb b238 273d 3bd0 cbbc
000002d0: e473 1a3d f0ad cabb 103f febc 9271 3bbd
000002e0: b9f2 093d 077a 2bbd 67a7 9dbc 3171 abbc
000002f0: 49e1 e23c f176 0fbb 1f41 66bd 692e 65bd
00000300: 1209 d13c 11a3 593d 2ffe 38bd 58a2 ff3c
00000310: 48be 413d eeba 2c3d fd55 f73c ac88 3b3d
00000320: 9f88 103d 7e90 7a3c fb53 08bd 6d41 8d3c
00000330: 2117 053d f8ee 23bd eba1 47bd a334 433c
00000340: 46d9 27bd 86d4 783c 0258 14bd 427a debc
00000350: 6a13 a73c 1464 f2bc 7432 0fbd 22e4 29bc
00000360: 7fd5 91bc fdc5 bc3c 0af0 a6bc 7aeb debc
00000370: bd73 07bd 96d2 e3bb e90c 0cbd f360 413d
00000380: 7448 0f3b 8141 033d f1fe 2cbd 5237 bd3c
00000390: 0394 c83c 6e70 803c c5f7 f53c beb9 91bc
000003a0: b9f2 ab3c dcb8 d5bb 4a5d 2cbd 09fe 803b
000003b0: 3d46 a8bc 4ef7 d0bc 2e85 05bd ec2d debc
000003c0: d8a9 253d 7715 ea3c 38e4 fc3c 4ac5 5b3a
000003d0: 267b 3dbc 9c8b 453c 5785 103c 14b7 86bb
000003e0: e408 9fbc 8cc2 9a3c b61f 383d f716 e53c
000003f0: 0b84 943c ad70 a93c 14e9 033c 3529 33bd
-0.044480927 -0.044064783 0.0005227361 -0.032034934 -0.049927384 0.001164412 -0.05806095 0.03801279
-0.04842583 -0.015876697 -0.02985673 0.0023144851 0.040116984 -0.03799937 -0.0038097645 0.03346558
-0.04301215 0.04943106 -0.0555957 -0.029475348 -0.002549397 -0.032951023 0.0297575 0.033158712
-0.032354034 0.030552328 -0.007910023 -0.031790014 -0.011498789 0.010405464 -0.019760935 0.042921606
-0.026228463 -0.00020869322 -0.028388469 -0.00018555326 -0.039260287 0.025565153 -0.051415548 -0.022323722
0.026287168 0.03156139 0.041226372 0.050676804 -0.028785389 -0.0042644413 0.008732307 -0.009836008
-0.025553674 0.00076994894 -0.03831105 0.036057156 -0.027126748 -0.020476656 -0.034375664 -0.035189442
-0.023977771 -0.0027540824 0.041944444 0.032873675 0.0031406793 0.014549231 0.04935548 0.006073291
-0.044157542 -0.023395177 -0.045692332 0.0024941885 -0.062602974 0.04086731 -0.06843543 0.05390775
0.011229916 -0.04661978 -0.0079454975 0.055277262 0.04819741 -0.0077995276 0.042174038 -0.03222938
-0.06690177 -0.012371239 -0.055636782 -0.005475758 0.054607056 0.077695504 0.007896156 0.039017327
-0.045089964 0.030022502 0.042270765 0.002669733 0.05155555 -0.015634444 -0.014379898 -0.008320552
-0.03837978 0.030326081 -0.05016621 0.030190999 0.021244584 0.018145071 -0.047189653 -0.00068181823
0.013605846 -0.042700503 -0.042754043 0.08251277 -0.0026727568 -0.011564178 -0.04079812 -0.008128795
-0.048208494 -0.05544517 -0.02119562 0.05282882 -0.027942328 -0.065063484 0.0012174404 0.0565596
0.043755617 0.011399126 0.04549247 0.01938896 -0.051360995 -0.02537426 -0.065080754 -0.038395368
0.02165441 -0.051221844 -0.046530705 0.007983775 0.0549169 -0.04235189 0.05266153 -0.0388797
0.039729863 0.013248945 0.014889881 0.044876248 -0.038918823 0.035545994 -0.003111508 0.0049735927
-0.020319061 0.010880225 0.032587316 -0.03588547 -0.04622496 -0.0010585232 -0.02776535 0.04272193
-0.038414788 0.031064672 0.026781457 0.015107498 -0.0065048896 0.01091373 0.027191807 0.04115036
0.025197934 -0.04565637 -0.03076002 0.012509409 -0.019721307 -0.038521208 0.03350729 -0.027916439
-0.009934381 0.017454293 -0.04273292 -0.051609837 -0.011686313 0.017659647 0.029536689 0.036611624
0.0073557645 -0.007341361 0.040825553 -0.024879565 0.03770818 -0.0061852857 -0.03103593 -0.045762606
0.033678744 -0.04186442 -0.019244863 -0.020927997 0.027695315 -0.0021890963 -0.056214448 -0.055952463
0.02551702 0.053134028 -0.045164283 0.031205341 0.047300607 0.042170458 0.03019237 0.045784637
0.035286542 0.015293239 -0.033283215 0.017243112 0.03249276 -0.04002282 -0.0487384 0.011914405
-0.040978692 0.015187388 -0.036216743 -0.027157906 0.020395 -0.029588737 -0.034960225 -0.0103693325
-0.017801998 0.023043627 -0.020378131 -0.027211893 -0.03306936 -0.006952594 -0.034192 0.0472116
0.0021863254 0.03204489 -0.04223532 0.023097668 0.02448464 0.01567861 0.030025372 -0.017788764
0.020989763 -0.006522281 -0.042081155 0.0039365334 -0.020541305 -0.025508549 -0.032597713 -0.027121507
0.04044518 0.028574688 0.030870542 0.00083835854 -0.011565005 0.012057211 0.008820853 -0.00411118
-0.019413419 0.018891595 0.044952117 0.027965052 0.01812937 0.02068361 0.008051176 -0.04374047

model.2.bias f4 [64]
00000000: 4792 f33c 65cc a03d a9b1 9e3b 2930 d7bc
00000010: 9ac4 753d 0a1f a63d fb8e a7bd 5662 e1bd
00000020: 1b2d b8bd ac2f c73c 4689 d1bd a420 cabc
00000030: 3e06 34bd 1cfa 8f3c 8a40 9abd c0cb 0c3d
00000040: c9f0 23bc 9bf0 4fbd aa17 fd3d 8f80 b93d
00000050: 58e3 9abc 67e4 73bd b7ad 6b3d 4856 043e
00000060: a444 b9bd f4d8 88bc 1030 0a3d 39c3 47bc
00000070: ec4c 083d 70b2 adbc 1c5e 8abd 93cb bcbc
00000080: 9fc2 f0bd 2048 e6bd 0847 953d a17a 29bc
00000090: a629 74bc 26d7 cb3d b320 c3bd c3f9 64bd
000000a0: f89f 173c c9cf b63c c7ee 603d 80ea 6bbd
000000b0: 7ea3 513d 0e14 ae3d aae4 843c 212c c83d
000000c0: 48a8 d3bd 1052 853d 532c eb3d e8ed d63d
000000d0: 494c 973c 032b 8fbc aa82 ad39 ab25 30bd
000000e0: 4020 d5bd fd6f 5d3d 3782 4dbd 3f9a 22bc
000000f0: 3d3d 81bc faec bb3c c854 04be b06d 9fbd
0.029732836 0.07851485 0.004842956 -0.026268082 0.060001947 0.08111389 -0.08181568 -0.11005084
-0.08992978 0.024314724 -0.10231261 -0.024673767 -0.043951266 0.017575316 -0.07531841 0.034374
-0.010006138 -0.05076657 0.12358029 0.09057724 -0.018907234 -0.059543993 0.057538714 0.12923539
-0.09046295 -0.016705014 0.033737242 -0.012192541 0.033276483 -0.02120325 -0.06756231 -0.02304629
-0.11755871 -0.112442255 0.07288939 -0.010344178 -0.014902508 0.09953146 -0.09527721 -0.055902254
0.009254448 0.022315877 0.054915216 -0.057596684 0.05118131 0.08499919 0.016222317 0.09774042
-0.103348315 0.06509793 0.114830635 0.10494596 0.018468993 -0.017476564 0.00033094484 -0.043004673
-0.10406542 0.05406188 -0.05017301 -0.00992447 -0.015776271 0.022940148 -0.12922966 -0.07784593

model.4.weight f4 [64, 64]
00000000: 4c35 8fbc c3e3 15bd 346d 623c 9824 06bd
00000010: 56a3 373d 9302 f03c b903 fdbc f2b4 b23c
00000020: 3966 b2bc 506f 423d ae67 31bd d054 df3c
00000030: 509a 0b3d ccf1 d8bc d1cb 2cbd ed7b 053d
00000040: 2b16 ecbc a0b5 8b3c 173a 273d 13e0 243d
00000050: d27f 2d3d 11c0 2c3d 3109 1fbd 729f 173d
00000060: d8d9 ef3c fb9b 25bd c599 3d3d 8e41 243d
00000070: 05aa ab3b cf74 d4bc 9fc9 44bd 14e3 d4ba
00000080: a2f8 31bd 9c7e 223d b14c a5bc c28b 1abd
00000090: 0944 dcbc 7648 7bbc 604c 07bd 5d23 35bd
000000a0: e99e ddbc 04be c83c 9b38 b03c 2f06 99bc
000000b0: b6ce b8bc 1ba9 a13c 3536 1b3d f052 d93c
000000c0: c1c7 2a3d 9704 cf3c c6a9 1c3d 7540 023d
000000d0: 633c 063d 4a2a f63c 95de fb3c 34f4 eabc
000000e0: 0730 d33c 999b edbc 0ad5 283d 52dd 16bd
000000f0: 470c 0a3d e8da 2e3d 556f c3bc 492c d7bc
00000100: 4bc4 dbbc c65e f93c 713f 283c 14fe 043d
00000110: 583d b43c 6365 4e3c d631 a6bc 3901 003c
00000120: d8b8 db3c 5a36 49bd 5c30 463d b70e 01bd
00000130: d23b d8bc cc5c c83c 70a9 e53c 334c a43c
00000140: 6f52 0a3d 3c72 1fbd 37fb 18bd f2d2 22bd
00000150: 4bfc 17bd 8afc 20bd 80f7 b53c 387c f2bc
00000160: e725 d8bc 183a 263d 844a 05bd b5fb 393d
00000170: a03b 07bd 0d2f 923c 94c1 4b3d 6565 15bc
00000180: b6bb f43c d9fe 33bd f562 8fbc e362 0d3d
00000190: d669 1b3d c0d3 4e3c 4e28 a13c 816f 393d
000001a0: 6041 453d 17d8 c0bc 53a5 e83c c701 8a3c
000001b0: 56d1 513c 443b a33c 7a58 ecbc e9bd c43c
000001c0: 2a28 efbc be34 31bc 50e4 10bd 23c1 05bd
000001d0: e5f8 a9b9 e5b5 a0bc 2582 bc3c 6b17 b63b
000001e0: 962f e83c 09e5 283d 3ac8 26bd b084 57b7
000001f0: 8b68 1abd f796 26bd a6be 2e3d e600 e23a
00000200: 7d64 a13c a807 03bd 7103 3cbc c452 08bd
00000210: 5a86 4a3d 9cf8 a63b 2aa3 f8bc 1195 fd3c
00000220: 4948 173d c679 413d a22d 1b3c 77f3 60bc
00000230: cf16 d73c 81f5 0fbd bdf2 2abd 11bd 0f3d
00000240: 4ad5 cebc 2545 0c3d 2104 203d 0e66 9a3c
00000250: 676d 073d 11bd 193d e6a3 23bd 0a1d f03c
00000260: d986 e63c 0129 b3bc 28b1 483d ebbd 583d
00000270: 34cb f6bb 2ff9 acbc 4131 32bd c50a cebc
00000280: 75cc 1cbd 65d7 3abc a73f 29bd 43ad 14bd
00000290: 26ad 3e3c 04b0 aa3c ebcb 13bd 42bf 38bd
000002a0: ed2a 11bd 9c71 5d3d 191c 133d 708c f1bb
000002b0: 8b57 61bc 26af c53c be04 043d 51b0 023d
000002c0: 1c42 263d e60d b13c 4107 d23c 2e3f c73c
000002d0: 2ef6 1d3d 8712 103d 65d3 9f3c 3c21 d6bc
000002e0: 6bff cdbc 813e d2bc 942d f83c 31f5 e43c
000002f0: 57ef b73c e9d6 183d 1c15 7ebc 06f2 04bd
00000300: 4ff4 eeba f9df 04bd 5036 93bc 8be4 253c
00000310: dc23 0c3d 63f9 b0bc ec11 09bd a1c0 9a3c
00000320: cdd1 d3bc 4d15 5d3c 6ba7 efbc f9a8 8f3c
00000330: e3ee 643c 21b8 d1bc 6fa5 88ba 879e 843c
00000340: 1f14 3bbd e1a9 a4bc d320 a93c 21d8 043d
00000350: fe4c fa3c f539 023d 0f9b c5bc 420b d73c
00000360: 565e d83c 145f 84bc 240c e53c 63dc e9bc
00000370: bf52 943c 719b c2bc 4df2 a03c a458 07bb
00000380: 33f8 e9bc 58ad 023d 8d67 d03c 0641 bbbc
00000390: d0a9 b9bc db63 d2bb 9e43 123c 6ef7 eebc
000003a0: 165f af3c 84bd 6fbb 39b5 ff3b 7bf9 b5bc
000003b0: 3efe 383c 008c cbbc f413 e23c 138b 9fba
000003c0: f15c ab3c 976b 9a3b 6d5e 013d e490 3fbc
000003d0: 2c62 6e3c 880f 0b3b b9cb 9dbc 76d1 a5bc
000003e0: 8d17 be3b ceb9 713c 008f 0b3d 2959 a23c
000003f0: 0088 e13c 1361 b33b a95e 01bd 7b8d f43b
-0.017481469 -0.036594164 0.013819981 -0.032749742 0.044833504 0.029298102 -0.030885564 0.021814797
-0.02177726 0.047469437 -0.043311767 0.027262121 0.03408271 -0.026482485 -0.042186562 0.032588888
-0.028819164 0.017054379 0.040826883 0.040252756 0.042358227 0.042175356 -0.038827125 0.037017293
0.02927868 -0.040431958 0.046289224 0.04010158 0.0052387738 -0.025934605 -0.048043843 -0.0016241991
-0.043450005 0.039671525 -0.02017817 -0.03773094 -0.02688791 -0.0153371 -0.03303182 -0.04422318
-0.027053313 0.024504669 0.021511367 -0.018679706 -0.022559505 0.019733956 0.037893493 0.026528805
0.041694406 0.025270743 0.038247846 0.031799752 0.032772433 0.030049462 0.030745784 -0.028680898
0.025779737 -0.029004859 0.041218795 -0.03683216 0.033703115 0.042689234 -0.023856798 -0.026266234
-0.026826998 0.0304407 0.010269032 0.03246887 0.022001907 0.012597415 -0.020287436 0.0078127915
0.026821539 -0.0491241 0.048385963 -0.031508174 -0.026395712 0.024458311 0.028034896 0.020055866
0.03377002 -0.0389273 -0.037348952 -0.039751954 -0.03710584 -0.03930334 0.022212744 -0.029600248
-0.02638526 0.040582746 -0.032541767 0.045406062 -0.033015847 0.017844701 0.049745157 -0.009118413
0.029874664 -0.043944214 -0.017503241 0.034518134 0.03794273 0.012623727 0.01967254 0.045272354
0.04815805 -0.02354054 0.028399145 0.01684655 0.012806257 0.019925721 -0.028850783 0.024016337
-0.029193956 -0.010815797 -0.035373986 -0.032654893 -0.00032419633 -0.019617984 0.023011276 0.005556991
0.028343003 0.04123405 -0.040718295 -1.2845892e-05 -0.037697356 -0.040671315 0.042662285 0.0017242699
0.019701237 -0.031989723 -0.01147543 -0.033282056 0.049444534 0.0050955545 -0.03035124 0.03095487
0.03693417 0.047235273 0.009471329 -0.013729922 0.026255993 -0.03514624 -0.0417354 0.035092417
-0.025248189 0.03424563 0.039066438 0.018847492 0.03306332 0.037533823 -0.039951228 0.029310722
0.028140472 -0.021870138 0.048997074 0.052915495 -0.007531548 -0.021114914 -0.043504003 -0.02515162
-0.038280923 -0.011403893 -0.04132047 -0.036298048 0.0116379615 0.020835884 -0.036083143 -0.045104273
-0.035441328 0.054063424 0.035915468 -0.007371478 -0.013753782 0.024131369 0.032231085 0.03190643
0.04059039 0.021613073 0.025638225 0.024322119 0.038564853 0.03517392 0.01950998 -0.026138894
-0.025146207 -0.02566457 0.03029517 0.027948948 0.022452993 0.03731433 -0.015507963 -0.032457374
-0.0018230769 -0.03244016 -0.017970234 0.01012529 0.034213886 -0.021603292 -0.033464357 0.01889068
-0.025856877 0.013493848 -0.029254636 0.017536627 0.013972971 -0.025600495 -0.001042528 0.016188873
-0.045673486 -0.020100536 0.020645535 0.03243268 0.03055429 0.031793553 -0.02412179 0.026250485
0.02641217 -0.016158618 0.02795989 -0.028547471 0.018105863 -0.02375576 0.019646788 -0.00206522
-0.028560733 0.031903595 0.025440002 -0.022858154 -0.02266398 -0.006420595 0.008927254 -0.029170718
0.021407645 -0.0036581466 0.007803586 -0.022213688 0.011291085 -0.02484703 0.027597405 -0.0012172185
0.020918341 0.0047125327 0.031584192 -0.011692259 0.014549773 0.0021218974 -0.019262182 -0.02024148
0.0058011473 0.014753772 0.034071922 0.019817906 0.02753067 0.0054742186 -0.031584416 0.007463155

model.4.bias f4 [64]
00000000: 937e fb3d 84f3 c6bc 7e3b 16bd 159d f8bd
00000010: 142c f03b 547d dcba d718 023e 1a7b 903d
00000020: 164d bb3d 5bef a33c d48b 66bb c93d 4bbb
00000030: 9d19 bcbd 37d2 e23c 7206 afba 7317 b73d
00000040: bab4 75bd bc0f dcbc c454 453d 8d83 84bb
00000050: 6944 babb e6b8 e0bc b345 863d be49 d93d
00000060: 171f c73d d193 ebbd 35a5 cbbd a0bc e23c
00000070: 5015 15be 4514 9fbd ce4e 9cbc 9a0b 833d
00000080: eda0 c23d c164 f33d 6c39 b1bd 8ff7 203d
00000090: 105a a3bd d509 80bd 255a ad3c b145 15bd
000000a0: d74a 4b3d 9e6b 04bc 469f e3bd 61a9 c03d
000000b0: 1135 ad3d 97d4 873d ff37 60bd b1d0 343c
000000c0: c47b 95bd 7e13 a3bd b0a0 22bc 48a8 9c3c
000000d0: 0a37 0dbd e8cb aabd 53ba 873c d456 febd
000000e0: 4258 e83d e755 c53d 6a74 76bd c3b8 bf3d
000000f0: b705 f53c b814 9c3d 4ddd eebc 7c95 253b
0.122800015 -0.02428604 -0.03667783 -0.12139336 0.0073294733 -0.0016822019 0.12704788 0.0705473
0.09145562 0.020011595 -0.003517856 -0.0031012169 -0.09184573 0.027688129 -0.0013353361 0.089400195
-0.059986807 -0.026862971 0.048176542 -0.0040440024 -0.0056844247 -0.027431916 0.06556263 0.10609768
0.09722727 -0.11502803 -0.0994362 0.027677834 -0.14558911 -0.07767538 -0.019080546 0.06398697
0.095033504 0.11884452 -0.086535305 0.03929859 -0.079761624 -0.06251875 0.021161148 -0.036443416
0.04963192 -0.008082299 -0.11114363 0.094073065 0.08457387 0.06632345 -0.054740902 0.011036084
-0.07298997 -0.07962702 -0.009926006 0.019123212 -0.034476317 -0.08339673 0.016568338 -0.12418905
0.11344959 0.09635525 -0.060169615 0.093614124 0.029909952 0.07621139 -0.029158259 0.0025266102

model.6.weight f4 [64, 64]
00000000: 4509 4fbc c903 573c e549 bdbc 2ee8 7cbc
00000010: 92cb e33c 39b6 4a3d 017b ef3c c4d0 3f3d
00000020: 87d0 81bd 5d27 d1bc e85c 173c 480e 303d
00000030: 0a59 633c eb4f 44bd 9961 c43c 8c31 b73c
00000040: dbd5 193c 4a69 8e3c 2b2b 9a3c f112 b63c
00000050: 09cf e7bc 9f83 acbb 2550 423d 8f47 ccbc
00000060: 309b 09bd 0529 2fbd e544 0f3c d367 e93c
00000070: 23d9 173d 061d 09bd 735e 95bc d552 103d
00000080: de55 eabd bc1a c6bc 726e 8cbc a370 353d
00000090: dc3d 05bd e871 0d3d a3d0 2aba 830d 033c
000000a0: 2d10 4dbd 3e1f 433d 0021 6a3c 1199 23bd
000000b0: df73 2fbd 8d40 723c ae01 073d 711f 3a3d
000000c0: 612a 8cbc 2a67 c83c ee0d 90bc 7514 073d
000000d0: ac86 c93c baa2 14bd 61d0 3c3c 5d1b f83c
000000e0: 4a06 1e3d 1e1f 0b3d 4d09 b33c c550 8c3c
000000f0: 01da cd3c 7e20 003d b685 b63b 43dc 533d
00000100: c6f9 293d 1cfb 1cbd 5e0b 023d b7d1 283c
00000110: bd8d c0bc 88ad 37bd e9c1 b63c 8c93 03bd
00000120: ed5b 233d 435b f7bc 2a7c eebc d0a3 b2bc
00000130: 85a2 60bb 8bef 103d b7f5 febc 53bf c63c
00000140: a207 1ebd b29c e3bb 4dcb 953c b70a aebc
00000150: f17a 67bc 40e6 f43c 3cc8 ad3c 55ea f53c
00000160: 8984 c43c b577 563c e650 13bd a0e7 16bd
00000170: 946d 35bd a9cd 27bd 38bd 2e3d 6071 363d
00000180: 16d4 97bb 7fca c13c d2d5 14bd 4e29 03bd
00000190: 72a5 00bd c843 1abd 477d e33c 8501 0fbd
000001a0: 0569 093d 3b6d 0e3d ee69 de3c 041c 0d3d
000001b0: b06b a8bb 3d66 b2bb e81c d4bc 4321 12bd
000001c0: 1d07 cd3c 581f 25bd 0f39 1c3d 0ef9 e6bc
000001d0: 7cbd 163d f5a6 0fbd cde7 19bd e818 18bd
000001e0: 5d43 033d 1ad7 543c 0ab9 d73c 7ca1 ac3c
000001f0: a65a 1b3c 38c2 17bd cc7f 123d cd58 08bd
00000200: c8b5 003d 225b 05bd 982f 2d3d cc63 e43c
00000210: 2137 c13c ea20 1bbd b480 693c 677f 3dbd
00000220: dd50 5f3d 651a 213d 41a4 53bd cede 8dbc
00000230: d105 213d 3f1b 2f3d ff3c f63c d7f4 2cbc
00000240: 6f93 50bc d90e 183c cfc5 143d 5c00 0fbd
00000250: 94de 06bd e1d3 223d 72d5 9e3c 253b 38bb
00000260: 8697 163d 211b 24bd e4ca 943c 31e6 a6bc
00000270: 48e0 e1bc 0cc1 073d bec9 aabc 62d5 943c
00000280: 3b6d cc3d b80c 44bd 6bb3 dcbc 23d5 45bd
00000290: 2159 873b df93 32bc 8424 0fbd d673 ed3c
000002a0: 05fd 183d bc63 a43c 2519 a83c ead8 88bc
000002b0: 60e1 2f3d 5cc4 92bc c76a 44bd 61c0 39bd
000002c0: 4f0a f03c 679a 0bbd 4344 363b db60 943c
000002d0: 7c5c bcbb 0cfd 0bbc 672a a8bc b2d6 963a
000002e0: ce24 08bc f11a c13c 9bec 2cbd 5414 133d
000002f0: 78ec db3c 6f35 39bd 2bd2 073d fff3 efbc
00000300: 23c8 0dbc 3e22 d1bc 16d6 b4bc 8280 83bc
00000310: 83b7 30bc e1b8 0d3d 36f2 1e3d 3b77 1d3d
00000320: b1e0 4fbd 0287 9f3b b558 c93c f084 073d
00000330: 6de5 2c3c dd2d 1abd 04b9 84bc eaa2 7d3c
00000340: d240 a23c 8c20 093d cdf3 753c 269a b73c
00000350: e8a9 bfbc a0d7 353c 6f50 1b3d 19cb 4cbc
00000360: 7596 b9bc 3f18 2cbc 06fe c6ba 6792 6ebc
00000370: 9e86 df3c 15ca 05bd 91f5 adbc e584 0c3d
00000380: df39 b1bd 8284 26bc 9f09 92bb eb59 1e3d
00000390: c39d dd3b 1f98 e13c b470 97bc d4f7 293c
000003a0: a634 15bd efa0 293d 2b3a 013d a288 eebc
000003b0: 1e82 17bd 730c 133d 8b6e e63c 81ce e13c
000003c0: d83a d8bc 4310 cc3c 12c0 bcbc c1df 983c
000003d0: 7561 c23c 2cf8 1fbd d229 493c 212c eebc
000003e0: edda ee3c 0204 583c 9e47 3d3c ca10 b23c
000003f0: ba2c cdbc 8a49 e43c cf8f 753c 527f 143d
-0.012636487 0.013123461 -0.023106525 -0.015436215 0.02780703 0.049490187 0.029233458 0.046829954
-0.063386016 -0.025531465 0.009238459 0.04298237 0.013876209 -0.04792778 0.02397232 0.022362493
0.009389366 0.01738419 0.018819412 0.022225829 -0.028296964 -0.005264714 0.047439713 -0.024936466
-0.033595264 -0.04276373 0.008744453 0.02849189 0.037072312 -0.033474945 -0.018233513 0.035235245
-0.11442159 -0.02418267 -0.017142508 0.044296872 -0.032529697 0.034532458 -0.00065160746 0.007998827
-0.050064255 0.047637217 0.014290094 -0.039940897 -0.042835113 0.014785898 0.032960586 0.04544014
-0.017110052 0.024463255 -0.017584767 0.032978494 0.02460035 -0.036288 0.011524291 0.030286485
0.038580216 0.033965223 0.02185502 0.017128358 0.025128366 0.031280987 0.005570139 0.05172373
0.041497968 -0.038325414 0.03174912 0.010303906 -0.023505086 -0.044843227 0.02230926 -0.032123134
0.03988259 -0.030194884 -0.02911194 -0.021806628 -0.0034276557 0.035384696 -0.031123025 0.024261152
-0.038581498 -0.00694617 0.018285418 -0.021245344 -0.014128433 0.029894948 0.021213643 0.030018965
0.023988979 0.013090064 -0.035965823 -0.03684199 -0.044293955 -0.040967617 0.04266092 0.044541717
-0.004633437 0.023656128 -0.036336727 -0.032021813 -0.03140778 -0.037662297 0.027769698 -0.03491356
0.03354742 0.03477214 0.02715012 0.034450546 -0.0051397905 -0.0054443167 -0.02589269 -0.035676252
0.025027806 -0.040313095 0.038140353 -0.02819493 0.0368018 -0.035071332 -0.037574578 -0.037133127
0.032046665 0.012990737 0.02633335 0.021073096 0.0094820615 -0.037050456 0.035766408 -0.033287812
0.03142336 -0.032557614 0.042281717 0.027879618 0.023585858 -0.037873186 0.014251877 -0.04626408
0.054520477 0.039331812 -0.051670317 -0.017318156 0.039312188 0.042750593 0.030058382 -0.010556421
-0.012730463 0.009280884 0.036321457 -0.034912452 -0.03292711 0.039752845 0.019388888 -0.0028111425
0.036765598 -0.040064935 0.018163152 -0.020373436 -0.027572766 0.03314309 -0.020848151 0.018168155
0.099817716 -0.047863692 -0.026941022 -0.048298966 0.004130498 -0.010899513 -0.034946933 0.028985899
0.037350673 0.020067088 0.020519802 -0.016704995 0.042939544 -0.017915897 -0.047953393 -0.045349482
0.02930179 -0.034082796 0.0027811683 0.01811259 -0.0057483297 -0.008544218 -0.020528032 0.0011508076
-0.008309556 0.023572417 -0.042217832 0.03590806 0.026846156 -0.045216974 0.033159416 -0.029291151
-0.008653673 -0.025529023 -0.02207474 -0.016052488 -0.01078594 0.034600142 0.03880521 0.038443785
-0.05075139 0.004868389 0.024578432 0.033085763 0.010552746 -0.037641395 -0.016201504 0.015480736
0.0198063 0.033478305 0.01501174 0.02241237 -0.023396447 0.011098772 0.037918504 -0.012499594
-0.022654751 -0.010503828 -0.0015181906 -0.014561272 0.02728587 -0.032663424 -0.02123526 0.034306426
-0.08653616 -0.010163428 -0.0044567133 0.03865997 0.0067631914 0.027538357 -0.018486358 0.010374028
-0.036427163 0.041413244 0.031549614 -0.029117886 -0.036989324 0.035900544 0.028128883 0.027564289
-0.026395246 0.024910098 -0.023040805 0.018661382 0.023728112 -0.039055035 0.012278037 -0.029073777
0.029157126 0.013184549 0.011552719 0.021736521 -0.025045741 0.027867097 0.0149879 0.036254235

model.6.bias f4 [64]
00000000: 6096 02be da3e f13d f411 74bd 1297 e53d
00000010: 3b32 ce3d 700c 9cbd 56c0 be3d c021 19bc
00000020: db30 223d 3123 023e e892 f23d bd07 cd3c
00000030: cc6b 7abc d7ed 9bbd 2c8d 683b dd13 de3d
00000040: db2b d1bd e6ee fcbd 6044 023d 1ca7 f63d
00000050: 4222 86bd 020e 553c adc5 9cbc 104b 00be
00000060: 5230 60bd 53a4 9fbd 26a7 253c 78e3 3fbd
00000070: 2914 bcbc b640 5e3d f9ff 29bd 943f f43d
00000080: 4aa4 c4bd 1ff1 ebbc 835b c43d b382 1d3d
00000090: dc57 d13d 607a 713c dccc 92bd dcc7 603b
000000a0: e674 80bd a2b4 17bc 5712 7e3d 56da d93d
000000b0: 70b9 e2bd e5c2 a93d 7ccc 8ebd 621f a7bd
000000c0: 326d e6bd 6023 2fbd 7db3 46bd 95e1 0ebd
000000d0: 5c32 e2bd e117 7dbd 0dde 55bd 1c59 003d
000000e0: 28ee 9d3d 2cbd 0dbe 9eca 8339 59ec f03d
000000f0: 2aaf 043d b3d9 79bb b559 a73d ddf4 b4bd
-0.12752676 0.11779566 -0.059587434 0.11210455 0.100681745 -0.0761956 0.09314029 -0.0093464255
0.039597373 0.12708737 0.118444264 0.025028104 -0.01528449 -0.07613724 0.0035484536 0.10843632
-0.10213443 -0.12350254 0.03180349 0.12043592 -0.06549503 0.013003828 -0.019137228 -0.12528634
-0.05473358 -0.07795014 0.010110652 -0.04684779 -0.022958832 0.054260932 -0.04150388 0.11926189
-0.09601648 -0.028801499 0.09587767 0.038454723 0.10221836 0.014738649 -0.0716798 0.0034298813
-0.062722966 -0.009259375 0.06202921 0.106373474 -0.11070526 0.08289126 -0.06972596 -0.08160283
-0.11251296 -0.042758346 -0.048511017 -0.0348831 -0.110447615 -0.06179035 -0.052213717 0.03133498
0.0771144 -0.13841695 0.0002513723 0.1176383 0.032393612 -0.0038124144 0.08171407 -0.088357665

model.8.weight f4 [1, 64]
00000000: 77d1 87bd 79f0 9e3d f004 903d 2161 3dbd
00000010: 5972 9bbd 16b7 81bd e171 893d 44c5 b5bc
00000020: e0ee b1bd f705 b13d f198 89bd 4e42 933d
00000030: 704e 82bd 9077 873d 783d 983d 97f0 953d
00000040: d81e 99bd f422 b6bd 2a42 8c3d ceeb 8b3d
00000050: 6ca2 8fbd 055b a1bd ebf5 9cbd 3e14 8cbd
00000060: 2b58 903d 499c 7a3d 5bc4 803d 3819 9abd
00000070: 512e f8bc a29e 74bd bcaf 01bd 2450 9cbd
00000080: 1937 8abd 2fa2 90bd 0e69 983d 2dc2 ad3d
00000090: eb7c 953d c81a 603d 19a2 903d 5525 8f3d
000000a0: f009 9bbd ddce 8f3d 7ed1 3bbd a79c 903d
000000b0: 8fe3 9b3d 8581 67bd d985 803d 53cf 983d
000000c0: 19f7 8cbd 007a a5bd 4a52 833d 6f74 94bd
000000d0: 8db0 8abd e060 49bd 3d42 8d3d 41e7 79bd
000000e0: d736 80bd 2358 9cbd bda5 963d 85d4 773d
000000f0: f7ab 983d ffd7 88bd 0c0e 76bd 9431 853d
-0.06631749 0.0776071 0.07032192 -0.046235207 -0.075901695 -0.06333749 0.06711174 -0.02218879
-0.0868814 0.08643716 -0.067186244 0.07190381 -0.06362617 0.066146016 0.07433599 0.073212795
-0.07476586 -0.088933855 0.06848557 0.068320855 -0.070134014 -0.07878689 -0.07664093 -0.068397984
0.07048067 0.0611842 0.06287452 -0.07524341 -0.030295523 -0.059721597 -0.031661734 -0.07632473
-0.0674879 -0.07062184 0.074419126 0.08484302 0.07299217 0.05471304 0.07062168 0.069895424
-0.07570255 0.07021878 -0.045854084 0.07061129 0.07611763 -0.056520004 0.062755294 0.07461419
-0.06883068 -0.0807991 0.0641218 -0.072487704 -0.06771956 -0.049164653 0.068973996 -0.061011557
-0.0626046 -0.07633998 0.07355831 0.06050541 0.07454675 -0.06681823 -0.06007199 0.06503597
