parabola/conversion/snnmodel_cali32.pth (torch, 54796 bytes, 9 tensors)

model.0.weight f4 [64, 1]
00000000: 0223 463f 317b 69be 04ee 92bb 3e59 b1be
00000010: 8504 d1be 9a26 1fbe 657b 56ba f2aa 82be
00000020: 25ca bebe 78d9 37bf d66d 1a3f 03fe f9be
00000030: 7c6c 623f b917 2d3d 15f9 2e3f f781 c6bc
00000040: ca1a 523f 4524 d8bc 6559 30bf 37b6 0f3f
00000050: b350 5c3f ddff 5ebf c320 9cbd 0bb9 26bf
00000060: c1a4 4d3f 1486 4dbf 93ba 60be 9059 f93d
00000070: 3a9b 93be 4b84 573f 4d9c 54bf ffab debe
00000080: 3007 d3be b402 52bf 2ab0 04bf 3ebb 53bf
00000090: 33d1 b63e dd36 583f 3534 02bd 5982 4a3e
000000a0: 1924 2dbe aa06 ae3d 77c1 f93d 1bc1 38bf
000000b0: ee8e 3ebd 73bf 6d3f 9fc8 903e ca7b 403f
000000c0: 5da4 2dbf dbf0 61bf f01a 6c3e 7969 533f
000000d0: b405 40bf 59ac 62bf 9d84 4ebf 0f03 55bf
000000e0: 723f b4bd a3fb 873d e414 b9be 6bf6 343f
000000f0: 3898 5abf 7565 50be c81e 563a a2cb 8fbe
0.7739717 -0.228009 -0.00448394 -0.346384 -0.4082376 -0.15542069 -0.00081818394 -0.25521046
-0.372636 -0.71816206 0.60323846 -0.48826608 0.88446784 0.04225895 0.6834882 -0.024231894
0.82072127 -0.026384482 -0.68886405 0.5613741 0.8606064 -0.87109166 -0.07623436 -0.65126103
0.8032952 -0.8028271 -0.21946172 0.12175286 -0.28829366 0.8418624 -0.83050996 -0.43490598
-0.4121642 -0.82035375 -0.51831305 -0.82707584 0.3570648 0.84458715 -0.03178807 0.19776286
-0.16908301 0.08497365 0.121951036 -0.72169656 -0.046523027 0.92870253 0.28278062 0.7518889
-0.67828923 -0.8825814 0.23057151 0.82582814 -0.750087 -0.8854423 -0.806711 -0.8320779
-0.08801164 0.06639793 -0.3614875 0.70688504 -0.8538852 -0.20351203 0.0008168039 -0.28085047

model.0.bias f4 [64]
00000000: 968e 06bf 9999 54bf 93b1 0f3f 7dcb 8bbe
00000010: afb5 69bf 9be9 f1be 85c4 823f af2f 01bf
00000020: 3a98 6b3f b6e4 20bf 6807 c03d 4b25 8cbf
00000030: c9ad 3d3f 04a0 c03e e4bc 403f 0bce 993e
00000040: 6c12 17bf 093a 2abf 2b2e 52bf 918f c03d
00000050: 9d94 523f 9c35 703f 6fd8 a43e 3557 afbe
00000060: dafa 06bf 1e2b 743e 7aba 97be 6ae5 bcbe
00000070: c40b 45bf cad0 53be 8083 acbe 232f 693f
00000080: 9b99 623e 888e 82be e520 f93e 9e8b 163e
00000090: 78ac 60bf 2b7a 6abd bf7d 3a3f 1abe 363e
000000a0: bc2c 4f3e e6fc b03e cb66 e73e bb1e 453f
000000b0: 40e3 21bf 955a cbbe acb6 833e 6c34 963e
000000c0: 8d37 4ebf ae65 b1be 5312 0cbf b305 f03e
000000d0: e923 99be 45cb 11bf b96f a2bd ac18 153f
000000e0: 72fd c6be 789a e93e a280 2ebf 170c 16be
000000f0: 1b88 aabe e20a 073e 50be 753f e1ff 653f
-0.5256132 -0.8304687 0.5613033 -0.27303687 -0.9129285 -0.4724854 1.0216223 -0.50463384
0.92029154 -0.62848985 0.09376413 -1.0948881 0.740933 0.37622082 0.75288224 0.3004001
-0.59012485 -0.66494805 -0.82101697 0.09402383 0.82258016 0.938318 0.32196376 -0.3424622
-0.5272652 0.23844573 -0.29634458 -0.3689378 -0.7697108 -0.20685115 -0.33694077 0.9108755
0.22128908 -0.25499368 0.4865791 0.14701697 -0.87763166 -0.057245415 0.72848123 0.17845955
0.20231909 0.34567946 0.45195612 0.77000016 -0.6323738 -0.39717546 0.25725305 0.2933687
-0.80553514 -0.34647888 -0.5471546 0.46879348 -0.2991021 -0.5695079 -0.07931466 0.5824077
-0.38865238 0.45625663 -0.6816503 -0.1465305 -0.33306965 0.13187745 0.9599352 0.89843565

model.2.weight f4 [64, 64]
00000000: 1acd 47bd 83a9 4cbd c4cd 75bc 57af 08bd
00000010: 2c4e 6fbd 17cc 71b8 59f2 90bd 3805 2d3d
00000020: dcfb 65bd 537a 093b f3c0 09bd b2b4 01bb
00000030: edd5 1a3d cb39 2abd 952f 40bc 30a8 053d
00000040: 0207 26bd dc25 633d 4e3a 89bd 56e7 03bd
00000050: e970 2bbc d87d d2bc 6642 2e3d 5e45 453d
00000060: 5f95 9fbc a633 cb3c ac64 a4bc 43a5 c5bc
00000070: 6ee7 c6bb 157c ce3b 5432 3fbd bbc4 3b3d
00000080: 1506 86bc 7913 b53c c080 a4ba d66e 553c
00000090: 4167 2abd 6c36 323d 3167 87bd efc7 69bc
000000a0: 9142 c8bb 224d 473d 7a39 463d 08d0 673d
000000b0: 666c 47bd 3d22 27bc d511 7b3c 0b90 fcbc
000000c0: b35a c7bc 1b4c 23bd ccdd 3bbd fe5f 6a3d
000000d0: 13ee 0abc 8d46 a33c b5bb ecbc 135b 49bd
000000e0: f29c 9cbc 11c2 d63b fd53 283d 5750 3d3d
000000f0: 71da b4bc d2ae ed3c 111d 793d 429c 0e3c
00000100: d561 49bd 3a33 61bd e0e4 65bd 87de 893a
00000110: b5cd 8fbd eabd 463d 84e1 9dbd 8243 593d
00000120: daf3 49bc 1704 23bd d8a9 30bc 8109 8e3d
00000130: 4070 363d 80d4 083c 6efa 3b3d 0684 62bd
00000140: 2548 76bd 8023 ffbc 343d 7abd e5fa 65bc
00000150: 1244 4a3d 3fb6 a83d f88d 3c3b c48b 1d3d
00000160: ea39 31bd a7e7 113d afdd 3e3d 2ce3 553c
00000170: f27f 7b3d df1e c0bb 3958 00bd fde3 94bc
00000180: 4c07 0abd a1a5 163d ea8b 5dbd 6c8c 263d
00000190: d46f 013d d4c0 2d3d 54a0 ffbc 543c 503c
000001a0: 0d04 1d3d 64e7 0dbd db75 66bd a57b a83d
000001b0: a1fe 1dbd dc0d f1bc 8537 64bd 5c88 09bc
000001c0: 899c 40bd e16d 83bd 7459 0fbd b46a 2f3d
000001d0: 553e f2bc eaec 8ebd 4df4 a63c 8b13 623d
000001e0: 25e0 203d fb78 a53c b4e5 443d 81ab ee3c
000001f0: 84c4 66bd cc1a 6ebb 742c 8cbd 3b95 28bd
00000200: be6b fc3c 812a 38bd d30c 43bd c96c 743c
00000210: 04e2 6f3d f40c 15bd 9f4d 6e3d 616d 06bd
00000220: a2f0 4b3d 3b37 863c 7649 ad3c cf9e 213d
00000230: 20b5 76bd 98a7 2c3d 8ad9 8ebc 1681 093d
00000240: 6314 0bbd 93f8 7dbb 1d93 3b3d 2cd9 e4bc
00000250: 5d8a 7fbd d983 613c 9ad8 ebbc b4f1 263d
00000260: 3b33 28bd 9c54 fe3c 1913 963c a94f c73c
00000270: 4b58 76bc 847d 8c3c aa95 043d 9f81 543d
00000280: 4d7a 8a3c 5897 4dbd b0d8 1bbd 760f 8dba
00000290: db23 e3bc 8b57 f1bc 528a c33c 05e2 7cbc
000002a0: aaab aa3c 8c5e 6e3c 2786 2bbd 0c4c 44bd
000002b0: c742 34bc 0e1d 953c 3cc3 b23c e5ae 2d3d
000002c0: ffe6 c23c 9054 85bb abd0 fa3c c2ea cb3b
000002d0: 324a 213d 3102 d5bb efbb fcbc 358a 69bd
000002e0: c7fc 0b3d c6a2 4bbd c6ac b3bc 79f2 fcbc
000002f0: 4b0d f93c 74e6 d1bc ea63 84bd 9464 79bd
00000300: 08c4 123d 03e3 803d a011 63bd 5e8e 233d
00000310: db62 723d 9151 cf3c fbf0 113d 9a19 5c3d
00000320: c376 f13c b319 2e3c 9698 3cbd 5d30 853c
00000330: 2aa3 593d c6a7 20bd 2852 6abd c13f 873a
00000340: 4e37 37bd 726c 053c cf06 3ebd 4269 ccbc
00000350: 49b1 b33c 6ea1 13bd f13e 3ebd 538d e0bc
00000360: 040b 94bc 127c 313d da01 9fbc 8535 edb9
00000370: dfd7 f5bc 7b46 a1bc 8690 36bd d046 593d
00000380: bf55 1ebc c181 373d 72c3 49bd 7a40 223d
00000390: 348a e33c 487f 293c c0a3 183d d26a 31bd
000003a0: c66c 243d 9b3b 9f3b 6474 39bd f227 8abb
000003b0: 0b6e 8ebc f541 16bd fb6b 26bd 5652 5b3c
000003c0: cb9c 203d 5e88 063d 18aa ef3c 4e66 85bc
000003d0: 06d3 92bb 401c 083c fbfa 7639 d870 d1ba
000003e0: b2de fdbc e5dc 613c 128a 363d 33b8 173d
000003f0: d830 863c 73a8 60bc a029 303c c254 63bd
-0.048779584 -0.049966346 -0.015002672 -0.033370342 -0.05842416 -5.764895e-05 -0.07077474 0.042241305
-0.056148395 0.0020977452 -0.033631276 -0.001979154 0.03780167 -0.041559022 -0.011730094 0.0326311
-0.040534027 0.055456027 -0.06700574 -0.03220304 -0.010463932 -0.025694773 0.04254379 0.048161857
-0.019480405 0.024804901 -0.020067535 -0.024126654 -0.006070069 0.006301413 -0.046678856 0.045841914
-0.016360322 0.022104012 -0.0012550578 0.013026914 -0.041602377 0.043508932 -0.06611479 -0.014268859
-0.006111451 0.048657544 0.048394658 0.05659488 -0.04868736 -0.010201034 0.015324076 -0.030830404
-0.024335241 -0.0398675 -0.04586582 0.05722045 -0.008479613 0.019931102 -0.0288981 -0.04915912
-0.019117806 0.0065538962 0.041095722 0.046219196 -0.022076817 0.029014025 0.060818736 0.008704247
-0.049165566 -0.054980494 -0.056126475 0.0010518589 -0.070216574 0.04852096 -0.07709029 0.053042896
-0.012326205 -0.039798822 -0.010782681 0.069354065 0.044540644 0.008351445 0.045893125 -0.05530169
-0.060127396 -0.031144857 -0.061093524 -0.014036869 0.049381323 0.08237886 0.0028771143 0.03846337
-0.04326812 0.03562131 0.046598133 0.01305465 0.061401315 -0.005863055 -0.031334136 -0.01817512
-0.033698365 0.03677905 -0.05408851 0.04066126 0.03160079 0.042420223 -0.03120438 0.012709696
0.03833394 -0.0346445 -0.05626474 0.08226708 -0.03857291 -0.029425554 -0.05571701 -0.008394327
-0.047024284 -0.06417442 -0.03499742 0.04282637 -0.029570738 -0.069787815 0.020380164 0.05519442
0.03927626 0.02019929 0.048070624 0.029134514 -0.056339756 -0.003633189 -0.06844416 -0.041157942
0.030813094 -0.04496241 -0.047619652 0.0149185145 0.058565155 -0.036389306 0.058179494 -0.032819156
0.049790032 0.016383758 0.021153193 0.039458092 -0.060231328 0.042152017 -0.017437715 0.03357037
-0.03395499 -0.0038752898 0.045794595 -0.027935587 -0.062387813 0.013764345 -0.028789807 0.04075785
-0.041064482 0.031046204 0.018319653 0.024329977 -0.015035699 0.017149694 0.032369293 0.05188143
0.01690402 -0.05019316 -0.038048446 -0.0010762054 -0.027727058 -0.029460689 0.023869667 -0.015434747
0.020833809 0.014548909 -0.041875985 -0.047924086 -0.011002249 0.01820233 0.02182161 0.04240312
0.023791788 -0.0040689185 0.030617079 0.0062230537 0.0393774 -0.0065005054 -0.030851332 -0.05701657
0.034176614 -0.04971578 -0.02193297 -0.030877339 0.030401846 -0.025622584 -0.064643696 -0.060886934
0.03583148 0.06293299 -0.05543673 0.039930694 0.059176307 0.025307449 0.035630208 0.053735353
0.029475575 0.010626244 -0.046043955 0.016258413 0.05313412 -0.0392225 -0.057207257 0.0010318683
-0.044730477 0.008143531 -0.046393212 -0.024952535 0.021935122 -0.036042623 -0.046446744 -0.027411139
-0.018071659 0.043331213 -0.019410063 -0.00045244038 -0.030010162 -0.019686928 -0.044571422 0.053046048
-0.009663998 0.044801477 -0.049258657 0.03961227 0.027775861 0.010345288 0.03726554 -0.043314762
0.040142797 0.0048594004 -0.045277014 -0.0042161876 -0.017386457 -0.036683995 -0.040630322 0.01338633
0.03921203 0.032844894 0.029255912 -0.016284134 -0.0044807224 0.008307517 0.00023553886 -0.0015979065
-0.030989978 0.0137855755 0.044565268 0.0370409 0.016380712 -0.013712036 0.010752112 -0.055500753

model.2.bias f4 [64]
00000000: 4792 f33c 65cc a03d a9b1 9e3b 2930 d7bc
00000010: 9ac4 753d 0a1f a63d fb8e a7bd 5662 e1bd
00000020: 1b2d b8bd ac2f c73c 4689 d1bd a420 cabc
00000030: 3e06 34bd 1cfa 8f3c 8a40 9abd c0cb 0c3d
00000040: c9f0 23bc 9bf0 4fbd aa17 fd3d 8f80 b93d
00000050: 58e3 9abc 67e4 73bd b7ad 6b3d 4856 043e
00000060: a444 b9bd f4d8 88bc 1030 0a3d 39c3 47bc
00000070: ec4c 083d 70b2 adbc 1c5e 8abd 93cb bcbc
00000080: 9fc2 f0bd 2048 e6bd 0847 953d a17a 29bc
00000090: a629 74bc 26d7 cb3d b320 c3bd c3f9 64bd
000000a0: f89f 173c c9cf b63c c7ee 603d 80ea 6bbd
000000b0: 7ea3 513d 0e14 ae3d aae4 843c 212c c83d
000000c0: 48a8 d3bd 1052 853d 532c eb3d e8ed d63d
000000d0: 494c 973c 032b 8fbc aa82 ad39 ab25 30bd
000000e0: 4020 d5bd fd6f 5d3d 3782 4dbd 3f9a 22bc
000000f0: 3d3d 81bc faec bb3c c854 04be b06d 9fbd
0.029732836 0.07851485 0.004842956 -0.026268082 0.060001947 0.08111389 -0.08181568 -0.11005084
-0.08992978 0.024314724 -0.10231261 -0.024673767 -0.043951266 0.017575316 -0.07531841 0.034374
-0.010006138 -0.05076657 0.12358029 0.09057724 -0.018907234 -0.059543993 0.057538714 0.12923539
-0.09046295 -0.016705014 0.033737242 -0.012192541 0.033276483 -0.02120325 -0.06756231 -0.02304629
-0.11755871 -0.112442255 0.07288939 -0.010344178 -0.014902508 0.09953146 -0.09527721 -0.055902254
0.009254448 0.022315877 0.054915216 -0.057596684 0.05118131 0.08499919 0.016222317 0.09774042
-0.103348315 0.06509793 0.114830635 0.10494596 0.018468993 -0.017476564 0.00033094484 -0.043004673
-0.10406542 0.05406188 -0.05017301 -0.00992447 -0.015776271 0.022940148 -0.12922966 -0.07784593

model.4.weight f4 [64, 64]
00000000: 67d3 8dbc a21e 24bd 163a d3bb 27a6 74bc
00000010: 9704 5a3d 2de9 1c3d 39e2 fabc 2def 463c
00000020: 0a1f 39bc c91a 4a3d 0f6e 1fbd 929b d83c
00000030: e34f 013d 5741 acbc 9d94 3abd 2746 9f3c
00000040: 45f9 2abd 794e d93c 04b9 393d 9ba4 2a3d
00000050: eecf 383d 536d 163d b5c3 42bd d769 213d
00000060: 1fca 1a3d 40e6 2fbd 8201 473d 7258 313d
00000070: 8492 003b c2c7 adbc f844 70bd b6f5 dc3b
00000080: 209c 52bd e59f 2b3d 4ea5 c1ba e580 29bd
00000090: 6c96 0bbd ef26 d23b f65b 20bd d1c2 5cbd
000000a0: ad33 bbbc 7ae9 193d e953 133c 2507 99bc
000000b0: 2578 c3bb 1e8c c13c 0444 d93c 5e50 703c
000000c0: d400 453d ae5f 3ebc 1db4 383d 982f 183d
000000d0: 2e2f df3c acba b13c e2d8 dc3c 2d93 f0bc
000000e0: a98b a03c 4f7d 20bd 3e20 3e3d c839 20bd
000000f0: c933 d6bb 7685 b93c a6a3 1939 0dda e0bc
00000100: 9dd2 edbc 6a5c 0f3d 33bd 85bc 1a6d c03c
00000110: 353c cc3c ce78 123c b80e ebbc 054b d2bc
00000120: cfba 95bc 76dd 64bd 670e 463d c867 0abd
00000130: a5be 0fbd deef 26bb 7c3b 883c a866 673c
00000140: 21f3 2f3d 06b5 20bd f610 3cbd 292c 10bd
00000150: 6bf7 34bd a611 38bd 7f50 8b3b ed7d 21bb
00000160: cec1 9fbc 6c65 233d ae32 0bbd cd7c 643d
00000170: 31e0 c1bc 5e38 0d3d 13e9 713d 5c11 07bb
00000180: c7c4 fe3c 0f7a 4ebd d7f4 c9bc 14b0 1a3d
00000190: ae6e 3a3d 001a 71bc d5c2 8ebc b4ee 583d
000001a0: 1eda 643d 9c50 9bbc 4684 1f3d e66a cabc
000001b0: 9490 9f3c e781 21bc 7f43 28bd 241f e73c
000001c0: c60e a53c 4036 063d 3545 0dbd dc6b 37bd
000001d0: 50c3 dc39 6a1e febb 32c1 de3b 3cb6 683c
000001e0: 19c6 833c d838 523d 0fb6 48bd d12e 903c
000001f0: b04d 41bd db46 32bd f696 4b3d a5e7 453c
00000200: 2acb 03bd e1ff 49bc a89e 16bd 9fd8 37bd
00000210: 6d9f 893d 3c39 ff3c 8814 a6b9 5616 c13c
00000220: ca70 3c3d 46c9 613d 19ab 94bc 6dd5 babc
00000230: cec2 2f3d 7e99 14bd 47ba 5dbd c1e7 083d
00000240: 1892 053c 14eb 353d 9161 3b3d abf7 adbb
00000250: e1a9 193d 90a4 973c bc98 64bd 6108 403d
00000260: c989 2f3d b024 a2bc a1ff 743d 8c75 8d3d
00000270: 6fd2 ffbc 5f3c 14bd f342 4abd b16f dabc
00000280: 06e0 1abd 128a dbbc 65b7 65bd 0451 1cbd
00000290: 131f ac39 4860 f73c e850 44bd 08fc 6fbd
000002a0: 28dc 5ebd 42bd 933d 009c 373d 4c88 943c
000002b0: cda6 37bd 9b34 133d 71b6 68bc 4cba 023d
000002c0: 131e 573d 5e93 193d 2f8e 033d 5fc5 3d3d
000002d0: 37db 3f3d d640 f1bc b148 b73c 2a95 31bd
000002e0: 3324 7dbc 3264 3fbd 6072 a6bc 114e c93c
000002f0: f1db e43a 3e7e de3c 6879 63bc cc51 21bd
00000300: 14c6 f5bc baef 15bd e5b4 fabc 6bb5 b6bb
00000310: 6e10 1e3d f9c6 8fbc 5243 2abd 0ab5 e5bc
00000320: 43e1 86bc 7285 42bc 4adb c0bb 5d40 803c
00000330: b6d8 f03c 2c62 383d 5557 b63c a027 c3b9
00000340: 6234 70bd d7d9 a8bc 9bef 2f3d d720 233d
00000350: d906 323d b9c7 da3c cbb4 2cbd 8d91 3b3d
00000360: a09d 193d 7d65 4fbc 2e78 073d 9a98 23bd
00000370: ae25 063d 14f6 e4bc e433 a13b 8f42 8339
00000380: 6b92 25bd 87b9 1a3d 5852 1ebc c6b4 82bc
00000390: d37e 8abc ceb4 8dbc 5e6d 0b3d be28 35bd
000003a0: 57ca ed3c be35 2dba 3eb4 acbc 7870 883c
000003b0: 6241 033d b8f6 26bd 5ad7 283d a4a2 8cbc
000003c0: cfce 373d d4ec 8bbc b8e4 403d 1205 123d
000003d0: 43e7 f93c 1673 fbbc e562 2a3d 1bfa bdbb
000003e0: 95af beba 54f0 d93c a96a c53c b2c2 5d3b
000003f0: a748 463c ca90 66bc 0a40 05bd 3dee 2f3b
-0.017312719 -0.040068276 -0.0064461334 -0.014932192 0.053227033 0.03830831 -0.03062545 0.012141985
-0.011298904 0.04934195 -0.03892332 0.02644137 0.031570327 -0.02102725 -0.045551885 0.019442631
-0.04174163 0.026526676 0.04534246 0.041660886 0.045120172 0.036725353 -0.047549922 0.039407577
0.037790414 -0.042944193 0.048585422 0.04329724 0.001961858 -0.021213416 -0.058659524 0.006743158
-0.051418424 0.041900534 -0.0014773996 -0.04138269 -0.034079 0.0064133327 -0.0391502 -0.05389673
-0.02285179 0.037576176 0.008992174 -0.018680165 -0.00596525 0.023626383 0.02652169 0.0146675985
0.048096493 -0.0116194915 0.045093644 0.037154764 0.027244177 0.021695457 0.026958887 -0.029367054
0.019597845 -0.039182004 0.046417467 -0.039117604 -0.006536935 0.022646647 0.00014652181 -0.027447725
-0.029031092 0.035000242 -0.016325569 0.023489524 0.024931053 0.008939935 -0.028693542 -0.025670538
-0.018277554 -0.055875264 0.04835358 -0.03379038 -0.035093922 -0.0025472562 0.016629927 0.014123596
0.042956475 -0.039235137 -0.045914613 -0.035198364 -0.04418127 -0.044938706 0.0042515392 -0.0024641708
-0.019501593 0.039891645 -0.03398388 0.05578308 -0.023666473 0.034477584 0.059060168 -0.0020609712
0.03109969 -0.050409373 -0.024652882 0.037765577 0.04551571 -0.014715672 -0.017426888 0.05296202
0.055872075 -0.018959336 0.038944505 -0.024709176 0.01947812 -0.009857631 -0.041079994 0.028213091
0.020148646 0.03276658 -0.03448983 -0.044780597 0.0004210719 -0.0077550905 0.006797933 0.014203604
0.016085671 0.05132374 -0.04900175 0.017600449 -0.04719323 -0.043524604 0.049704514 0.012079154
-0.032176174 -0.012329073 -0.0367724 -0.04488432 0.06719861 0.031155221 -0.00031677284 0.02357022
0.046006 0.05512359 -0.018147992 -0.022806847 0.04291039 -0.036279194 -0.054132726 0.033424143
0.008152507 0.04441364 0.045747343 -0.0053090653 0.037515525 0.018511087 -0.05580972 0.04688299
0.04285601 -0.019792885 0.0598141 0.06907186 -0.031228272 -0.036190387 -0.049380254 -0.026664587
-0.0378113 -0.026799235 -0.0560831 -0.0381632 0.0003282955 0.030197278 -0.04792872 -0.058589965
-0.054409176 0.072138324 0.044826508 0.018131398 -0.044836808 0.03593884 -0.014203654 0.031915948
0.052518915 0.037494056 0.03211802 0.046330806 0.04683992 -0.029449861 0.02237353 -0.043355145
-0.015450525 -0.046726413 -0.02031821 0.024573358 0.0017460567 0.027159806 -0.013883926 -0.03938465
-0.030001678 -0.036605574 -0.030603835 -0.005575826 0.038589887 -0.017550932 -0.041568108 -0.028040428
-0.016464835 -0.011872636 -0.0058855163 0.01565569 0.02940021 0.0450155 0.02225844 -0.0003722282
-0.058643706 -0.020611687 0.042953115 0.03982624 0.04346356 0.026706563 -0.042164605 0.045793105
0.03750384 -0.012658474 0.033073597 -0.039940454 0.032750778 -0.02794937 0.004919516 0.00025035857
-0.04042284 0.03777459 -0.009663187 -0.01595534 -0.016906178 -0.017298128 0.034039848 -0.044228308
0.029027147 -0.00066074345 -0.02108204 0.016655192 0.032044776 -0.040762633 0.041221 -0.017167397
0.044874962 -0.017080702 0.047093123 0.035649367 0.030505782 -0.030694526 0.04159822 -0.005797637
-0.0014548177 0.026603855 0.024098711 0.0033837971 0.012102283 -0.014072606 -0.032531776 0.0026844882

model.4.bias f4 [64]
00000000: 937e fb3d 84f3 c6bc 7e3b 16bd 159d f8bd
00000010: 142c f03b 547d dcba d718 023e 1a7b 903d
00000020: 164d bb3d 5bef a33c d48b 66bb c93d 4bbb
00000030: 9d19 bcbd 37d2 e23c 7206 afba 7317 b73d
00000040: bab4 75bd bc0f dcbc c454 453d 8d83 84bb
00000050: 6944 babb e6b8 e0bc b345 863d be49 d93d
00000060: 171f c73d d193 ebbd 35a5 cbbd a0bc e23c
00000070: 5015 15be 4514 9fbd ce4e 9cbc 9a0b 833d
00000080: eda0 c23d c164 f33d 6c39 b1bd 8ff7 203d
00000090: 105a a3bd d509 80bd 255a ad3c b145 15bd
000000a0: d74a 4b3d 9e6b 04bc 469f e3bd 61a9 c03d
000000b0: 1135 ad3d 97d4 873d ff37 60bd b1d0 343c
000000c0: c47b 95bd 7e13 a3bd b0a0 22bc 48a8 9c3c
000000d0: 0a37 0dbd e8cb aabd 53ba 873c d456 febd
000000e0: 4258 e83d e755 c53d 6a74 76bd c3b8 bf3d
000000f0: b705 f53c b814 9c3d 4ddd eebc 7c95 253b
0.122800015 -0.02428604 -0.03667783 -0.12139336 0.0073294733 -0.0016822019 0.12704788 0.0705473
0.09145562 0.020011595 -0.003517856 -0.0031012169 -0.09184573 0.027688129 -0.0013353361 0.089400195
-0.059986807 -0.026862971 0.048176542 -0.0040440024 -0.0056844247 -0.027431916 0.06556263 0.10609768
0.09722727 -0.11502803 -0.0994362 0.027677834 -0.14558911 -0.07767538 -0.019080546 0.06398697
0.095033504 0.11884452 -0.086535305 0.03929859 -0.079761624 -0.06251875 0.021161148 -0.036443416
0.04963192 -0.008082299 -0.11114363 0.094073065 0.08457387 0.06632345 -0.054740902 0.011036084
-0.07298997 -0.07962702 -0.009926006 0.019123212 -0.034476317 -0.08339673 0.016568338 -0.12418905
0.11344959 0.09635525 -0.060169615 0.093614124 0.029909952 0.07621139 -0.029158259 0.0025266102

model.6.weight f4 [64, 64]
00000000: 8288 963b 57ac a43c d15d 05bd 75b0 b8b9
00000010: 2726 daba c4cb 3e3d 8689 bbbc 31f1 283d
00000020: 3270 94bd 1757 21bd be48 1d3c 35c8 023d
00000030: 4b3c 1dbd ee6f 19bd ad58 183d 93ed a9bb
00000040: 0492 9c3c 19a7 143c 3d2d 133d deee 0f3d
00000050: ebc2 1abd bc62 943c 167b 393d ebaa 97bc
00000060: b383 0cbd f985 29bd cb2e 34bc 5023 473d
00000070: 3fe1 213d f169 b2bc ca72 2bbc 32b9 1a3d
00000080: 209d fabd 146f 26bd 0ab0 d3bc 7de8 213d
00000090: 94f8 e0bc cd9d 0c3d 2705 6e3c 9bce ca3c
000000a0: 6580 64bd ef9b 703d c446 9b3b 89f2 1dbd
000000b0: bc7d 3dbd ba3f 173d fb39 cc3c 00a5 483d
000000c0: 3d98 05bd fc62 173d c300 293c c174 453d
000000d0: 3fcd aa3c c044 c8bc b44f 7d3c 88a4 453d
000000e0: 042d 2c3d e27c 243d 075d e53c 72b7 e33c
000000f0: dd6a 903c cde4 f03c 138d ebba dedf 683d
00000100: de74 2b3d 537e 15bd 2f6e 153d af0f 393c
00000110: d08d 26bd 5f0a 4cbd 4a59 bf3c c7d3 00bd
00000120: d8f5 223d 8dde 84bc 2da1 cdbc e3d9 f4bc
00000130: be7f e8bc bad7 403d e27f bfbc c4c4 343c
00000140: 299a e4bc ac8f 9bbc f86c 47bc d736 e9bc
00000150: 41b5 0fbc ef92 fe3c 5bb5 d53c 6c56 293c
00000160: ec9e ba3c 343d 843b 3f5e e3bc 593f 4abd
00000170: c3f1 27bd 29bc 5cbd 3654 403d 99dc 3f3d
00000180: 5e2f bbbc 63d2 5e3c f3ab 1cbd 69b7 15bd
00000190: c8fc f3bc b9f6 35bd ec6f d1b9 cd55 d7bc
000001a0: 8085 d83c cecb 233d eae0 953c 6807 183d
000001b0: 4774 1a3d 95e8 41bb b8c8 dcbc c22e 1abd
000001c0: a374 5c3c 40ea 3bbd a4f5 2f3d 6ee4 29bd
000001d0: 342f 1f3d e21b 1bbd 16b6 1fbd a8d9 43bd
000001e0: f0eb 103d 361e a93c fcd7 073d f7cf 293c
000001f0: db83 df3c 9262 efbc 4ac3 243d dfca 30bd
00000200: 1747 1f3d 9c7c 22bd a3c7 383d f67a 803b
00000210: 4400 8f3c 84db d4bc 1a44 0b3d 8b04 4fbd
00000220: dfce 7f3d 84ad 3a3d 2891 70bd 2336 1c3d
00000230: 22d3 1f3d 93ac 243d e948 733c 1cd1 a4bc
00000240: 7c40 03bd 769b 48b9 206a 283d c446 20bd
00000250: 8a8f 17bd 2af1 383d 0d0c be3c 7e7b bfbc
00000260: 9398 073d bb2e 53bd f488 e63c 4348 24bd
00000270: 2fe0 efbc 0dbd 183d 8962 c0bc 8a9c 8a3c
00000280: ce79 db3d 7d61 4cbd 8c4e f2bc 1378 51bd
00000290: 9b50 e13b d2df e03c 526a 06bd cbfa c93c
000002a0: 879c 373d 296c af3b 7d25 c83c 4c37 62ba
000002b0: 0ae5 573d a595 10bd 214b 5bbd ef88 31bd
000002c0: b799 2a3d 5aea 8abc 8afd a6bc d2ba 0bbd
000002d0: 89fe 96bc a494 b4bc d98e a6bc 7bca 02bd
000002e0: 75e5 4bbc abb8 5fbc 9a66 4cbd 11c6 c53c
000002f0: 2e1a 063d 0ef5 44bd ce91 0a3d dc17 cdbc
00000300: da2c f63a a9ea f9bb e725 19bd 64f3 88bc
00000310: 01e1 73bc 2763 563c 44c9 0e3d fa86 393d
00000320: 9d93 72bd b806 1c3c 7c77 ee3c 495c 63bc
00000330: bfe2 09bd bfe8 17bd 8251 d83a c9f3 28bc
00000340: c732 0e3d 2c4b 203d 1b8b e63c a5f6 0c3c
00000350: 993e 2ebd bf7b cc3c 774d 263d ea6e cb3b
00000360: e1a9 a7bc 8f26 0f3c f47f dfbc 79b2 1c3d
00000370: ca90 95bb 0d98 ffbc 0bd2 09bd 657b 193d
00000380: dc6c c6bd 75d5 d8bc d660 ebba 2a2f 443c
00000390: 81cb 2e3c d833 ed3c 4f58 cbbc cf1c d33c
000003a0: 8ce5 23bd 4bd9 563d 3c01 133d 6e6f bdbc
000003b0: 2004 1bbd 390f 353d 7816 ff3c 1209 c63c
000003c0: 1ff7 d6bc 3cf0 223d f907 06bd ded8 f23c
000003d0: eecd ed3c e38b 38bd cdf2 a63c b96a cebc
000003e0: 0ecd 213d e443 47bb c0b5 44bc eefb 8e3c
000003f0: 28d0 c2bc 2b9f f63c 5ea1 6e3c 523a 0a3d
0.0045939097 0.02010171 -0.032560173 -0.00035226686 -0.001664345 0.046581045 -0.022892725 0.041245643
-0.07247962 -0.039389696 0.009599863 0.031929214 -0.038387578 -0.03746026 0.037193943 -0.0051857918
0.019112594 0.009073042 0.035931814 0.03513991 -0.037783545 0.018113486 0.0452834 -0.018514117
-0.034305286 -0.041387532 -0.010997484 0.04861766 0.039521452 -0.021779032 -0.01046438 0.037774272
-0.122370005 -0.040633276 -0.025840778 0.03952836 -0.027462281 0.034330178 0.014527596 0.02475672
-0.05578651 0.05874246 0.0047386605 -0.038561378 -0.046262488 0.03692601 0.024929991 0.04898548
-0.03261589 0.036959633 0.010315123 0.04820705 0.020849822 -0.024446845 0.015460897 0.048252612
0.042035118 0.04015816 0.02799846 0.027797434 0.017629081 0.029405976 -0.001797112 0.05685412
0.0418595 -0.036497425 0.036482032 0.011295243 -0.040662587 -0.04981458 0.023358006 -0.031451967
0.039785236 -0.016219402 -0.025101269 -0.029889053 -0.028381225 0.047080733 -0.023376409 0.011033241
-0.02790554 -0.018989407 -0.012171976 -0.028468532 -0.008771242 0.031075923 0.026087454 0.010335546
0.022780858 0.0040356163 -0.027754901 -0.04937682 -0.041002046 -0.05389038 0.04695531 0.046841238
-0.022849735 0.013599965 -0.03824992 -0.036551867 -0.029783621 -0.044424746 -0.00039946975 -0.02628603
0.026430845 0.039989285 0.018295724 0.03711644 0.037708547 -0.0029588093 -0.026951179 -0.037642248
0.013455543 -0.045877695 0.04295887 -0.041477613 0.038863376 -0.037868388 -0.03899201 -0.047814995
0.035381258 0.020644289 0.033164963 0.010364524 0.027284553 -0.029221807 0.040225305 -0.043162223
0.038886156 -0.039669618 0.045112263 0.003920908 0.017456181 -0.02598358 0.034000494 -0.050541442
0.062453147 0.045575634 -0.05873218 0.038137566 0.03901971 0.040203642 0.014848926 -0.020119242
-0.03204392 -0.000191314 0.041116834 -0.039129987 -0.037002124 0.045151867 0.023199106 -0.023374315
0.03310449 -0.051558238 0.028141476 -0.040107977 -0.029281704 0.037289668 -0.023484485 0.016920347
0.10716592 -0.04989766 -0.02957847 -0.051139902 0.006876064 0.027450476 -0.03281624 0.02465572
0.04482701 0.00535347 0.024431938 -0.00086294557 0.052708663 -0.035298962 -0.053538445 -0.04334348
0.0416505 -0.01695745 -0.020384569 -0.034113713 -0.018431919 -0.022043534 -0.020331787 -0.03193138
-0.012444844 -0.013654868 -0.049902536 0.024142297 0.03273981 -0.048085265 0.033830456 -0.025035791
0.0018781677 -0.0076268506 -0.037389662 -0.01671762 -0.014885188 0.013085163 0.03485991 0.04529474
-0.059222806 0.009523086 0.029109709 -0.013876983 -0.033663508 -0.0370872 0.0016503783 -0.010312029
0.034716394 0.03913419 0.028142503 0.0086037265 -0.042540167 0.02496135 0.04060122 0.0062082903
-0.020466747 0.00873722 -0.027282692 0.038256142 -0.0045643793 -0.031200433 -0.03364758 0.037471194
-0.09688732 -0.026468972 -0.0017957937 0.011974135 0.010668636 0.028955385 -0.024822382 0.025770573
-0.040013835 0.05245332 0.03588985 -0.023124423 -0.03784573 0.04420397 0.031138644 0.024174247
-0.026240883 0.039779887 -0.032722447 0.029644426 0.029028859 -0.04505528 0.020379448 -0.025197374
0.039502196 -0.0030405456 -0.012006223 0.017454114 -0.023780897 0.030105194 0.01456484 0.033747025

model.6.bias f4 [64]
00000000: 6096 02be da3e f13d f411 74bd 1297 e53d
00000010: 3b32 ce3d 700c 9cbd 56c0 be3d c021 19bc
00000020: db30 223d 3123 023e e892 f23d bd07 cd3c
00000030: cc6b 7abc d7ed 9bbd 2c8d 683b dd13 de3d
00000040: db2b d1bd e6ee fcbd 6044 023d 1ca7 f63d
00000050: 4222 86bd 020e 553c adc5 9cbc 104b 00be
00000060: 5230 60bd 53a4 9fbd 26a7 253c 78e3 3fbd
00000070: 2914 bcbc b640 5e3d f9ff 29bd 943f f43d
00000080: 4aa4 c4bd 1ff1 ebbc 835b c43d b382 1d3d
00000090: dc57 d13d 607a 713c dccc 92bd dcc7 603b
000000a0: e674 80bd a2b4 17bc 5712 7e3d 56da d93d
000000b0: 70b9 e2bd e5c2 a93d 7ccc 8ebd 621f a7bd
000000c0: 326d e6bd 6023 2fbd 7db3 46bd 95e1 0ebd
000000d0: 5c32 e2bd e117 7dbd 0dde 55bd 1c59 003d
000000e0: 28ee 9d3d 2cbd 0dbe 9eca 8339 59ec f03d
000000f0: 2aaf 043d b3d9 79bb b559 a73d ddf4 b4bd
-0.12752676 0.11779566 -0.059587434 0.11210455 0.100681745 -0.0761956 0.09314029 -0.0093464255
0.039597373 0.12708737 0.118444264 0.025028104 -0.01528449 -0.07613724 0.0035484536 0.10843632
-0.10213443 -0.12350254 0.03180349 0.12043592 -0.06549503 0.013003828 -0.019137228 -0.12528634
-0.05473358 -0.07795014 0.010110652 -0.04684779 -0.022958832 0.054260932 -0.04150388 0.11926189
-0.09601648 -0.028801499 0.09587767 0.038454723 0.10221836 0.014738649 -0.0716798 0.0034298813
-0.062722966 -0.009259375 0.06202921 0.106373474 -0.11070526 0.08289126 -0.06972596 -0.08160283
-0.11251296 -0.042758346 -0.048511017 -0.0348831 -0.110447615 -0.06179035 -0.052213717 0.03133498
0.0771144 -0.13841695 0.0002513723 0.1176383 0.032393612 -0.0038124144 0.08171407 -0.088357665

model.8.weight f4 [1, 64]
00000000: c9e3 89bd c622 a43d 53cf 923d 03d9 2ebd
00000010: a655 9bbd 7bf5 86bd c00b 8b3d 945c cfbc
00000020: f08b b2bd 74a5 b43d dac6 88bd 4d9c 913d
00000030: 293c 84bd 9662 863d 9ac6 9c3d 169e 983d
00000040: 7726 9cbd a35f b9bd ad55 8e3d e337 8f3d
00000050: d716 94bd 07e9 a4bd c634 97bd c49d 8dbd
00000060: 9ca6 8e3d f78e 733d 0e61 883d c241 9cbd
00000070: 720d bebc 0aad 6cbd 4d63 07bd ab12 a1bd
00000080: d2e6 8abd e38a 93bd 9711 9e3d 4d79 b23d
00000090: 521a 983d d241 623d b6f6 953d dcee 903d
000000a0: c439 9ebd 6813 913d 7085 36bd c954 933d
000000b0: 9808 a33d a5bf 6dbd 99eb 853d 92b8 9a3d
000000c0: 96b2 92bd 98c2 a7bd 8a0b 903d 57c6 96bd
000000d0: dde8 84bd e179 4dbd 122c 913d f913 7bbd
000000e0: dcf2 83bd ea8a a0bd c121 9b3d 5867 803d
000000f0: 231b 9d3d 990b 8abd 1157 77bd e066 833d
-0.067329 0.08014445 0.0716845 -0.042687427 -0.075846955 -0.065897904 0.067893505 -0.0253127
-0.08718097 0.0882062 -0.06678553 0.0710989 -0.06456787 0.065617725 0.07655068 0.074520275
-0.07624524 -0.090514444 0.06949935 0.069930814 -0.07230919 -0.08052259 -0.073831126 -0.06914857
0.06965372 0.059462514 0.06659137 -0.0762973 -0.02319977 -0.05778221 -0.033053685 -0.07864889
-0.06782307 -0.07204225 0.07718199 0.087145425 0.07426895 0.055238552 0.07322447 0.07076809
-0.07725862 0.070837796 -0.04456085 0.07193906 0.079606235 -0.058044095 0.06539077 0.07554735
-0.07162969 -0.08191413 0.07033451 -0.07362049 -0.06489728 -0.05016506 0.07088484 -0.061298344
-0.06442806 -0.07838996 0.075747974 0.06269711 0.076711915 -0.06740493 -0.060385767 0.06416106
