parabola/conversion/snnmodel_cali128.pth (torch, 54796 bytes, 9 tensors)

model.0.weight f4 [64, 1]
0	0x3f42889c	0.759897
1	0xbd0524f7	-0.032505956
2	0xbc4b4cf0	-0.01240848
3	0xbeae9947	-0.34101316
4	0xbeda30bf	-0.42615315
5	0xbe213956	-0.15744528
6	0xba5182ab	-0.00079921883
7	0xbe82bf52	-0.2553659
8	0xbec6e9ef	-0.38850352
9	0xbf37a4fb	-0.71736115
10	0x3f166ff5	0.5876458
11	0xbf03c032	-0.5146514
12	0x3f62da68	0.8861451
13	0x3d261e72	0.04055638
14	0x3f3192a2	0.6936437
15	0xbcc79bb5	-0.02436624
16	0x3f4f4fb2	0.8098098
17	0xbcf1ae81	-0.029502155
18	0xbf338c44	-0.70135903
19	0x3f0bed53	0.54659003
20	0x3f5e773b	0.8690068
21	0xbf631e44	-0.88718057
22	0xbd9c74ac	-0.07639441
23	0xbf1f7aee	-0.6229695
24	0x3f4a273e	0.7896613
25	0xbf45e7d8	-0.7730689
26	0xbe613da1	-0.21996166
27	0x3df8ac81	0.121422775
28	0xbe8efaaf	-0.2792563
29	0x3f4fe7fb	0.8121335
30	0xbf4eab69	-0.807303
31	0xbee67312	-0.45009667
32	0xbecda50e	-0.4016499
33	0xbf49f082	-0.7888261
34	0xbeff7c39	-0.49899462
35	0xbf4c5a3a	-0.79825175
36	0x3ebe47b1	0.3716407
37	0x3f51f6fd	0.820175
38	0xbd005db7	-0.031339373
39	0x3e471c1d	0.19444318
40	0xbe2d6aed	-0.1693532
41	0x3dac1872	0.084031
42	0x3dfcb514	0.123392254
43	0xbf3b8baf	-0.73260015
44	0xbd407da4	-0.04699482
45	0x3f68540c	0.90753245
46	0x3e8ebdfe	0.27879328
47	0x3f3905cc	0.7227447
48	0xbf30d20d	-0.6907051
49	0xbf5c01dc	-0.8594034
50	0x3e6ba112	0.23010662
51	0x3f4e3794	0.80553555
52	0xbf3802af	-0.71879095
53	0xbf5fc506	-0.8741001
54	0xbf49e78f	-0.78868955
55	0xbf51f609	-0.82016045
56	0xbdb40d12	-0.087915555
57	0x3d8b4f6d	0.06802259
58	0xbeb12fa3	-0.34606656
59	0x3f312739	0.69200474
60	0xbf5496eb	-0.8304278
61	0xbe44e177	-0.19226633
62	0x3a5128f1	0.0007978818
63	0xbe95c037	-0.2924821

model.0.bias f4 [64]
0	0xbf068e96	-0.5256132
1	0xbf549999	-0.8304687
2	0x3f0fb193	0.5613033
3	0xbe8bcb7d	-0.27303687
4	0xbf69b5af	-0.9129285
5	0xbef1e99b	-0.4724854
6	0x3f82c485	1.0216223
7	0xbf012faf	-0.50463384
8	0x3f6b983a	0.92029154
9	0xbf20e4b6	-0.62848985
10	0x3dc00768	0.09376413
11	0xbf8c254b	-1.0948881
12	0x3f3dadc9	0.740933
13	0x3ec0a004	0.37622082
14	0x3f40bce4	0.75288224
15	0x3e99ce0b	0.3004001
16	0xbf17126c	-0.59012485
17	0xbf2a3a09	-0.66494805
18	0xbf522e2b	-0.82101697
19	0x3dc08f91	0.09402383
20	0x3f52949d	0.82258016
21	0x3f70359c	0.938318
22	0x3ea4d86f	0.32196376
23	0xbeaf5735	-0.3424622
24	0xbf06fada	-0.5272652
25	0x3e742b1e	0.23844573
26	0xbe97ba7a	-0.29634458
27	0xbebce56a	-0.3689378
28	0xbf450bc4	-0.7697108
29	0xbe53d0ca	-0.20685115
30	0xbeac8380	-0.33694077
31	0x3f692f23	0.9108755
32	0x3e62999b	0.22128908
33	0xbe828e88	-0.25499368
34	0x3ef920e5	0.4865791
35	0x3e168b9e	0.14701697
36	0xbf60ac78	-0.87763166
37	0xbd6a7a2b	-0.057245415
38	0x3f3a7dbf	0.72848123
39	0x3e36be1a	0.17845955
40	0x3e4f2cbc	0.20231909
41	0x3eb0fce6	0.34567946
42	0x3ee766cb	0.45195612
43	0x3f451ebb	0.77000016
44	0xbf21e340	-0.6323738
45	0xbecb5a95	-0.39717546
46	0x3e83b6ac	0.25725305
47	0x3e96346c	0.2933687
48	0xbf4e378d	-0.80553514
49	0xbeb165ae	-0.34647888
50	0xbf0c1253	-0.5471546
51	0x3ef005b3	0.46879348
52	0xbe9923e9	-0.2991021
53	0xbf11cb45	-0.5695079
54	0xbda26fb9	-0.07931466
55	0x3f1518ac	0.5824077
56	0xbec6fd72	-0.38865238
57	0x3ee99a78	0.45625663
58	0xbf2e80a2	-0.6816503
59	0xbe160c17	-0.1465305
60	0xbeaa881b	-0.33306965
61	0x3e070ae2	0.13187745
62	0x3f75be50	0.9599352
63	0x3f65ffe1	0.89843565

model.2.weight f4 [64, 64]
0	0xbd1be17b	-0.03805683
1	0xbd15fd7c	-0.036618695
2	0xbc2cf749	-0.010557004
3	0xbcdae4bb	-0.026720395
4	0xbd3d67f5	-0.04624172
5	0x3b4eedfe	0.003157496
6	0xbd41dfce	-0.047332577
7	0x3d04b7bd	0.03240179
8	0xbd172490	-0.036900103
9	0xbc5c5227	-0.013447321
10	0xbca2a1ad	-0.019852484
11	0xbab48fa1	-0.0013775715
12	0x3d140af1	0.036143247
13	0xbcf91662	-0.03040618
14	0xbbc707d6	-0.006073932
15	0x3cc13b36	0.023587804
16	0xbd221d4e	-0.03957873
17	0x3d252fae	0.040328674
18	0xbd39b1b2	-0.04533548
19	0xbc9f2808	-0.019428268
20	0xbb8680d3	-0.0041047125
21	0xbc58200e	-0.013191236
22	0x3ccb32f6	0.024804574
23	0x3cdbfb55	0.026853243
24	0xbcfe57dc	-0.031047754
25	0x3ccbe430	0.024889082
26	0xbc191cfb	-0.009345288
27	0xbcd45553	-0.025919592
28	0xbc03317a	-0.008007402
29	0x3c3c03e7	0.01147554
30	0xbc97c5af	-0.01852688
31	0x3d327bd3	0.04357512
32	0xbcd114f1	-0.025522681
33	0x3a926d62	0.0011171515
34	0xbcee4d0f	-0.029089479
35	0x3be1884f	0.0068827043
36	0xbd27c1fb	-0.04095648
37	0x3ceb265b	0.028704813
38	0xbd2c4597	-0.042058554
39	0xbca98550	-0.020693451
40	0x3c9188e6	0.017765474
41	0x3cdb419d	0.026764685
42	0x3d0293ac	0.031879112
43	0x3d421621	0.047384385
44	0xbcb5a349	-0.022172587
45	0x3883849c	6.271267e-05
46	0x3c319b52	0.010840254
47	0x3a93129b	0.0011220755
48	0xbcb27e87	-0.021788849
49	0xbc13ac1a	-0.0090132
50	0xbd00dc62	-0.031460173
51	0x3cecea7f	0.02892041
52	0xbcc12d5f	-0.023581205
53	0xbc83ff8c	-0.016113065
54	0xbcf412e3	-0.029794162
55	0xbcdeb968	-0.027188018
56	0xbcb83994	-0.022488393
57	0xbc6ec862	-0.014574142
58	0x3d162bd8	0.036662906
59	0x3cf3e00e	0.029769924
60	0x3af44ca2	0.0018638561
61	0x3c19ab0a	0.009379158
62	0x3d25843c	0.04040931
63	0x3c44fa05	0.0120225
64	0xbd27c700	-0.040961266
65	0xbc6c809d	-0.014434961
66	0xbd4959fa	-0.049158074
67	0x3bbdf2c2	0.0057967613
68	0xbd6314fd	-0.055439938
69	0x3d319837	0.043358054
70	0xbd7abc0b	-0.061214488
71	0x3d48c5e4	0.04901685
72	0x3ccf31d3	0.025292313
73	0xbd49252d	-0.04910772
74	0xbc9545be	-0.018221732
75	0x3d243761	0.040091876
76	0x3d46a61d	0.04849826
77	0xbca08cf0	-0.019598454
78	0x3d26f663	0.040762316
79	0xbd250cfa	-0.04029558
80	0xbd7df4bf	-0.062000986
81	0xbab55286	-0.0013833798
82	0xbd5a53d8	-0.053302616
83	0xbc74fab8	-0.014952354
84	0x3d623b05	0.055232067
85	0x3d94b252	0.072605744
86	0xba8a7cb9	-0.0010565735
87	0x3d1d74dd	0.038441528
88	0xbd2e19ea	-0.042505182
89	0x3cb456f2	0.022014115
90	0x3d23f050	0.0400241
91	0x3cb52f58	0.022117302
92	0x3d3a1a09	0.045434985
93	0xbad8e3f5	-0.0016547429
94	0xbcb21bee	-0.021741834
95	0x3c123f62	0.008926244
96	0xbd0ee522	-0.034886487
97	0x3ccff711	0.025386365
98	0xbd3b5327	-0.045733597
99	0x3cbbead7	0.022939129
100	0x3be5cb63	0.007012771
101	0x3c8df194	0.017327107
102	0xbd4defef	-0.050277647
103	0xbc8195c7	-0.01581849
104	0x3b2ce99d	0.0026384362
105	0xbd28bd07	-0.041195896
106	0xbd340968	-0.043954283
107	0x3d9aa38a	0.07550724
108	0xbabaaf70	-0.0014242958
109	0xbc763261	-0.01502666
110	0xbd1f27e8	-0.038856417
111	0xbc2ba943	-0.010477367
112	0xbd43f387	-0.047839668
113	0xbd4d56c4	-0.050131574
114	0xbc2d516e	-0.010578496
115	0x3d51bf12	0.05120761
116	0xbcc50752	-0.024051342
117	0xbd741722	-0.059592374
118	0x3c494d79	0.012286537
119	0x3d5b0615	0.053472597
120	0x3d2f4d9e	0.04279863
121	0xb93822a0	-0.00017560506
122	0x3d335592	0.043782778
123	0x3cba446d	0.022737706
124	0xbd391b21	-0.045191888
125	0xbce441f3	-0.027863478
126	0xbd74f097	-0.059799757
127	0xbce7f187	-0.028313411
128	0x3caea38f	0.021318225
129	0xbd34f781	-0.04418135
130	0xbd14a19a	-0.036286928
131	0x3c54ea5b	0.012995328
132	0x3d4a2020	0.049347043
133	0xbd0d527a	-0.034502484
134	0x3d386d70	0.045026243
135	0xbd072e72	-0.033003278
136	0x3d03ab74	0.032145932
137	0x3ca3ee22	0.020011012
138	0x3c201909	0.009771594
139	0x3d3d4ee1	0.046217803
140	0xbd0115e1	-0.031515006
141	0x3cf7149a	0.03016119
142	0xbbab06a3	-0.005219297
143	0x3cc7a64a	0.024371285
144	0xbca50419	-0.020143555
145	0x3b489e63	0.0030611984
146	0x3ce51e00	0.027968407
147	0xbcf379e8	-0.029721215
148	0xbd19d6f3	-0.037558507
149	0xbc7ac5f4	-0.015305985
150	0xbce1d732	-0.027568433
151	0x3d12185b	0.03566776
152	0xbd08fb10	-0.033442557
153	0x3cff6855	0.03117768
154	0x3cebb7c0	0.028774142
155	0x3c77f255	0.01513346
156	0xbc0d83c5	-0.008637373
157	0x39f43276	0.00046576903
158	0x3cb186c9	0.021670716
159	0x3d054926	0.032540463
160	0x3c9fed18	0.019522235
161	0xbd133ec3	-0.035948526
162	0xbce578fa	-0.028011788
163	0x3c80bcb6	0.015714984
164	0xbc31e0ff	-0.010856866
165	0xbd07f204	-0.03318979
166	0x3cc825c9	0.02443208
167	0xbcd18d96	-0.025580209
168	0xbc2665a1	-0.010156066
169	0x3c9e78f9	0.019344794
170	0xbd15388e	-0.036430888
171	0xbd4e395b	-0.050347667
172	0xbc194950	-0.009355858
173	0x3c817ffd	0.0158081
174	0x3cc8960a	0.024485607
175	0x3cf7a512	0.030230079
176	0xbac37a56	-0.0014913778
177	0xbbcd51dc	-0.006265862
178	0x3d108bec	0.03528969
179	0xbcb01a08	-0.021496788
180	0x3d02358a	0.03178934
181	0x39430c95	0.00018601336
182	0xbca14876	-0.019687872
183	0xbd278345	-0.040896673
184	0x3cf0ef74	0.029411055
185	0xbd133c6d	-0.0359463
186	0xbccaae5c	-0.024741344
187	0xbcbe8e85	-0.023261318
188	0x3cbcc4c9	0.023043053
189	0xbc56e4d4	-0.01311608
190	0xbd44c48a	-0.048038997
191	0xbd4e5d95	-0.050382216
192	0x3cc5e4ae	0.024156895
193	0x3d3e332f	0.04643553
194	0xbd21196f	-0.039330896
195	0x3cf07cee	0.029356446
196	0x3d27cc54	0.040966347
197	0x3d19b3c9	0.037524972
198	0x3cd3ec08	0.025869384
199	0x3d1ecf59	0.03877196
200	0x3d0260a6	0.031830452
201	0x3c9a82f4	0.018861271
202	0xbcdeb849	-0.027187483
203	0x3c820a0d	0.015873933
204	0x3cf2a501	0.029619696
205	0xbd09b749	-0.03362206
206	0xbd290511	-0.041264597
207	0x3bdc39b5	0.0067207464
208	0xbd0b9c69	-0.03408471
209	0x3cbc3d20	0.022978365
210	0xbcfc5a8e	-0.030804899
211	0xbcbc2c3c	-0.022970311
212	0x3c9e9b62	0.019361202
213	0xbcc3ca3f	-0.02390015
214	0xbcfd61ba	-0.030930389
215	0xbc24ef0e	-0.010066761
216	0xbc83f742	-0.016109113
217	0x3ca8a362	0.02058572
218	0xbc8ea77b	-0.017413845
219	0xbcad1b03	-0.021131044
220	0xbce56c3a	-0.028005708
221	0xbc9448cd	-0.01810112
222	0xbcf37817	-0.02972035
223	0x3d22d65d	0.039755214
224	0x3b584bdb	0.0033004198
225	0x3cf2534b	0.029580733
226	0xbd123de2	-0.035703547
227	0x3ca3df2e	0.020003881
228	0x3cbf3f97	0.023345752
229	0x3c17d2e8	0.009266593
230	0x3cdc45b7	0.026888711
231	0xbcc3404a	-0.023834366
232	0x3c55c866	0.013048267
233	0xbba41a31	-0.005008005
234	0xbd1320a4	-0.0359198
235	0x3c243c4d	0.010024142
236	0xbc9ca849	-0.019123213
237	0xbcd46080	-0.025924921
238	0xbcf2c144	-0.029633172
239	0xbcd5f4f7	-0.026117785
240	0x3d1769fc	0.03696631
241	0x3cd3ab8f	0.025838641
242	0x3ceb8455	0.028749624
243	0x3a87c644	0.001035877
244	0xbbd45779	-0.006480154
245	0x3c8df68f	0.017329482
246	0x3adedc16	0.0017002847
247	0xbc0a1bdb	-0.008429493
248	0xbc8c501b	-0.017128041
249	0x3c79c64c	0.015245032
250	0x3d221d68	0.039578825
251	0x3cb66220	0.022263587
252	0x3c8e609f	0.017380057
253	0xbc5bc064	-0.013412569
254	0x3bc824da	0.0061079087
255	0xbd1df567	-0.038564112

model.2.bias f4 [64]
0	0x3cf39247	0.029732836
1	0x3da0cc65	0.07851485
2	0x3b9eb1a9	0.004842956
3	0xbcd73029	-0.026268082
4	0x3d75c49a	0.060001947
5	0x3da61f0a	0.08111389
6	0xbda78efb	-0.08181568
7	0xbde16256	-0.11005084
8	0xbdb82d1b	-0.08992978
9	0x3cc72fac	0.024314724
10	0xbdd18946	-0.10231261
11	0xbcca20a4	-0.024673767
12	0xbd34063e	-0.043951266
13	0x3c8ffa1c	0.017575316
14	0xbd9a408a	-0.07531841
15	0x3d0ccbc0	0.034374
16	0xbc23f0c9	-0.010006138
17	0xbd4ff09b	-0.05076657
18	0x3dfd17aa	0.12358029
19	0x3db9808f	0.09057724
20	0xbc9ae358	-0.018907234
21	0xbd73e467	-0.059543993
22	0x3d6badb7	0.057538714
23	0x3e045648	0.12923539
24	0xbdb944a4	-0.09046295
25	0xbc88d8f4	-0.016705014
26	0x3d0a3010	0.033737242
27	0xbc47c339	-0.012192541
28	0x3d084cec	0.033276483
29	0xbcadb270	-0.02120325
30	0xbd8a5e1c	-0.06756231
31	0xbcbccb93	-0.02304629
32	0xbdf0c29f	-0.11755871
33	0xbde64820	-0.112442255
34	0x3d954708	0.07288939
35	0xbc297aa1	-0.010344178
36	0xbc7429a6	-0.014902508
37	0x3dcbd726	0.09953146
38	0xbdc320b3	-0.09527721
39	0xbd64f9c3	-0.055902254
40	0x3c179ff8	0.009254448
41	0x3cb6cfc9	0.022315877
42	0x3d60eec7	0.054915216
43	0xbd6bea80	-0.057596684
44	0x3d51a37e	0.05118131
45	0x3dae140e	0.08499919
46	0x3c84e4aa	0.016222317
47	0x3dc82c21	0.09774042
48	0xbdd3a848	-0.103348315
49	0x3d855210	0.06509793
50	0x3deb2c53	0.114830635
51	0x3dd6ede8	0.10494596
52	0x3c974c49	0.018468993
53	0xbc8f2b03	-0.017476564
54	0x39ad82aa	0.00033094484
55	0xbd3025ab	-0.043004673
56	0xbdd52040	-0.10406542
57	0x3d5d6ffd	0.05406188
58	0xbd4d8237	-0.05017301
59	0xbc229a3f	-0.00992447
60	0xbc813d3d	-0.015776271
61	0x3cbbecfa	0.022940148
62	0xbe0454c8	-0.12922966
63	0xbd9f6db0	-0.07784593

model.4.weight f4 [64, 64]
0	0xbc5e843c	-0.013581332
1	0xbd18f742	-0.03734518
2	0x3c8d088d	0.017215991
3	0xbcff2092	-0.03114346
4	0x3d359423	0.044330727
5	0x3cd36cf5	0.02580879
6	0xbce689b7	-0.02814184
7	0x3cc3452e	0.023836698
8	0xbbe8af09	-0.007100944
9	0x3d3aff6b	0.04565374
10	0xbd2e3a40	-0.04253602
11	0x3cd60689	0.026126163
12	0x3d0b2254	0.033968285
13	0xbcbc632e	-0.022996511
14	0xbd28e762	-0.04123629
15	0x3d052cb9	0.032513354
16	0xbcc523ab	-0.02406486
17	0x3cead27a	0.028664816
18	0x3d2e72d6	0.042589985
19	0x3d235fdf	0.03988635
20	0x3d2a859a	0.04163132
21	0x3d24d88c	0.040245578
22	0xbd219699	-0.03945026
23	0x3d182106	0.03714087
24	0x3cfc897e	0.03082728
25	0xbd1e1904	-0.038598076
26	0x3d3bd9f7	0.045862164
27	0x3d1ab9f0	0.03777498
28	0xbaa698e6	-0.0012710362
29	0xbce5c90b	-0.028049966
30	0xbd3dc8da	-0.046334125
31	0xbc4853aa	-0.012226978
32	0xbd270a98	-0.040781587
33	0x3d2169ff	0.039407726
34	0xbcbae978	-0.022816405
35	0xbd11db42	-0.03560949
36	0xbcb6231a	-0.022233535
37	0xbc7fd28c	-0.015614163
38	0xbd04002f	-0.032226738
39	0xbd2ecfed	-0.042678762
40	0xbd0dc451	-0.03461105
41	0x3c945124	0.018105097
42	0x3ced895b	0.02899616
43	0xbc97482a	-0.018467028
44	0xbcedd025	-0.029029915
45	0x3cb834ad	0.022486055
46	0x3d0f38a8	0.03496614
47	0x3cd09f31	0.025466533
48	0x3d2adc1b	0.041713815
49	0x3c805432	0.015665147
50	0x3d1043b9	0.035220835
51	0x3d0ae556	0.033910118
52	0x3d075be2	0.03304661
53	0x3cef78e9	0.02923246
54	0x3d036f3b	0.0320885
55	0xbcee2666	-0.029071044
56	0x3cdd9abd	0.027051324
57	0xbcf3cc45	-0.02976049
58	0x3d249e76	0.040190183
59	0xbd19b6f0	-0.03752798
60	0x3d0c1126	0.03419604
61	0x3d2c901c	0.04212962
62	0xbcf96cb3	-0.03044734
63	0xbcbc4eba	-0.022986759
64	0xbce3798f	-0.027767925
65	0x3cf83e71	0.030303212
66	0x3cbdc6f0	0.02316615
67	0x3cf3fa8b	0.029782554
68	0x3bade470	0.005306773
69	0x3c966d93	0.018362796
70	0xbcaa7a06	-0.020810138
71	0xbc6c2b6f	-0.014414652
72	0x3cbfb665	0.023402402
73	0xbd3ab821	-0.045585755
74	0x3d33cb55	0.043895084
75	0xbcfa3c20	-0.030546248
76	0xbcd9b0ba	-0.026573528
77	0xbb9274ac	-0.004469475
78	0x3d106a01	0.035257343
79	0x3aa9c4af	0.0012952293
80	0x3ccd5ed0	0.025069624
81	0xbd0ba00c	-0.03408818
82	0xbd11eef3	-0.03562827
83	0xbd1b80ac	-0.037964508
84	0xbd1b9795	-0.037986357
85	0xbd13c010	-0.036071837
86	0x3cd00a49	0.02539553
87	0xbd04edb2	-0.032453246
88	0xbcbeb166	-0.02327795
89	0x3d25d74c	0.040488526
90	0xbd09fc9a	-0.033688165
91	0x3d234b76	0.039866887
92	0xbce39851	-0.027782591
93	0x3cd46fb9	0.02593218
94	0x3d420c96	0.047375284
95	0xbc804a75	-0.015660504
96	0x3d0797a9	0.03310362
97	0xbd275c16	-0.040859304
98	0xbccc6f53	-0.024955427
99	0x3d03c7ae	0.03217285
100	0x3d07b2c2	0.03312946
101	0x3ce5f51c	0.028070979
102	0x3cbe8b5d	0.023259813
103	0x3d2ea525	0.042637963
104	0x3d333bee	0.043758325
105	0xbca29b3a	-0.019849408
106	0x3cd8ea08	0.026478782
107	0x3c842fc3	0.016136056
108	0x3aa94901	0.0012915434
109	0x3bf71d34	0.007541323
110	0xbd04ab55	-0.032389957
111	0x3cb5202f	0.022110073
112	0xbcedccc0	-0.029028296
113	0xbc68a048	-0.01419837
114	0xbd13d492	-0.036091395
115	0xbcf874b1	-0.03032908
116	0xbb292798	-0.0025810953
117	0x3bfd018b	0.007721131
118	0x3b463e91	0.0030249695
119	0xbc513347	-0.012768573
120	0x3ce5e043	0.028061038
121	0x3d0fcd03	0.035107624
122	0xbd2365d7	-0.039892044
123	0xbbd99e79	-0.006641206
124	0xbd0cd358	-0.03438124
125	0xbd28792e	-0.04113119
126	0x3d297934	0.041375354
127	0xbba3b887	-0.0049963626
128	0x3c4d2158	0.012520157
129	0xbd0528a4	-0.03250946
130	0xbc69a472	-0.014260398
131	0xbcf50d04	-0.029913433
132	0x3d36fd6d	0.04467528
133	0x3bfeffb5	0.0077819475
134	0xbcf5bbc8	-0.029996768
135	0x3cd32660	0.025775135
136	0x3cf1d058	0.029518291
137	0x3d26e039	0.04074118
138	0xbbdcfb3c	-0.0067438167
139	0xbbde4427	-0.0067830267
140	0x3ceb3a64	0.028714366
141	0xbcc410ce	-0.023933794
142	0xbd12e509	-0.035862956
143	0x3cff0e5e	0.03113478
144	0xbcdd9021	-0.027046265
145	0x3ce3a11a	0.02778678
146	0x3d169f94	0.03677328
147	0x3cf21cd6	0.029554766
148	0x3d0d328a	0.034472026
149	0x3d05a995	0.03263243
150	0xbd1b0d6d	-0.0378546
151	0x3cf9a6d2	0.030475054
152	0x3cdff10c	0.02733662
153	0xbce9b492	-0.028528485
154	0x3d30435f	0.043033
155	0x3d329a76	0.043604337
156	0xbcce5bf5	-0.025190333
157	0xbcdd333f	-0.027001975
158	0xbd23ef1f	-0.040022966
159	0xbcf72ce5	-0.030172775
160	0xbd1b386e	-0.037895612
161	0xbaff8c52	-0.0019496775
162	0xbd06bf24	-0.03289713
163	0xbcf6309a	-0.030052472
164	0x3c0afe37	0.008483461
165	0x3c365777	0.011129252
166	0xbcfce94f	-0.030872969
167	0xbd221afd	-0.03957652
168	0xbd047f34	-0.032347873
169	0x3d323e23	0.04351629
170	0x3cf32721	0.029681744
171	0x3c3a1c67	0.011359311
172	0xbcb053ce	-0.021524336
173	0x3cb70270	0.02234003
174	0x3ce3e368	0.027818397
175	0x3cfb15c2	0.030650023
176	0x3d204d60	0.03913629
177	0x3bddd315	0.0067695477
178	0x3ce2e49d	0.027696902
179	0x3cf66f12	0.03008226
180	0x3d0f27e6	0.03495016
181	0x3ce40842	0.027835969
182	0x3cc9a3ed	0.024614299
183	0xbcb088a2	-0.021549527
184	0xbcab8b29	-0.02094038
185	0xbcc52e3e	-0.024069902
186	0x3d01e878	0.03171584
187	0x3ccb2f6f	0.024802892
188	0x3cc8c50d	0.024508024
189	0x3d0fd6d8	0.035117
190	0xbc9ec477	-0.019380791
191	0xbcfeb30e	-0.03109124
192	0xbc0e19d8	-0.008673154
193	0xbce3945f	-0.02778071
194	0xbc855da9	-0.016280012
195	0x3b7671a8	0.0037604365
196	0x3cf5091a	0.029911567
197	0xbca15784	-0.019695051
198	0xbcd9f8c6	-0.026607882
199	0x3c833ea6	0.016021084
200	0xbca8c6f4	-0.02060268
201	0x3c512292	0.01276459
202	0xbce3e48e	-0.027818944
203	0x3c5fccb9	0.0136596495
204	0x3c9b3fbf	0.018951295
205	0x3c5c602e	0.013450665
206	0xbc20d858	-0.009817205
207	0x3c85aed7	0.016318722
208	0xbd1b0977	-0.037850823
209	0xbcab9f5f	-0.020950017
210	0x3cb5ad9c	0.02217751
211	0x3cdfabd3	0.027303612
212	0x3cddfac7	0.027097119
213	0x3cc694b2	0.024240825
214	0xbcc1b75c	-0.023647003
215	0x3cc7bee4	0.024383016
216	0x3cb865b6	0.022509437
217	0xbc3681f5	-0.011139383
218	0x3cd39b61	0.025830926
219	0xbc935fc4	-0.01799
220	0x3c6ca7d1	0.014444307
221	0xbcbbcc14	-0.02292446
222	0x3c57115c	0.013126697
223	0x3bc6708d	0.0060558976
224	0xbcd33546	-0.025782239
225	0x3cd51548	0.026011124
226	0x3caad20f	0.020852117
227	0xbca8c160	-0.02060002
228	0xbc9066f9	-0.017627226
229	0xbbf7d34c	-0.0075630303
230	0xbc947f97	-0.018127246
231	0xbce256a4	-0.027629204
232	0x3c981ab3	0.018567419
233	0x3c79e70b	0.015252839
234	0x3c2c2b65	0.010508393
235	0x3c5b9c9d	0.013404039
236	0x3c80e4a5	0.015734026
237	0xbc8aca32	-0.016942117
238	0x3cb64d68	0.022253707
239	0xbb84592b	-0.00403895
240	0x3ca9d296	0.020730298
241	0xbc000865	-0.007814501
242	0x3cb606cc	0.022220038
243	0x3adbceb2	0.0016769974
244	0x3c909591	0.017649444
245	0x3c0c9705	0.008580928
246	0x3cac5b22	0.02103955
247	0xbc387af9	-0.011259788
248	0x3c28c304	0.010300402
249	0x3c829f49	0.015945094
250	0x3cea5021	0.028602662
251	0x3cb2609e	0.021774586
252	0x3cb26964	0.02177877
253	0x3ca2553c	0.019816034
254	0xbcf056d9	-0.029338287
255	0x3a88aea4	0.0010428024

model.4.bias f4 [64]
0	0x3dfb7e93	0.122800015
1	0xbcc6f384	-0.02428604
2	0xbd163b7e	-0.03667783
3	0xbdf89d15	-0.12139336
4	0x3bf02c14	0.0073294733
5	0xbadc7d54	-0.0016822019
6	0x3e0218d7	0.12704788
7	0x3d907b1a	0.0705473
8	0x3dbb4d16	0.09145562
9	0x3ca3ef5b	0.020011595
10	0xbb668bd4	-0.003517856
11	0xbb4b3dc9	-0.0031012169
12	0xbdbc199d	-0.09184573
13	0x3ce2d237	0.027688129
14	0xbaaf0672	-0.0013353361
15	0x3db71773	0.089400195
16	0xbd75b4ba	-0.059986807
17	0xbcdc0fbc	-0.026862971
18	0x3d4554c4	0.048176542
19	0xbb84838d	-0.0040440024
20	0xbbba4469	-0.0056844247
21	0xbce0b8e6	-0.027431916
22	0x3d8645b3	0.06556263
23	0x3dd949be	0.10609768
24	0x3dc71f17	0.09722727
25	0xbdeb93d1	-0.11502803
26	0xbdcba535	-0.0994362
27	0x3ce2bca0	0.027677834
28	0xbe151550	-0.14558911
29	0xbd9f1445	-0.07767538
30	0xbc9c4ece	-0.019080546
31	0x3d830b9a	0.06398697
32	0x3dc2a0ed	0.095033504
33	0x3df364c1	0.11884452
34	0xbdb1396c	-0.086535305
35	0x3d20f78f	0.03929859
36	0xbda35a10	-0.079761624
37	0xbd8009d5	-0.06251875
38	0x3cad5a25	0.021161148
39	0xbd1545b1	-0.036443416
40	0x3d4b4ad7	0.04963192
41	0xbc046b9e	-0.008082299
42	0xbde39f46	-0.11114363
43	0x3dc0a961	0.094073065
44	0x3dad3511	0.08457387
45	0x3d87d497	0.06632345
46	0xbd6037ff	-0.054740902
47	0x3c34d0b1	0.011036084
48	0xbd957bc4	-0.07298997
49	0xbda3137e	-0.07962702
50	0xbc22a0b0	-0.009926006
51	0x3c9ca848	0.019123212
52	0xbd0d370a	-0.034476317
53	0xbdaacbe8	-0.08339673
54	0x3c87ba53	0.016568338
55	0xbdfe56d4	-0.12418905
56	0x3de85842	0.11344959
57	0x3dc555e7	0.09635525
58	0xbd76746a	-0.060169615
59	0x3dbfb8c3	0.093614124
60	0x3cf505b7	0.029909952
61	0x3d9c14b8	0.07621139
62	0xbceedd4d	-0.029158259
63	0x3b25957c	0.0025266102

model.6.weight f4 [64, 64]
0	0xbc74af16	-0.014934322
1	0x3c054571	0.008134232
2	0xbcabb0d5	-0.020958344
3	0xbc7b10cb	-0.015323828
4	0x3d02844f	0.03186446
5	0x3d36769d	0.044546712
6	0x3c665707	0.014058835
7	0x3d29fd2f	0.04150122
8	0xbd6f21df	-0.05838191
9	0xbc35e255	-0.011101325
10	0x3c9a5a26	0.018841814
11	0x3d0ed14d	0.034867574
12	0xbc76ba75	-0.015059103
13	0xbd2a6635	-0.04160138
14	0x3cca0930	0.024662584
15	0x3d11223d	0.035433043
16	0x3b939df0	0.0045049116
17	0x3c80cea5	0.015723536
18	0x3ca7557b	0.020426502
19	0x3d006e5c	0.031355247
20	0xbced5b7f	-0.028974293
21	0xbc599e69	-0.013282397
22	0x3d2d6b90	0.042338908
23	0xbc93922c	-0.018014036
24	0xbd0c0131	-0.034180824
25	0xbd16db84	-0.03683044
26	0xbcaee622	-0.02134997
27	0x3cf9e2ed	0.030503714
28	0x3d0a208c	0.033722445
29	0xbd0437fb	-0.03227995
30	0xbca85b15	-0.020551244
31	0x3cefb18b	0.029259464
32	0xbdd5090d	-0.10402117
33	0xbceb5f49	-0.028731959
34	0xbc8e97a9	-0.017406302
35	0x3d148ebc	0.036268935
36	0xbd17b30a	-0.03703598
37	0x3d1bbcb8	0.038021773
38	0xbd0bef91	-0.034164015
39	0x3cad050f	0.021120576
40	0xbd397690	-0.045279086
41	0x3d358f3a	0.044326045
42	0xbc754026	-0.014968907
43	0xbd248c78	-0.040173024
44	0xbd26aba1	-0.04069102
45	0x3c14f8f1	0.009092555
46	0x3cd60aab	0.026128134
47	0x3d28d99c	0.041223153
48	0xbc7e21f7	-0.015511028
49	0x3c9c56c5	0.019084344
50	0xbca34e3a	-0.019934762
51	0x3d035855	0.032066662
52	0x3cce9586	0.025217783
53	0xbd049458	-0.032368034
54	0x3cb063c2	0.021531943
55	0x3d110c0f	0.03541189
56	0x3d440cdf	0.047863837
57	0x3c74d30c	0.014942896
58	0x3cc00b93	0.023443019
59	0x3cfacb0a	0.030614395
60	0x3bdd5d68	0.0067555197
61	0x3d078d53	0.03309376
62	0x3c11d39d	0.00890055
63	0x3d3becaf	0.045880016
64	0x3d20665c	0.039160118
65	0xbd079173	-0.033097696
66	0x3cf5f868	0.030025676
67	0x3ca2a21b	0.019852689
68	0xbcf6d2fd	-0.030129904
69	0xbd2fbc38	-0.04290411
70	0x3ce49da2	0.027907196
71	0xbcfc26bf	-0.030780194
72	0x3d2db83e	0.042412035
73	0xbcf0af75	-0.02938054
74	0xbcdf2f73	-0.027244305
75	0xbc965c2c	-0.018354498
76	0xbcb99c23	-0.02265746
77	0x3d0497ca	0.03237132
78	0xbcaecd97	-0.021338267
79	0x3c6f47ac	0.01460449
80	0xbd0db941	-0.0346005
81	0xb9da15df	-0.00041596495
82	0x3ce4cf99	0.027931022
83	0xbcd266c6	-0.025683772
84	0xbcc57ebd	-0.024108285
85	0x3cfd54b7	0.030924184
86	0x3c85e716	0.016345542
87	0x3cead423	0.028665608
88	0x3cd9b09f	0.026573477
89	0x3c769287	0.015049583
90	0xbd0878a4	-0.033318177
91	0xbd06f581	-0.032948975
92	0xbd27a81e	-0.040931813
93	0xbd21f679	-0.039541695
94	0x3d27df66	0.040984534
95	0x3d29f255	0.04149087
96	0xbbecd162	-0.007227109
97	0x3cd6a722	0.026202742
98	0xbd055497	-0.032551374
99	0xbd007ae5	-0.0313672
100	0xbce24d02	-0.02762461
101	0xbd1a3f3f	-0.037657972
102	0x3cd44b17	0.025914712
103	0xbd137650	-0.036001503
104	0x3d10d3ec	0.035358354
105	0x3cf40f5f	0.029792486
106	0x3ce4cf6d	0.02793094
107	0x3d07770f	0.033072527
108	0x3c0f76a0	0.00875631
109	0xbbf6eef9	-0.007535812
110	0xbce8f4b8	-0.028437003
111	0xbd0943cd	-0.033511925
112	0x3cc13dc0	0.023589015
113	0xbd13a9e5	-0.036050696
114	0x3d12a1f0	0.035798967
115	0xbd04bff1	-0.032409612
116	0x3d029b94	0.031886652
117	0xbd060179	-0.03271625
118	0xbd1c1fba	-0.038116194
119	0xbd1ed590	-0.038777888
120	0x3cf5c653	0.030001795
121	0x3c5263ca	0.012841174
122	0x3cdaa79d	0.026691252
123	0x3cc69122	0.024239127
124	0xbb1578b0	-0.002280753
125	0xbd197dc0	-0.03747344
126	0x3d11456e	0.035466604
127	0xbd0a6621	-0.033788804
128	0x3cfcd418	0.030862853
129	0xbce092c5	-0.027413735
130	0x3d297ad8	0.04137692
131	0x3cd89768	0.026439384
132	0x3c2cd3f0	0.010548577
133	0xbd0d09d9	-0.03443322
134	0x3cb9ee9b	0.022696784
135	0xbd30f535	-0.043202598
136	0x3d542bd8	0.051799625
137	0x3d0c6564	0.03427638
138	0xbd4e5524	-0.050374165
139	0x3cb8e76e	0.022571292
140	0x3d21bed6	0.039488636
141	0x3d1f4185	0.038880844
142	0x3ce23657	0.027613802
143	0xbcd39789	-0.025829094
144	0xbc75829c	-0.014984753
145	0x3c2ac687	0.010423309
146	0x3d0ac536	0.03387948
147	0xbd10f8d8	-0.035393566
148	0xbcfc5477	-0.030801995
149	0x3d205d81	0.039151672
150	0x3cbc312f	0.022972671
151	0xbcbb30c3	-0.0228504
152	0x3d13e514	0.036107138
153	0xbd2ae556	-0.041722618
154	0x3cd33e82	0.025786642
155	0xbcb8f12d	-0.02257594
156	0xbcb4e7ce	-0.02208319
157	0x3d07d7b6	0.033164702
158	0xbc94d855	-0.018169561
159	0x3cc87231	0.024468513
160	0x3db70aee	0.089376315
161	0xbd357e8c	-0.044310138
162	0xbc86aab1	-0.016438814
163	0xbd356069	-0.044281397
164	0x3c9f8b7d	0.019475693
165	0xbd0f708d	-0.035019446
166	0xbcfdf9a7	-0.031002833
167	0x3cc34f89	0.023841636
168	0x3d078b47	0.03309181
169	0x3c9dd6bc	0.019267432
170	0x3cf12a3c	0.029439084
171	0xbb1dd3e5	-0.0024082598
172	0x3d2d8eda	0.042372562
173	0xbc9f5723	-0.01945073
174	0xbd34e910	-0.04416758
175	0xbd3449d3	-0.044015717
176	0x3d02588b	0.031822722
177	0xbcfc6ec0	-0.030814528
178	0x3c2c5a7e	0.010519622
179	0x3ca4b58e	0.020106103
180	0xbc21bb4d	-0.009871316
181	0xbc226177	-0.009910933
182	0xbcc3ceb6	-0.023902278
183	0xbc300f95	-0.010745903
184	0xbcc882d1	-0.02447644
185	0x3d08cb34	0.033396915
186	0xbd280c3a	-0.041027285
187	0x3cba4099	0.02273588
188	0x3d04eefc	0.032454476
189	0xbd37772b	-0.04479138
190	0x3cfbbfa6	0.030731034
191	0xbc9f8c02	-0.01947594
192	0xbc48b890	-0.012251034
193	0xbcf4e694	-0.029895104
194	0xbca68ec1	-0.020331742
195	0xbc59684f	-0.013269498
196	0x3cbbef73	0.022941327
197	0x3d0293cc	0.03187923
198	0x3d137505	0.03600027
199	0x3d0f7cf7	0.035031285
200	0xbd438478	-0.047733754
201	0x3c86fbe6	0.016477536
202	0x3cc816b7	0.024424894
203	0x3c841669	0.016123967
204	0x3a66649f	0.00087887974
205	0xbd093d0e	-0.033505492
206	0xbc835b4d	-0.016034747
207	0x3cedee4c	0.029044293
208	0x3ca5e2c4	0.020249732
209	0x3d027043	0.031845342
210	0x3c933d1c	0.017973475
211	0x3cd0d391	0.025491508
212	0xbcc68ff6	-0.024238568
213	0x3c0f9df2	0.008765684
214	0x3d0ccac9	0.03437308
215	0x3b901883	0.0043974533
216	0xbcbd4429	-0.02310379
217	0xbb08602b	-0.0020809274
218	0xbcadd182	-0.021218065
219	0x39246d6f	0.00015681026
220	0x3cba69cf	0.022755532
221	0xbd00d071	-0.031448785
222	0xbc9d66af	-0.019214002
223	0x3ced1a90	0.02894333
224	0xbda7aaf7	-0.08186906
225	0xbc810eb6	-0.015754085
226	0xbb621ba8	-0.0034501348
227	0x3d051929	0.032494698
228	0xbb5550cc	-0.003254938
229	0x3d004bb7	0.031322207
230	0xbcd3fcec	-0.025877438
231	0x3c6f218f	0.014595403
232	0xbd07709d	-0.03306638
233	0x3d1c21b6	0.038118087
234	0x3cb6d10c	0.022316478
235	0xbcf8ab21	-0.030355038
236	0xbd103d44	-0.035214677
237	0x3d0b23fa	0.033969857
238	0x3cc07361	0.023492517
239	0x3ce9370a	0.028468627
240	0xbcca5943	-0.024700766
241	0x3cb1d3c8	0.02170743
242	0xbca903d8	-0.020631716
243	0x3cab627c	0.020920984
244	0x3cc761a8	0.024338558
245	0xbd1389f4	-0.036020234
246	0x3c6d3bab	0.014479558
247	0xbcc53eef	-0.02407786
248	0x3d1a4cfa	0.037671067
249	0xbbdee2ea	-0.0068019526
250	0x3c96f99e	0.018429574
251	0x3ce65a18	0.028119132
252	0xbd0a7b45	-0.033808965
253	0x3ceb344f	0.028711466
254	0x3c52bcba	0.012862379
255	0x3d09fbb4	0.03368731

model.6.bias f4 [64]
0	0xbe029660	-0.12752676
1	0x3df13eda	0.11779566
2	0xbd7411f4	-0.059587434
3	0x3de59712	0.11210455
4	0x3dce323b	0.100681745
5	0xbd9c0c70	-0.0761956
6	0x3dbec056	0.09314029
7	0xbc1921c0	-0.0093464255
8	0x3d2230db	0.039597373
9	0x3e022331	0.12708737
10	0x3df292e8	0.118444264
11	0x3ccd07bd	0.025028104
12	0xbc7a6bcc	-0.01528449
13	0xbd9bedd7	-0.07613724
14	0x3b688d2c	0.0035484536
15	0x3dde13dd	0.10843632
16	0xbdd12bdb	-0.10213443
17	0xbdfceee6	-0.12350254
18	0x3d024460	0.03180349
19	0x3df6a71c	0.12043592
20	0xbd862242	-0.06549503
21	0x3c550e02	0.013003828
22	0xbc9cc5ad	-0.019137228
23	0xbe004b10	-0.12528634
24	0xbd603052	-0.05473358
25	0xbd9fa453	-0.07795014
26	0x3c25a726	0.010110652
27	0xbd3fe378	-0.04684779
28	0xbcbc1429	-0.022958832
29	0x3d5e40b6	0.054260932
30	0xbd29fff9	-0.04150388
31	0x3df43f94	0.11926189
32	0xbdc4a44a	-0.09601648
33	0xbcebf11f	-0.028801499
34	0x3dc45b83	0.09587767
35	0x3d1d82b3	0.038454723
36	0x3dd157dc	0.10221836
37	0x3c717a60	0.014738649
38	0xbd92ccdc	-0.0716798
39	0x3b60c7dc	0.0034298813
40	0xbd8074e6	-0.062722966
41	0xbc17b4a2	-0.009259375
42	0x3d7e1257	0.06202921
43	0x3dd9da56	0.106373474
44	0xbde2b970	-0.11070526
45	0x3da9c2e5	0.08289126
46	0xbd8ecc7c	-0.06972596
47	0xbda71f62	-0.08160283
48	0xbde66d32	-0.11251296
49	0xbd2f2360	-0.042758346
50	0xbd46b37d	-0.048511017
51	0xbd0ee195	-0.0348831
52	0xbde2325c	-0.110447615
53	0xbd7d17e1	-0.06179035
54	0xbd55de0d	-0.052213717
55	0x3d00591c	0.03133498
56	0x3d9dee28	0.0771144
57	0xbe0dbd2c	-0.13841695
58	0x3983ca9e	0.0002513723
59	0x3df0ec59	0.1176383
60	0x3d04af2a	0.032393612
61	0xbb79d9b3	-0.0038124144
62	0x3da759b5	0.08171407
63	0xbdb4f4dd	-0.088357665

model.8.weight f4 [1, 64]
0	0xbd87f79a	-0.06639023
1	0x3d9d854c	0.0769144
2	0x3d91b64f	0.07114851
3	0xbd448578	-0.04797885
4	0xbd9d2bbd	-0.07674358
5	0xbd7af42f	-0.061268028
6	0x3d866294	0.06561771
7	0xbcd2d4c1	-0.025736215
8	0xbdb2f961	-0.087389715
9	0x3dafff7f	0.08593654
10	0xbd8c75d7	-0.06858414
11	0x3d94507d	0.072419144
12	0xbd83e350	-0.06439841
13	0x3d87d732	0.06632842
14	0x3d9382a1	0.0720265
15	0x3d944678	0.07240003
16	0xbd97f4d4	-0.07419744
17	0xbdb44cbc	-0.088036984
18	0x3d88ed19	0.06685848
19	0x3d88d168	0.06680566
20	0xbd911fb1	-0.07086123
21	0xbd9e2d77	-0.077235155
22	0xbd9c56bb	-0.0763373
23	0xbd887e24	-0.066646844
24	0x3d925a6e	0.07146154
25	0x3d7dd691	0.061972205
26	0x3d79697a	0.060891606
27	0xbd984816	-0.07435624
28	0xbd0225fe	-0.031774513
29	0xbd6f5f55	-0.058440525
30	0xbd13ac5f	-0.036053058
31	0xbd994bd2	-0.07485165
32	0xbd962c1f	-0.07332634
33	0xbd8c82b4	-0.06860867
34	0x3d961402	0.07328035
35	0x3dacf39f	0.084449045
36	0x3d94672c	0.07246241
37	0x3d5ed0ae	0.05439823
38	0x3d8e11aa	0.06936963
39	0x3d9087a1	0.07057119
40	0xbd9831ca	-0.074313715
41	0x3d8e6705	0.06953243
42	0xbd39b5bb	-0.045339327
43	0x3d8d4083	0.0689707
44	0x3d97f271	0.07419289
45	0xbd6807f5	-0.056648213
46	0x3d759c88	0.059963733
47	0x3d98c139	0.07458729
48	0xbd8b1a07	-0.06792074
49	0xbda25864	-0.079270154
50	0x3d7cb38b	0.061694663
51	0xbd91bd12	-0.071161404
52	0xbd85c00b	-0.0653077
53	0xbd418dc7	-0.04725435
54	0x3d8a0a02	0.0674019
55	0xbd77cd4a	-0.060498513
56	0xbd7a5ea0	-0.061125398
57	0xbd9a3324	-0.075292856
58	0x3d9417c1	0.07231093
59	0x3d74302a	0.059616245
60	0x3d978e4e	0.07400189
61	0xbd8640b0	-0.06555307
62	0xbd6afc6d	-0.05736964
63	0x3d869d22	0.065729395
