parabola/conversion/snnmodel32.pth (torch, 54726 bytes, 9 tensors)

model.0.weight f4 [64, 1]
0	0x3f4def3b	0.8044316
1	0xbd507238	-0.050890177
2	0xbca7193d	-0.020397777
3	0xbebe4f67	-0.37169954
4	0xbe87a758	-0.2649486
5	0xbe460758	-0.19338739
6	0xbc822406	-0.015886318
7	0xbea622c1	-0.3244839
8	0xbe494121	-0.19653751
9	0xbf3d0b63	-0.738455
10	0x3f2181d0	0.63088703
11	0xbe90a366	-0.28249663
12	0x3f645ca2	0.89203846
13	0x3d408134	0.046998218
14	0x3f31c7be	0.6944541
15	0xbcd7cb28	-0.02634199
16	0x3f5721ba	0.8403584
17	0xbd1dc929	-0.03852192
18	0xbf2cb2cb	-0.67460316
19	0x3f1496e3	0.58042735
20	0x3f5be6c8	0.8589902
21	0xbf5a2948	-0.8521924
22	0xbdac0ec8	-0.08401257
23	0xbf3591ed	-0.7092579
24	0x3f550b85	0.832207
25	0xbf62f39e	-0.8865298
26	0xbe778ce8	-0.24174845
27	0x3e0e5525	0.13899668
28	0xbe655465	-0.22395475
29	0x3f6bf583	0.92171496
30	0xbf612529	-0.87947327
31	0xbe9cddfb	-0.30638108
32	0xbedd67b6	-0.43243188
33	0xbf621208	-0.88308764
34	0xbf1c9f34	-0.61180425
35	0xbf6eba5d	-0.9325312
36	0x3e594ae4	0.21219975
37	0x3f756d62	0.9587003
38	0xbd6f8acd	-0.05848198
39	0x3e4dab58	0.20084894
40	0xbe364e41	-0.17803289
41	0x3dc32fce	0.095306024
42	0x3e18bf18	0.14916646
43	0xbf3aae80	-0.72922516
44	0xbd80f42f	-0.06296574
45	0x3f795549	0.9739576
46	0x3e9a08fe	0.30084985
47	0x3f52e06f	0.8237371
48	0xbf2aef3c	-0.6677129
49	0xbf6ea783	-0.9322435
50	0x3e9fe3f1	0.31228593
51	0x3f5d7bf1	0.86517245
52	0xbf4deccf	-0.80439466
53	0xbf663edc	-0.89939666
54	0xbf684d9a	-0.9074341
55	0xbf5c6df3	-0.8610527
56	0xbdd1032d	-0.10205684
57	0x3da8299f	0.082110636
58	0xbec499b8	-0.38398528
59	0x3f48283b	0.78186387
60	0xbf67c5f9	-0.9053646
61	0xbe47b464	-0.19502407
62	0x3c755594	0.014974017
63	0xbd5e26fc	-0.054236397

model.0.bias f4 [64]
0	0xbf068e96	-0.5256132
1	0xbf549999	-0.8304687
2	0x3f0fb193	0.5613033
3	0xbe8bcb7d	-0.27303687
4	0xbf69b5af	-0.9129285
5	0xbef1e99b	-0.4724854
6	0x3f82c485	1.0216223
7	0xbf012faf	-0.50463384
8	0x3f6b983a	0.92029154
9	0xbf20e4b6	-0.62848985
10	0x3dc00768	0.09376413
11	0xbf8c254b	-1.0948881
12	0x3f3dadc9	0.740933
13	0x3ec0a004	0.37622082
14	0x3f40bce4	0.75288224
15	0x3e99ce0b	0.3004001
16	0xbf17126c	-0.59012485
17	0xbf2a3a09	-0.66494805
18	0xbf522e2b	-0.82101697
19	0x3dc08f91	0.09402383
20	0x3f52949d	0.82258016
21	0x3f70359c	0.938318
22	0x3ea4d86f	0.32196376
23	0xbeaf5735	-0.3424622
24	0xbf06fada	-0.5272652
25	0x3e742b1e	0.23844573
26	0xbe97ba7a	-0.29634458
27	0xbebce56a	-0.3689378
28	0xbf450bc4	-0.7697108
29	0xbe53d0ca	-0.20685115
30	0xbeac8380	-0.33694077
31	0x3f692f23	0.9108755
32	0x3e62999b	0.22128908
33	0xbe828e88	-0.25499368
34	0x3ef920e5	0.4865791
35	0x3e168b9e	0.14701697
36	0xbf60ac78	-0.87763166
37	0xbd6a7a2b	-0.057245415
38	0x3f3a7dbf	0.72848123
39	0x3e36be1a	0.17845955
40	0x3e4f2cbc	0.20231909
41	0x3eb0fce6	0.34567946
42	0x3ee766cb	0.45195612
43	0x3f451ebb	0.77000016
44	0xbf21e340	-0.6323738
45	0xbecb5a95	-0.39717546
46	0x3e83b6ac	0.25725305
47	0x3e96346c	0.2933687
48	0xbf4e378d	-0.80553514
49	0xbeb165ae	-0.34647888
50	0xbf0c1253	-0.5471546
51	0x3ef005b3	0.46879348
52	0xbe9923e9	-0.2991021
53	0xbf11cb45	-0.5695079
54	0xbda26fb9	-0.07931466
55	0x3f1518ac	0.5824077
56	0xbec6fd72	-0.38865238
57	0x3ee99a78	0.45625663
58	0xbf2e80a2	-0.6816503
59	0xbe160c17	-0.1465305
60	0xbeaa881b	-0.33306965
61	0x3e070ae2	0.13187745
62	0x3f75be50	0.9599352
63	0x3f65ffe1	0.89843565

model.2.weight f4 [64, 64]
0	0xbdb85cea	-0.09002097
1	0xbd9307d2	-0.07179226
2	0xbaf84539	-0.0018941528
3	0xbdbc9c18	-0.0920946
4	0xbd346ca3	-0.044048917
5	0x3bb078ef	0.00538551
6	0xbe000390	-0.12501359
7	0x3d9a59fb	0.07536694
8	0xbdf6d1fe	-0.120517716
9	0xbd8ad9c6	-0.06779818
10	0xbe2f625d	-0.17127366
11	0x3d017d41	0.031613592
12	0x3db674f8	0.08909029
13	0xbde1a911	-0.11018575
14	0x3cb61e17	0.022231145
15	0x3da100e5	0.07861499
16	0xbd109a50	-0.035303414
17	0x3df43576	0.11924259
18	0xbd9e19a9	-0.07719738
19	0xbe384fb4	-0.17999154
20	0xbd1b29e0	-0.037881732
21	0xbdd1707d	-0.102265336
22	0x3dc066fd	0.093946435
23	0x3d76babd	0.06023668
24	0xbaae40e1	-0.0013294482
25	0x3ddac21d	0.106815554
26	0x3b11f0e2	0.0022268821
27	0xbdb60dde	-0.08889364
28	0xbcf759b4	-0.030194141
29	0x3b090a60	0.0020910725
30	0xbda0e1b2	-0.07855548
31	0x3d2aa141	0.04165769
32	0xbac05826	-0.0014674708
33	0xbcb82841	-0.022480132
34	0xbcbb22ec	-0.0228438
35	0x3dac2bc1	0.08406783
36	0xbd1f7a96	-0.038935266
37	0xbcc18015	-0.023620645
38	0xbdf919e3	-0.121631406
39	0xbdb46a71	-0.088093646
40	0x3deceef2	0.11569013
41	0x3db59a2a	0.08867295
42	0x3df8c3b0	0.121466994
43	0x3d73fce4	0.059567347
44	0xbd184cee	-0.03718274
45	0x3d969669	0.07352907
46	0xbb4de98c	-0.0031419722
47	0xbbea41ee	-0.0071489727
48	0xbaddc45c	-0.0016919482
49	0xbd885cbd	-0.066583134
50	0xbdd23088	-0.10263163
51	0x3dc532be	0.09628819
52	0xbd6b6a51	-0.057474438
53	0xbda40aee	-0.08009897
54	0xbd13a998	-0.03605041
55	0xbde62e9b	-0.11239358
56	0xbd1801aa	-0.037110962
57	0xbc350fc7	-0.011051125
58	0x3d410364	0.047122374
59	0x3c93d072	0.01804373
60	0xbd5961dd	-0.053071845
61	0x3da6297e	0.08113383
62	0x3db2c489	0.08728892
63	0xbba92fa7	-0.0051631513
64	0xbe164744	-0.14675623
65	0xbda4be04	-0.08044055
66	0xbd008368	-0.03137532
67	0xbd905d98	-0.070491016
68	0xbd9fb8ad	-0.07798896
69	0x3c9ffdd5	0.019530216
70	0xbe0cd6be	-0.13753793
71	0x3de5fc3a	0.11229749
72	0xbc8dcac5	-0.017308602
73	0x3c31533f	0.01082307
74	0x3d71ac2e	0.059002094
75	0x3df91c85	0.12163643
76	0x3c248d26	0.010043418
77	0x3ce65b30	0.028119653
78	0x3c9f80cf	0.0194706
79	0xbdde324f	-0.10849439
80	0xbd46d96a	-0.048547186
81	0xbd6b7703	-0.057486545
82	0xbda70f2f	-0.08157193
83	0x3d955651	0.07291854
84	0x3d1ffe1e	0.039060704
85	0x3e0f4857	0.13992439
86	0x3d7a3b16	0.061091505
87	0x3d1c1e00	0.038114548
88	0xbdb34335	-0.08753053
89	0x3e069199	0.13141479
90	0x3d6f968b	0.05849318
91	0xbc984596	-0.018587869
92	0x3dfb1c41	0.122612484
93	0xbc9c3513	-0.019068277
94	0x3c68b45f	0.01420316
95	0xbd7e7df8	-0.062131852
96	0xbdbbbc12	-0.09166731
97	0x3d0f4aff	0.03498363
98	0xbddf943a	-0.10916944
99	0x3dddcfd1	0.108306535
100	0x3d853828	0.065048516
101	0x3d8c15d2	0.068400994
102	0xbd025543	-0.031819593
103	0x3d3eb2f2	0.046557374
104	0x3dbd9d9f	0.092585795
105	0xbd56b6cd	-0.052420426
106	0xbcef9fed	-0.029251063
107	0x3dc2bb5a	0.09508391
108	0xbd70a924	-0.058755055
109	0xbd712da8	-0.05888143
110	0xbdfcd384	-0.12345031
111	0x3d3ff180	0.04686117
112	0xbd427e0f	-0.0474835
113	0xbe2afc01	-0.16697694
114	0xbd99aaf6	-0.07503311
115	0xbd12d246	-0.035845064
116	0xbdc921ab	-0.09820875
117	0xbe06da1a	-0.13169137
118	0xbd498d19	-0.049206827
119	0x3dcd4a57	0.10023945
120	0x3d389cca	0.0450714
121	0x3d7addcc	0.06124668
122	0x3ddb6e40	0.10714388
123	0x3d829fc5	0.0637813
124	0xbde25708	-0.11051756
125	0xbbe22dc4	-0.0069024283
126	0xbdb1a352	-0.08673729
127	0xbdc6c363	-0.09705236
128	0x3d8148d1	0.06312717
129	0xbdcb7028	-0.099335015
130	0xbdda1b72	-0.10649766
131	0x3b2ddc44	0.0026528994
132	0x3d4587e8	0.048225313
133	0xbdf84457	-0.1212241
134	0x3db1fe72	0.0869111
135	0xbd97fb4f	-0.0742098
136	0x3dbc0eca	0.09182508
137	0xbcf58ff4	-0.029975869
138	0x3d185a2e	0.037195377
139	0x3d5b5829	0.053550873
140	0xbd31425b	-0.043276172
141	0x3dcf0321	0.10108019
142	0x3c148404	0.009064678
143	0x3d3b3de0	0.045713305
144	0xbde24dac	-0.11049971
145	0x3c18e2eb	0.009331445
146	0x3c7ca085	0.01541913
147	0xbde1f914	-0.11033836
148	0xbd6f8819	-0.058479402
149	0x3d82e915	0.06392113
150	0xbd9d9974	-0.076952845
151	0x3dfc9aa8	0.12334186
152	0xbdb650e2	-0.08902146
153	0x3d5a43e4	0.0532874
154	0x3d4e6615	0.05039032
155	0x3ce91d5b	0.02845638
156	0xbc960a21	-0.018315377
157	0x3d7bf3df	0.06151187
158	0x3de7311b	0.11288663
159	0x3de9b803	0.114120506
160	0xbc52995d	-0.0128539475
161	0xbdb39d99	-0.08770294
162	0xbda0758a	-0.07834919
163	0xbc5fccf6	-0.013659706
164	0xbd562361	-0.052279834
165	0xbd139e50	-0.03603965
166	0x3cb5e150	0.022202164
167	0xbdb6e6f1	-0.08930767
168	0xbcf5e4cb	-0.030016324
169	0x3cc3904d	0.023872519
170	0xbdf368b7	-0.11885207
171	0x3b8d81f0	0.0043184683
172	0xbb8faf74	-0.0043849293
173	0x3e0b2231	0.13587262
174	0x3db2f1e4	0.08737543
175	0x3d1b4622	0.03790868
176	0xbc58d990	-0.013235465
177	0x3d41ff43	0.047362577
178	0x3dcc496c	0.099749416
179	0xbcf662e1	-0.030076446
180	0x3e0b748a	0.13618675
181	0xbd8ce342	-0.068792835
182	0xbdb0e005	-0.08636478
183	0xbdfb66ec	-0.1227549
184	0x3d66820b	0.056276362
185	0xbdf76eea	-0.12081702
186	0xbc77bb94	-0.015120406
187	0xbbad6c55	-0.005292455
188	0x3de75ce1	0.11297012
189	0xbdf6953f	-0.12040185
190	0xbdebc6d3	-0.11512532
191	0xbdbfbad1	-0.09361804
192	0x3c543213	0.012951392
193	0x3dd29460	0.102822065
194	0xbdb1888c	-0.086686224
195	0x3cb36948	0.021900788
196	0x3dfcbc27	0.12340575
197	0x3de0c467	0.10974961
198	0x3d82d2a4	0.06387833
199	0x3e0247f5	0.12722762
200	0x3d3222c4	0.043490186
201	0x3cc8d505	0.024515638
202	0xbd6cc530	-0.05780524
203	0xbc1d5400	-0.009602547
204	0x3ddafc71	0.106926806
205	0xbe006c7b	-0.12541382
206	0xbdc29558	-0.09501141
207	0x3d03e1cd	0.032197762
208	0xbdcb0e75	-0.09914867
209	0x3adf1302	0.0017019215
210	0xbdb2fd08	-0.08739668
211	0x3c20760d	0.0097937705
212	0x3d5ccdda	0.053907253
213	0xbdada01d	-0.08477805
214	0xbdfc5ecb	-0.12322768
215	0xbd43af58	-0.047774643
216	0xbd2b1779	-0.041770432
217	0x3d380116	0.04492291
218	0xbdd13c1f	-0.10216545
219	0xbdc52de2	-0.09627892
220	0xbd81914f	-0.063265435
221	0xbcde9152	-0.027168903
222	0xbd9adc70	-0.07561576
223	0x3dada696	0.08479039
224	0x3b1511a5	0.0022746113
225	0x3d34a2dc	0.044100627
226	0xbda870d6	-0.08224647
227	0x3c7c011c	0.015381124
228	0x3d11524b	0.03547887
229	0x3cea21cb	0.028580567
230	0x3da344c4	0.079721004
231	0xbe03a05e	-0.12854144
232	0x3da0c232	0.0784954
233	0x3cc39ae2	0.023877565
234	0xbd92b32f	-0.07163083
235	0xbcd2dc56	-0.02573983
236	0xbd6834ab	-0.056690853
237	0xbd640b4b	-0.055674832
238	0xbd9198d9	-0.071092315
239	0xbacf5224	-0.0015817326
240	0x3d028b79	0.031871293
241	0x3de5a03d	0.11212204
242	0x3cb0542b	0.02152451
243	0xbd261640	-0.040548563
244	0xbcfc3b29	-0.030789929
245	0x3d00fac7	0.03148916
246	0xbd08ce59	-0.033399913
247	0x3c262357	0.010140262
248	0xbd8d87d2	-0.06910671
249	0x3d51f189	0.051255737
250	0x3db0a0e4	0.086244375
251	0x3df751b8	0.120761335
252	0x3d62dd72	0.055386968
253	0x3bc2ad62	0.005941079
254	0x3cf478f3	0.02984283
255	0xbd99127d	-0.074742295

model.2.bias f4 [64]
0	0x3cf39247	0.029732836
1	0x3da0cc65	0.07851485
2	0x3b9eb1a9	0.004842956
3	0xbcd73029	-0.026268082
4	0x3d75c49a	0.060001947
5	0x3da61f0a	0.08111389
6	0xbda78efb	-0.08181568
7	0xbde16256	-0.11005084
8	0xbdb82d1b	-0.08992978
9	0x3cc72fac	0.024314724
10	0xbdd18946	-0.10231261
11	0xbcca20a4	-0.024673767
12	0xbd34063e	-0.043951266
13	0x3c8ffa1c	0.017575316
14	0xbd9a408a	-0.07531841
15	0x3d0ccbc0	0.034374
16	0xbc23f0c9	-0.010006138
17	0xbd4ff09b	-0.05076657
18	0x3dfd17aa	0.12358029
19	0x3db9808f	0.09057724
20	0xbc9ae358	-0.018907234
21	0xbd73e467	-0.059543993
22	0x3d6badb7	0.057538714
23	0x3e045648	0.12923539
24	0xbdb944a4	-0.09046295
25	0xbc88d8f4	-0.016705014
26	0x3d0a3010	0.033737242
27	0xbc47c339	-0.012192541
28	0x3d084cec	0.033276483
29	0xbcadb270	-0.02120325
30	0xbd8a5e1c	-0.06756231
31	0xbcbccb93	-0.02304629
32	0xbdf0c29f	-0.11755871
33	0xbde64820	-0.112442255
34	0x3d954708	0.07288939
35	0xbc297aa1	-0.010344178
36	0xbc7429a6	-0.014902508
37	0x3dcbd726	0.09953146
38	0xbdc320b3	-0.09527721
39	0xbd64f9c3	-0.055902254
40	0x3c179ff8	0.009254448
41	0x3cb6cfc9	0.022315877
42	0x3d60eec7	0.054915216
43	0xbd6bea80	-0.057596684
44	0x3d51a37e	0.05118131
45	0x3dae140e	0.08499919
46	0x3c84e4aa	0.016222317
47	0x3dc82c21	0.09774042
48	0xbdd3a848	-0.103348315
49	0x3d855210	0.06509793
50	0x3deb2c53	0.114830635
51	0x3dd6ede8	0.10494596
52	0x3c974c49	0.018468993
53	0xbc8f2b03	-0.017476564
54	0x39ad82aa	0.00033094484
55	0xbd3025ab	-0.043004673
56	0xbdd52040	-0.10406542
57	0x3d5d6ffd	0.05406188
58	0xbd4d8237	-0.05017301
59	0xbc229a3f	-0.00992447
60	0xbc813d3d	-0.015776271
61	0x3cbbecfa	0.022940148
62	0xbe0454c8	-0.12922966
63	0xbd9f6db0	-0.07784593

model.4.weight f4 [64, 64]
0	0xbd9572ea	-0.07297309
1	0xbe0a1c15	-0.13487275
2	0x3c76f6a3	0.015073451
3	0xbd608d42	-0.054822214
4	0x3dbc943a	0.092079595
5	0x3dd3a6fb	0.10334583
6	0xbca25e58	-0.019820377
7	0x3de4d5be	0.111735806
8	0xbd8f95c3	-0.07010987
9	0x3de436f5	0.11143295
10	0x3a5673f8	0.0008180733
11	0x3de2fef8	0.11083788
12	0x3e06ba0f	0.13156913
13	0xbd43e8fd	-0.047829617
14	0xbdbf429f	-0.09338879
15	0xbdc0f94f	-0.09422552
16	0xbda70b3e	-0.08156441
17	0xbcc5ea77	-0.024159653
18	0xbdb93970	-0.090441585
19	0x3bb11646	0.0054042665
20	0x3e5cbba8	0.2155596
21	0xbcebc7c1	-0.028781774
22	0x3d7d9250	0.061907113
23	0x3de9b421	0.1141131
24	0xbb69077a	-0.0035557435
25	0xbd7de833	-0.06198902
26	0xbcc75fa3	-0.024337595
27	0x3d206a34	0.039163783
28	0x3d038bc6	0.03211572
29	0x3b4d2f1c	0.0031308597
30	0xbdfbf0ba	-0.12301774
31	0x3cf7b3f8	0.030237183
32	0xbe2e00a1	-0.16992427
33	0x3ddadaef	0.106862895
34	0x3cb081c9	0.021546261
35	0x3de5687e	0.11201571
36	0xbd837194	-0.06418148
37	0xbc3ccf7d	-0.011524078
38	0x3d4098df	0.04702079
39	0xbdae5166	-0.08511619
40	0x3cbf7c75	0.023374775
41	0x3dd49ea1	0.103818186
42	0xbca071c1	-0.019585492
43	0x3d78346a	0.06059686
44	0x3cbf01a4	0.023316212
45	0xbd06541d	-0.03279506
46	0xbd196af2	-0.037455507
47	0x3c57a742	0.013162436
48	0x3df45ecd	0.11932144
49	0x3cf6b08f	0.030113487
50	0x3bbd9998	0.005786132
51	0x3e082903	0.13296895
52	0xbd2eb15f	-0.042649623
53	0x3d58ee9e	0.052961938
54	0xbc935467	-0.017984582
55	0xbdce8a68	-0.10084993
56	0x3d97514e	0.073885545
57	0xbdaf7134	-0.08566514
58	0x3d4ff4c1	0.050770525
59	0xbd55c574	-0.05219026
60	0x3d0b7f31	0.034056846
61	0xbd0568a3	-0.032570492
62	0x3dadf205	0.08493427
63	0xbdc4076d	-0.09571729
64	0xbd8290fe	-0.06375311
65	0x3d2588c3	0.04041363
66	0xbd8a54ef	-0.06754481
67	0x3e050a51	0.12992217
68	0x3d148d78	0.036267728
69	0xbcb95310	-0.022622615
70	0xbe009fed	-0.12561007
71	0xbd01e3d8	-0.03171143
72	0x3d312290	0.043245852
73	0xbd9450d6	-0.07241981
74	0x3d9e8a0d	0.07741175
75	0x3c9fad31	0.019491764
76	0x3d8c759c	0.0685837
77	0xbdf2e3b2	-0.11859836
78	0xbd0fbdeb	-0.03509323
79	0x3dea73f1	0.11447895
80	0x3dd85a12	0.105640545
81	0xbcadfa84	-0.02123762
82	0xbcaeba87	-0.021329178
83	0xbb57d1e3	-0.0032931499
84	0xbd7689f2	-0.06019015
85	0xbe24f423	-0.16108756
86	0x3d8a8bcb	0.06764945
87	0xbdf3a2e3	-0.118963026
88	0x3db1748a	0.08664806
89	0x3d5f8c86	0.054577373
90	0xbdddb943	-0.108263515
91	0x3dc79692	0.09745516
92	0xbd436a77	-0.047708955
93	0x3d74480a	0.059639014
94	0x3d50f63c	0.051016077
95	0xbb112f6b	-0.0022153507
96	0xbd83a7a1	-0.06428457
97	0xbd879870	-0.06620872
98	0xbbeb4884	-0.0071802754
99	0xbd45bd33	-0.048276138
100	0x3d78a3c9	0.060703073
101	0xbd5e2cfa	-0.05424211
102	0x3d2368ca	0.039894857
103	0x3d8d9683	0.069134735
104	0x3d808065	0.06274489
105	0xbdc7a746	-0.09748702
106	0x3d5fae17	0.054609384
107	0xbd1e3bc0	-0.0386312
108	0x3d75d835	0.060020644
109	0xbbf9c6b9	-0.0076225665
110	0xbc70f1c5	-0.01470608
111	0x3d4fb371	0.050708238
112	0x3db8df59	0.09026975
113	0xbded3438	-0.115822256
114	0x3bac4aeb	0.0052579544
115	0xbdefa825	-0.11701993
116	0xbd5cbbcf	-0.053890046
117	0x3b5cc746	0.0033688112
118	0x3d946583	0.07245924
119	0x3d84793e	0.064684376
120	0xbce211ae	-0.027596321
121	0x3def0bc6	0.116721675
122	0xbd287299	-0.041124914
123	0x3d6fb433	0.05852146
124	0xbdd69ae8	-0.10478765
125	0xbc945f00	-0.018111706
126	0x3db6896a	0.089129284
127	0x3dd0d325	0.101965226
128	0x3d564e51	0.052320782
129	0xbddf270b	-0.10896119
130	0xbdba04e5	-0.09082965
131	0x3d68fcd6	0.05688175
132	0x3db4d773	0.08830156
133	0xbda23c99	-0.07921714
134	0xbd7d4e2d	-0.061842132
135	0x3e03343d	0.12812896
136	0xbd39dbad	-0.045375515
137	0x3dced2f9	0.100988336
138	0x3d60b6d2	0.05486185
139	0xbddb83d4	-0.107185036
140	0x3d77c6ee	0.06049245
141	0x3c406a55	0.0117441015
142	0x3d8d2877	0.06892484
143	0x3d075d97	0.03304824
144	0xbdc19c66	-0.09453659
145	0x3da2bafb	0.0794582
146	0x3cf5707b	0.029960861
147	0xbdca788d	-0.098862745
148	0x3d191380	0.037372112
149	0x3da6e472	0.08149041
150	0xbc3619bc	-0.011114534
151	0xbdb090a9	-0.08621342
152	0xbc9fd6fc	-0.019511692
153	0xbd16ebf1	-0.036846105
154	0x3da22d80	0.07918835
155	0x3d833789	0.06407077
156	0x3c155a40	0.009115756
157	0x3da5b780	0.080916405
158	0xbde4297c	-0.11140725
159	0xbd1fe271	-0.03903431
160	0xbceb0dd4	-0.028693117
161	0xbde3e0a8	-0.11126834
162	0xbc81d837	-0.01585017
163	0xbd3edfb8	-0.046600074
164	0x3d060df5	0.032728154
165	0x3b188a8b	0.0023275937
166	0xbb38b9b4	-0.002818686
167	0xbdf90268	-0.12158662
168	0xbd969846	-0.073532626
169	0x3c44b4ee	0.012006028
170	0xbc0593fe	-0.00815296
171	0x3d874178	0.06604284
172	0x3d3d3182	0.046189792
173	0x3c29915e	0.0103496
174	0xbd227d9f	-0.039670583
175	0x3dfa298f	0.12214958
176	0x3dc62ba1	0.0967629
177	0x3df8a6cc	0.12141189
178	0xbb96d9bc	-0.0046035927
179	0x3dd3ac1a	0.1033556
180	0x3db34fbe	0.08755444
181	0xbd14ba14	-0.03631027
182	0x3d8cebfd	0.06880949
183	0xbd39e421	-0.045383576
184	0xbd9ed5b4	-0.077556044
185	0xbd948d12	-0.072534695
186	0xbcf47a5c	-0.029843502
187	0x3d8e03ae	0.069342956
188	0x3db62ad0	0.088948846
189	0x3d4cadbc	0.049970374
190	0x3cd1b74f	0.025600104
191	0xbae86d09	-0.001773269
192	0xbd14acde	-0.03629767
193	0xbd9c4565	-0.076304235
194	0xbdcb5bab	-0.09929594
195	0x3d3ed2a2	0.046587594
196	0x3d068365	0.03284015
197	0xbdc76ab6	-0.0973715
198	0xbd146e68	-0.036238104
199	0xbd77bcf7	-0.060482945
200	0x3d5c7e85	0.053831596
201	0xbcb90e82	-0.022589926
202	0xbd06a452	-0.03287155
203	0x3df5745d	0.11985085
204	0xbc374f01	-0.01118827
205	0xbcf9e905	-0.03050662
206	0x3dd11b36	0.10210268
207	0x3dec9484	0.115517646
208	0xbdef69fe	-0.11690138
209	0xbd8cb3a6	-0.06870203
210	0x3d2c0e34	0.042005733
211	0xbdd84280	-0.10559559
212	0xbca8217a	-0.020523775
213	0x3d99336c	0.07480511
214	0x3d45c5c2	0.0482843
215	0x3dde25ad	0.1084703
216	0xba084473	-0.0005198188
217	0x3d8e2941	0.06941462
218	0xbcb466c9	-0.022021668
219	0xbd095900	-0.033532143
220	0x3da67e87	0.08129602
221	0xbe01dd6e	-0.12682125
222	0x3d8ae71e	0.06782363
223	0x3d124c1c	0.035717115
224	0x3cc20fde	0.023689207
225	0x3de286b2	0.11060847
226	0x3d7dbce0	0.061947703
227	0xbdb43a5d	-0.088001944
228	0xbd3eab62	-0.046550162
229	0x3cca6b86	0.024709474
230	0xbd868ab1	-0.06569422
231	0xbdcd480e	-0.10023509
232	0x3d9506e9	0.07276709
233	0x3d926a74	0.071492106
234	0x3de8086b	0.113297306
235	0xbd9dd8a6	-0.07707338
236	0x3da10eba	0.07864137
237	0xbdfebc4a	-0.12438257
238	0x3de110c6	0.109895274
239	0xbde30329	-0.11084587
240	0x3df208f0	0.11818111
241	0x3da28c40	0.07936907
242	0x3df5c6b5	0.12000791
243	0xbd575d94	-0.052579477
244	0x3db5e322	0.08881213
245	0x3de7718b	0.113009535
246	0x3b6261c6	0.003454314
247	0xbd11020f	-0.035402354
248	0x3cfe29c7	0.03102578
249	0x3df5f9fe	0.12010573
250	0x3e043e86	0.12914476
251	0x3a380af5	0.00070206757
252	0x3ca516e5	0.020152519
253	0xbcdd66a6	-0.027026486
254	0xbda12d68	-0.07869989
255	0x3c81b99c	0.015835576

model.4.bias f4 [64]
0	0x3dfb7e93	0.122800015
1	0xbcc6f384	-0.02428604
2	0xbd163b7e	-0.03667783
3	0xbdf89d15	-0.12139336
4	0x3bf02c14	0.0073294733
5	0xbadc7d54	-0.0016822019
6	0x3e0218d7	0.12704788
7	0x3d907b1a	0.0705473
8	0x3dbb4d16	0.09145562
9	0x3ca3ef5b	0.020011595
10	0xbb668bd4	-0.003517856
11	0xbb4b3dc9	-0.0031012169
12	0xbdbc199d	-0.09184573
13	0x3ce2d237	0.027688129
14	0xbaaf0672	-0.0013353361
15	0x3db71773	0.089400195
16	0xbd75b4ba	-0.059986807
17	0xbcdc0fbc	-0.026862971
18	0x3d4554c4	0.048176542
19	0xbb84838d	-0.0040440024
20	0xbbba4469	-0.0056844247
21	0xbce0b8e6	-0.027431916
22	0x3d8645b3	0.06556263
23	0x3dd949be	0.10609768
24	0x3dc71f17	0.09722727
25	0xbdeb93d1	-0.11502803
26	0xbdcba535	-0.0994362
27	0x3ce2bca0	0.027677834
28	0xbe151550	-0.14558911
29	0xbd9f1445	-0.07767538
30	0xbc9c4ece	-0.019080546
31	0x3d830b9a	0.06398697
32	0x3dc2a0ed	0.095033504
33	0x3df364c1	0.11884452
34	0xbdb1396c	-0.086535305
35	0x3d20f78f	0.03929859
36	0xbda35a10	-0.079761624
37	0xbd8009d5	-0.06251875
38	0x3cad5a25	0.021161148
39	0xbd1545b1	-0.036443416
40	0x3d4b4ad7	0.04963192
41	0xbc046b9e	-0.008082299
42	0xbde39f46	-0.11114363
43	0x3dc0a961	0.094073065
44	0x3dad3511	0.08457387
45	0x3d87d497	0.06632345
46	0xbd6037ff	-0.054740902
47	0x3c34d0b1	0.011036084
48	0xbd957bc4	-0.07298997
49	0xbda3137e	-0.07962702
50	0xbc22a0b0	-0.009926006
51	0x3c9ca848	0.019123212
52	0xbd0d370a	-0.034476317
53	0xbdaacbe8	-0.08339673
54	0x3c87ba53	0.016568338
55	0xbdfe56d4	-0.12418905
56	0x3de85842	0.11344959
57	0x3dc555e7	0.09635525
58	0xbd76746a	-0.060169615
59	0x3dbfb8c3	0.093614124
60	0x3cf505b7	0.029909952
61	0x3d9c14b8	0.07621139
62	0xbceedd4d	-0.029158259
63	0x3b25957c	0.0025266102

model.6.weight f4 [64, 64]
0	0xbb3079a9	-0.0026927984
1	0x3d8e2274	0.06940165
2	0x3cd627c7	0.026142014
3	0xbc513896	-0.012769839
4	0x3cb1fa51	0.021725805
5	0xbda98ae4	-0.082784444
6	0xbcdec0b0	-0.02719149
7	0x3ca1285a	0.019672561
8	0xbdd4db50	-0.10393393
9	0xbca25ba9	-0.019819098
10	0x3ddbd409	0.10733802
11	0x3db86057	0.0900275
12	0xbb1a497f	-0.0023542342
13	0xbde758d2	-0.11296238
14	0x3debfafb	0.1152248
15	0xbc9f9f9d	-0.01948529
16	0xbc6182d5	-0.013764103
17	0xbc72ff55	-0.014831384
18	0x3daf0385	0.08545593
19	0xbcc736b5	-0.024318079
20	0xbdb6d854	-0.0892798
21	0xbce6148b	-0.028085968
22	0x3dc77e01	0.0974083
23	0xbdfcc9b5	-0.1234316
24	0xbd255e0a	-0.040372886
25	0x3a20a22c	0.0006127681
26	0x3ca77772	0.020442698
27	0x3d7eb523	0.062184464
28	0x3dd812b6	0.10550444
29	0xbde78207	-0.113040976
30	0xbd14fa11	-0.036371294
31	0x3dc5e01b	0.09661885
32	0xbe67ae9f	-0.22625206
33	0xbd42cd34	-0.04755898
34	0xbbd51fd2	-0.0065040374
35	0xbd978643	-0.07398655
36	0xbda7ebfe	-0.08199309
37	0x3dd94b53	0.1061007
38	0x3d07ef09	0.033186946
39	0x3d301d64	0.04299678
40	0xbd109159	-0.035294864
41	0x3db7e415	0.0897905
42	0xbdd77885	-0.10521034
43	0xbd84a76c	-0.06477246
44	0xbd074cb6	-0.03303214
45	0xbd284ccd	-0.041088868
46	0xbd96216f	-0.07330596
47	0xbbcca8fd	-0.006245731
48	0x3d7610fe	0.0600748
49	0x3c709817	0.014684699
50	0xbd1e9e5d	-0.038725246
51	0xbd138650	-0.036016762
52	0x3dd52ec2	0.10409309
53	0xbcd1fcf1	-0.025633307
54	0x3d9c4376	0.07630055
55	0x3e0d3400	0.13789368
56	0x3d467c51	0.0484584
57	0xbd502d19	-0.05082426
58	0x3d976540	0.07392359
59	0x3d39c5d3	0.045354676
60	0x3d3ec12c	0.04657094
61	0x3c22f806	0.009946829
62	0x3da15b44	0.07878736
63	0x3cc363a4	0.023851223
64	0x3c2c8743	0.010530296
65	0xbddfb3e2	-0.10922982
66	0x3ca0799b	0.019589236
67	0x3dd4a0a3	0.103822015
68	0xbcfa1689	-0.030528324
69	0xbd643ea9	-0.05572382
70	0xbc8d3b0a	-0.017240066
71	0xbdfc9407	-0.123329215
72	0xbc4f81f5	-0.0126652615
73	0xbd6403a2	-0.055667527
74	0xbd7f715c	-0.062363967
75	0xbd272bf8	-0.040813416
76	0xbc8e7f96	-0.017394822
77	0x3e013c8e	0.12620756
78	0xbd5aea19	-0.05344591
79	0xbd31d1f5	-0.04341312
80	0xbd93ee31	-0.07223166
81	0xbd094353	-0.03351147
82	0xbcce74c2	-0.025202159
83	0xbde7d70b	-0.11320313
84	0x3dcb5d37	0.09929889
85	0x3e022337	0.12708746
86	0x3ddf032a	0.10889275
87	0x3de0316b	0.10946926
88	0xbd81f01c	-0.06344625
89	0x3df580f6	0.11987488
90	0x3cac9a51	0.021069678
91	0x3d12a10d	0.03579812
92	0xbda54d8c	-0.080714315
93	0xbdba53ea	-0.090980366
94	0x3dad7a79	0.084706254
95	0x3d40ce3e	0.047071688
96	0x3d78fae1	0.06078613
97	0xbc9c20d6	-0.019058626
98	0xbe0a1c25	-0.13487299
99	0xbe02dd9c	-0.1277985
100	0x3b8b84b8	0.0042577647
101	0xbdc7b46b	-0.09751209
102	0xbcf0d0a1	-0.029396357
103	0xbaf8bb7d	-0.0018976774
104	0x39ffd16c	0.00048793422
105	0x3d91bddb	0.0711629
106	0xbd1419d7	-0.036157455
107	0xbd82661f	-0.06367134
108	0xbdc22ff1	-0.094818
109	0xbd41b1c8	-0.047288686
110	0xbdcec652	-0.1009642
111	0xbcef54fa	-0.029215325
112	0x3d3a9770	0.04555458
113	0x3b11f4e5	0.0022271213
114	0x3e24d979	0.16098584
115	0xbdb81e11	-0.0899011
116	0x3de280e8	0.11059743
117	0xbcdb2088	-0.02674891
118	0xbc9ba8e1	-0.019001426
119	0xbd021dcd	-0.0317667
120	0x3db32cc9	0.087487765
121	0x3d92f4e7	0.07175618
122	0x3de5f79f	0.112288706
123	0xb8ce0202	-9.8232194e-05
124	0x3db0ba32	0.08629264
125	0x3ded2d60	0.1158092
126	0x3da0c438	0.07849926
127	0xbdd9d2b8	-0.106358945
128	0x3cdb58ce	0.026775744
129	0xbd7ce818	-0.06174478
130	0xbc66933c	-0.014073189
131	0xbd8b97ef	-0.068160884
132	0x3d97d4b5	0.074136175
133	0xbdc95fc6	-0.098327205
134	0x3df3d14c	0.119051546
135	0xbcb49339	-0.022042857
136	0x3d133a62	0.03594435
137	0x3d3fe044	0.046844736
138	0xbdc539ea	-0.09630187
139	0xbdc60b7d	-0.0967016
140	0xbc832a6b	-0.016011437
141	0xbd8e2871	-0.06941307
142	0x3d498d22	0.04920686
143	0xbdc3b921	-0.09556795
144	0xbd8ca30b	-0.068670355
145	0x3d0ba507	0.03409293
146	0x3cf30a4b	0.029667994
147	0x3d54147c	0.051777348
148	0xbd2cc285	-0.042177696
149	0x3d23b122	0.03996385
150	0x3db9e6c5	0.09077219
151	0xbbe7377d	-0.0070561753
152	0x3db550f9	0.08853335
153	0xbddfb881	-0.10923863
154	0x3d8e7346	0.069555804
155	0xbae04101	-0.0017109216
156	0x3d5f62b4	0.05453749
157	0x3d802b0f	0.06258213
158	0xb9ef3c23	-0.00045630438
159	0x3d993d79	0.07482428
160	0x3e409e5e	0.18810412
161	0xbd6871bc	-0.05674909
162	0x3d8a28a8	0.06746036
163	0xbd5643b7	-0.05231067
164	0x3d89d728	0.06730491
165	0x3d76ea5c	0.060282096
166	0x3d8e21eb	0.06940063
167	0x3d778717	0.060431566
168	0x3d1ff016	0.039047323
169	0x3db1680d	0.08662424
170	0x3cafb6d1	0.021449478
171	0xbddf8951	-0.10914863
172	0x3d656cbc	0.0560119
173	0xbc073d0e	-0.008254303
174	0xbde5b820	-0.1121676
175	0xbc9f833c	-0.019471757
176	0x3d5333b4	0.05156298
177	0xbd92e840	-0.071732044
178	0x3ccb679d	0.02482968
179	0x3d8e5097	0.06948965
180	0xbdc83f0a	-0.09777649
181	0xbd8657dc	-0.065597266
182	0xbdb4f993	-0.08836665
183	0xbc298c23	-0.010348353
184	0xbd2442f3	-0.04010291
185	0xbd49f021	-0.04930127
186	0xbdeb47d5	-0.1148831
187	0xbd821e90	-0.063534856
188	0x3dc05043	0.09390309
189	0xbe0235a1	-0.1271577
190	0x3e053a51	0.13010527
191	0xbd38bc26	-0.045101307
192	0xbc1e53c4	-0.009663526
193	0xbc1ca6d1	-0.0095612565
194	0x3d96f732	0.073713675
195	0xbd89c548	-0.067270815
196	0x3c8f879b	0.017520716
197	0xbd0357e1	-0.03206623
198	0x3d5dbe09	0.05413631
199	0x3d140326	0.036135815
200	0xbe470392	-0.19434956
201	0x3de617e9	0.11235029
202	0x3ddd9ba2	0.108207
203	0xbd2805fe	-0.04102134
204	0x3c96a658	0.018389866
205	0xbca864e3	-0.020555919
206	0xbd801578	-0.06254095
207	0xbe030de2	-0.12798265
208	0x3d626cdf	0.05527961
209	0x3d66e12f	0.056367096
210	0x3d8aa80c	0.06770334
211	0x3c8c9233	0.017159557
212	0xbdceb83b	-0.10093733
213	0x3dad8c8d	0.084740736
214	0x3d898001	0.06713868
215	0xbcb17874	-0.021663882
216	0x3d3f1606	0.046651863
217	0x3db828c3	0.0899215
218	0x3c3652f5	0.011128177
219	0xbc3c1058	-0.011478506
220	0x3d130dc3	0.035901796
221	0xbdc194a9	-0.09452183
222	0xbde6b977	-0.11265843
223	0x3daebd5d	0.08532212
224	0xbd816124	-0.06317356
225	0xbde78a55	-0.113056816
226	0x3cb4d6bf	0.022075055
227	0x3c6be8b0	0.014398739
228	0x3cad47f8	0.021152481
229	0x3e0d262d	0.13784094
230	0xbd56430f	-0.052310046
231	0x3daeb83c	0.08531234
232	0xbda3a8a1	-0.07991148
233	0x3d79d696	0.06099566
234	0x3d092fde	0.033492915
235	0x3dddc78d	0.10829077
236	0xbdaf3fd7	-0.08557098
237	0x3d44b864	0.04802741
238	0xbd2fd612	-0.042928763
239	0xbced6e57	-0.028983278
240	0xbdc79330	-0.09744871
241	0x3dd21d82	0.102595344
242	0xbe13be6b	-0.14428107
243	0xbc907d51	-0.01763788
244	0x3dacb5dd	0.08433125
245	0xbddcfc65	-0.10790328
246	0x3df3c632	0.11903037
247	0xbdc1ff39	-0.09472508
248	0x3d2fdedb	0.04293714
249	0xbd68f58d	-0.0568748
250	0xbcc62add	-0.02419036
251	0x3cb70c77	0.02234481
252	0xbd187376	-0.037219487
253	0xbc4b13fd	-0.012394902
254	0x3dc2e51e	0.09516357
255	0xbcbab9f4	-0.022793747

model.6.bias f4 [64]
0	0xbe029660	-0.12752676
1	0x3df13eda	0.11779566
2	0xbd7411f4	-0.059587434
3	0x3de59712	0.11210455
4	0x3dce323b	0.100681745
5	0xbd9c0c70	-0.0761956
6	0x3dbec056	0.09314029
7	0xbc1921c0	-0.0093464255
8	0x3d2230db	0.039597373
9	0x3e022331	0.12708737
10	0x3df292e8	0.118444264
11	0x3ccd07bd	0.025028104
12	0xbc7a6bcc	-0.01528449
13	0xbd9bedd7	-0.07613724
14	0x3b688d2c	0.0035484536
15	0x3dde13dd	0.10843632
16	0xbdd12bdb	-0.10213443
17	0xbdfceee6	-0.12350254
18	0x3d024460	0.03180349
19	0x3df6a71c	0.12043592
20	0xbd862242	-0.06549503
21	0x3c550e02	0.013003828
22	0xbc9cc5ad	-0.019137228
23	0xbe004b10	-0.12528634
24	0xbd603052	-0.05473358
25	0xbd9fa453	-0.07795014
26	0x3c25a726	0.010110652
27	0xbd3fe378	-0.04684779
28	0xbcbc1429	-0.022958832
29	0x3d5e40b6	0.054260932
30	0xbd29fff9	-0.04150388
31	0x3df43f94	0.11926189
32	0xbdc4a44a	-0.09601648
33	0xbcebf11f	-0.028801499
34	0x3dc45b83	0.09587767
35	0x3d1d82b3	0.038454723
36	0x3dd157dc	0.10221836
37	0x3c717a60	0.014738649
38	0xbd92ccdc	-0.0716798
39	0x3b60c7dc	0.0034298813
40	0xbd8074e6	-0.062722966
41	0xbc17b4a2	-0.009259375
42	0x3d7e1257	0.06202921
43	0x3dd9da56	0.106373474
44	0xbde2b970	-0.11070526
45	0x3da9c2e5	0.08289126
46	0xbd8ecc7c	-0.06972596
47	0xbda71f62	-0.08160283
48	0xbde66d32	-0.11251296
49	0xbd2f2360	-0.042758346
50	0xbd46b37d	-0.048511017
51	0xbd0ee195	-0.0348831
52	0xbde2325c	-0.110447615
53	0xbd7d17e1	-0.06179035
54	0xbd55de0d	-0.052213717
55	0x3d00591c	0.03133498
56	0x3d9dee28	0.0771144
57	0xbe0dbd2c	-0.13841695
58	0x3983ca9e	0.0002513723
59	0x3df0ec59	0.1176383
60	0x3d04af2a	0.032393612
61	0xbb79d9b3	-0.0038124144
62	0x3da759b5	0.08171407
63	0xbdb4f4dd	-0.088357665

model.8.weight f4 [1, 64]
0	0xbdf7dbcb	-0.12102469
1	0x3e02120d	0.12702198
2	0x3d5506da	0.052008487
3	0xbd352686	-0.044226192
4	0xbdcb3c2f	-0.099235885
5	0xbdd6b87d	-0.10484407
6	0x3e00b60c	0.12569445
7	0xbc7c1abd	-0.015387234
8	0xbdf0fdc2	-0.117671505
9	0x3c8cc3df	0.017183242
10	0xbdd4f6fc	-0.10398671
11	0x3dabfb69	0.08397562
12	0xbd9468f9	-0.072465844
13	0x3ccd754e	0.02508035
14	0x3d2300a5	0.039795537
15	0x3d1b55c0	0.037923574
16	0xbd2d26ac	-0.04227321
17	0xbcbf98ed	-0.02338835
18	0x3dbe9ecd	0.093076326
19	0x3d8e7e7f	0.06957721
20	0xbd63811e	-0.055543058
21	0xbd3ff463	-0.046863925
22	0xbe28fe8f	-0.16503356
23	0xbd907341	-0.07053233
24	0x3da2f4bf	0.07956838
25	0x3d9c2264	0.07623747
26	0x3d91e798	0.07124251
27	0xbd3ec757	-0.046576824
28	0xbd5c0e66	-0.05372467
29	0xbd201840	-0.039085627
30	0xbda63843	-0.081162
31	0xbd85b7e6	-0.065292165
32	0xbd57df7e	-0.052703373
33	0xbcae2b18	-0.021260783
34	0x3d1a34dd	0.03764807
35	0x3dc521d6	0.09625594
36	0x3dc81c74	0.09771052
37	0x3dc0ec18	0.09420031
38	0x3daad89b	0.083420955
39	0x3d223632	0.039602466
40	0xbe3001b5	-0.17188151
41	0x3db97f70	0.0905751
42	0xbd9b3308	-0.07578093
43	0x3d52bf94	0.051452234
44	0x3e328b82	0.1743603
45	0xbc28b558	-0.010297142
46	0x3d1e881a	0.038704015
47	0x3e040db9	0.1289586
48	0xbd4e2b6e	-0.050334387
49	0xbd1209af	-0.035653766
50	0x3d309003	0.04310609
51	0xbdc8dd3f	-0.09807824
52	0xbccdec2b	-0.025137028
53	0xbda90fe1	-0.08254982
54	0x3d6b77b8	0.05748722
55	0xbd125906	-0.03572943
56	0xbdd3d4ab	-0.103432976
57	0xbc38ffe9	-0.0112914825
58	0x3d528efa	0.051405884
59	0x3e175441	0.14778234
60	0x3d53fe8d	0.05175643
61	0xbe0beaa8	-0.13663733
62	0xbc50f673	-0.012754071
63	0x3d036cd6	0.032086216
